pretrained_gnns/credit_graphcl_gcn.pth (torch, 48792 bytes, 4 tensors)

conv1.bias f4 [256]
0.006410297 -0.007484325 0.0076128803 -0.019184187 0.020892574 0.0024080086 -0.01762429 0.02797647
-0.0051055807 -0.010229747 0.005759147 0.008149213 -0.025282769 0.0025362102 -0.022696648 0.0102987895
-0.0062773735 0.024997715 0.007475813 -0.016416281 0.005532297 -0.00083449023 0.029144505 0.0024158563
-0.006571544 0.010439776 0.017033128 -0.0011709512 -0.0023332937 0.003655647 0.007194788 0.0017034408
0.023783397 -0.002656802 -0.0031767818 -0.0174388 0.007746296 -0.0041119214 0.013495229 0.009079765
-0.0049141124 0.0074985786 0.014310126 -0.0028365552 -0.0063359374 -0.004138456 0.0013024281 0.0018990701
-0.019859822 0.012995437 -0.0015134783 0.0073443516 0.00301338 0.004795323 0.008703877 0.01259655
0.017466137 0.00744644 -0.022648888 0.0100149885 -0.010833328 0.0023933598 -0.01119949 0.00835631
0.01737629 0.02165175 -0.008886912 -0.002156914 -0.022752075 0.00932615 -0.013726476 0.008011637
0.0029571776 0.017980041 -0.0017434162 -0.004244241 -0.0027343116 -0.02531408 -0.0041345265 0.0038287614
0.022079924 0.0376201 0.016836792 0.009720519 -0.0136428885 0.031133987 -0.013635031 -0.0055811307
-0.0027319957 -0.0026753847 0.008904619 0.014007505 0.005199065 0.02265256 0.014358426 0.008924624
-0.005570807 -0.017577248 0.0032254336 -0.010692132 0.028929679 -0.0071075377 -0.012633972 0.0066152154
0.005391406 0.007414427 -0.004632899 0.017174568 0.010502497 0.033950727 0.008577698 0.0023243355
0.028367141 0.015198164 0.011432583 0.01303913 -0.01569403 0.007174584 -0.009744325 -0.010343464
-0.01082279 0.029847087 0.0012910096 0.013417202 -0.002329336 0.0026457787 0.011766544 0.02266926
0.013219842 0.019231334 -0.0065282118 -0.008826067 0.010717836 0.01627086 -0.006120508 0.0097101275
0.017439462 -0.009214321 0.0011748566 -0.0050335336 0.008327421 4.974916e-05 -0.002192301 -0.0068429667
-0.0039411546 -0.027479833 -0.021200452 0.0066614635 0.014952202 -0.011566574 0.021380031 0.023100726
-0.004163792 -0.009990609 0.024788972 0.011949178 0.0035077839 -0.004049178 0.0036019678 -0.005542287
0.018856568 -0.006176095 0.012792224 -0.00037196686 -0.011943362 0.014416621 -0.005987273 -0.003224758
0.0012423078 0.014737266 0.006419856 0.02380685 -0.0005691403 0.017064583 0.011068495 0.02119259
0.006440673 0.0072648367 0.0008674188 -0.012610073 0.022800343 -0.016802384 0.0063054576 0.028968208
0.008045151 0.009918199 0.0041632312 0.017884176 -0.0035621515 0.00045023867 0.00042412136 0.0048638554
0.014724892 0.0117661115 -0.02185988 0.017664496 0.00846577 0.013002851 -0.015254553 0.006244822
-0.006365518 -0.0045214593 0.009828053 0.002627304 0.0059902077 0.015753616 0.03532478 -0.0061439853
0.0015514676 -0.002447491 0.001036136 -0.0010205377 0.009276733 -0.0047031324 0.011935577 0.01628033
0.013744916 0.0017026634 -0.0034693188 -0.016916616 -0.0055200686 -0.00443368 0.002442247 0.015929198
0.024765018 0.021386987 0.011818855 0.01422192 0.023691779 0.0032830797 -0.0021088056 -0.016908068
0.003150012 0.007911643 0.016164426 -0.006866646 -0.0011160302 -0.012690454 0.0071487348 0.004978594
0.0146558415 0.00014769108 0.056294914 0.008950856 -0.010615415 0.0049164253 0.0075208372 -0.010484319
0.0047592223 0.002538277 0.015504893 -0.0057852627 -0.01777989 0.00793611 -0.001265935 0.0014965413
00000000: 780d d23b 123f f5bb 7875 f93b 2828 9dbc
00000010: e726 ab3c aecf 1d3b d160 90bc e92e e53c
00000020: b74c a7bb ab9a 27bc 3ab7 bc3b 4784 053c
00000030: cf1d cfbc 8c36 263b 52ee b9bc 41bc 283c
00000040: 6db2 cdbb 02c8 cc3c aaf7 f43b 707b 86bc
00000050: 4548 b53b b1c1 5aba 75c0 ee3c 5853 1e3b
00000060: 1b56 d7bb 980b 2b3c 0f89 8b3c 9a7a 99ba
00000070: 2cea 18bb 9493 6f3b 42c2 eb3b fd45 df3a
00000080: 66d5 c23c be1d 2ebb 8e31 50bb d0db 8ebc
00000090: a4d4 fd3b 4cbd 86bb 181b 5d3c 4bc3 143c
000000a0: 9006 a1bb a3b6 f53b 0575 6a3c 80e5 39bb
000000b0: b29d cfbb e39b 87bb 3cb6 aa3a 38ea f83a
000000c0: 11b1 a2bc d0ea 543c e85f c6ba e3a8 f03b
000000d0: 217c 453b 1622 9d3b b59a 0e3c c361 4e3c
000000e0: 2515 8f3c 4401 f43b 298a b9bc e815 243c
000000f0: 457e 31bc ead9 1c3b 117e 37bc e8e8 083c
00000100: b958 8e3c 035f b13c 699a 11bc 035b 0dbb
00000110: 8f62 babc b5cc 183c 03e5 60bc 3e43 033c
00000120: 35cd 413b e14a 933c 5783 e4ba 4613 8bbb
00000130: 2332 33bb 795f cfbc ec7a 87bb f5eb 7a3b
00000140: f5e0 b43c 8917 1a3d 50ed 893c d042 1f3c
00000150: 6c86 5fbc b40c ff3c 7765 5fbc ebe1 b6bb
00000160: 480b 33bb 8255 2fbb aee4 113c bc7f 653c
00000170: eb5c aa3b dd91 b93c 9b3f 6b3c 9638 123c
00000180: 518b b6bb 29fe 8fbc cc61 533b 0d2e 2fbc
00000190: effd ec3c 59e6 e8bb b8fe 4ebc 73c4 d83b
000001a0: 64aa b03b b9f4 f23b 93cf 97bb aeb1 8c3c
000001b0: aa12 2c3c eb0f 0b3d 7989 0c3c e153 183b
000001c0: 3562 e83c b801 793c bb4f 3b3c 13a2 553c
000001d0: c490 80bc c618 eb3b a9a6 1fbc a277 29bc
000001e0: 1252 31bc e181 f43c 1837 a93a d3d3 5b3c
000001f0: c6a7 18bb cd64 2d3b 76c8 403c e2b4 b93c
00000200: 0998 583c 088b 9d3c 9cea d5bb 359b 10bc
00000210: dd99 2f3c 774a 853c 8b8e c8bb 3a17 1f3c
00000220: 34dd 8e3c aaf7 16bc a5fd 993a 57f0 a4bb
00000230: bc6f 083c c1a9 5038 b5ac 0fbb f73a e0bb
00000240: cd24 81bb 631d e1bc 92ac adbc 6848 da3b
00000250: 15fa 743c ba81 3dbc 2d25 af3c bc3d bd3c
00000260: 6b70 88bb a7af 23bc 3e12 cb3c 7cc6 433c
00000270: d9e2 653b f8ae 84bb fe0e 6c3b 139c b5bb
00000280: 1779 9a3c d760 cabb 7a96 513c 8c04 c3b9
00000290: 17ae 43bc b133 6c3c e330 c4bb 7656 53bb
000002a0: efd4 a23a 9374 713c a85d d23b 9506 c33c
000002b0: 5c32 15ba 06cb 8b3c a258 353c 159c ad3c
000002c0: 480c d33b de0d ee3b 7e63 633a 7b9a 4ebc
000002d0: c9c7 ba3c 27a5 89bc 039e ce3b bc4e ed3c
000002e0: cfcf 033c f17f 223c b76b 883b d681 923c
000002f0: fc72 69bb 030e ec39 9b5c de39 fa60 9f3b
00000300: ac40 713c a6c6 403c 7e13 b3bc 22b5 903c
00000310: 03b4 0a3c e909 553c 3cee 79bc 5da1 cc3b
00000320: d695 d0bb c028 94bb d805 213c d92e 2c3b
00000330: 8149 c43b ba0d 813c b7b0 103d 7c53 c9bb
00000340: 9d5a cb3a 1666 20bb f4ce 873a 90c3 85ba
00000350: 70fd 173c bc1c 9abb 708d 433c 545e 853c
00000360: 5b32 613c e72b df3a 835d 63bb b794 8abc
00000370: b1e1 b4bb 6748 91bb 1b0e 203b f37d 823c
00000380: 02e0 ca3c c333 af3c dfa3 413c 0e03 693c
00000390: 4315 c23c f028 573b e333 0abb ca82 8abc
000003a0: 6f70 4e3b d69f 013c 426b 843c 9a01 e1bb
000003b0: c247 92ba 9feb 4fbc ef3f ea3b 7923 a33b
000003c0: 0e1f 703c 86dd 1a39 7f95 663d 9ca6 123c
000003d0: 47ec 2dbc f719 a13b 5b71 f63b 6cc6 2bbc
000003e0: 40f3 9b3b 3959 263b 3c08 7e3c 4d92 bdbb
000003f0: 22a7 91bc 7506 023c bbed a5ba 9827 c43a

conv1.lin.weight f4 [256, 12]
0.13595468 0.033389788 -0.124969974 -0.040081203 0.095199965 0.06274018 0.011167011 -0.108026676
0.009127342 0.054807615 -0.031524293 0.08696776 0.09297039 0.06372066 0.084022716 -0.053418044
0.14836942 0.104196556 0.08785149 -0.12058537 0.14936869 -0.032387927 -0.037092622 -0.061603907
0.100479014 -0.06962476 0.0017619297 -0.0018340829 -0.057596125 0.012766857 -0.1296913 -0.03724434
0.09325928 0.038948808 -0.092258945 0.042312227 0.08915265 -0.01825815 -0.07533901 -0.097542115
-0.061356407 0.10985567 0.1378604 0.011415787 0.10172557 0.11726364 0.13445163 -0.04424485
-0.084923655 -0.004573689 0.08604177 0.11784345 -0.01731266 0.12895676 0.067652546 0.06264569
0.12911889 0.13698009 0.031751793 -0.060204025 -0.09780469 -0.12008147 -0.10018319 0.18241748
-0.08829855 -0.09130392 -0.08685266 -0.043547053 0.03632003 -0.08966892 0.13123997 0.025080202
-0.07188099 0.12653667 -0.07119783 -0.0040880064 0.11263065 -0.09144197 0.067407236 -0.058816757
-0.022582116 -0.091296285 -0.05901819 -0.029916821 -0.10938941 -0.10992737 0.103038155 0.1649251
0.10032032 -0.061963923 0.115086354 0.02374914 0.06954163 0.080535024 0.07140391 -0.08217253
-0.017483365 -0.00600639 -0.09971515 0.123347275 -0.14150645 -0.009331386 -0.045631092 -0.002246101
0.10278257 -0.048213158 -0.05336659 0.11574328 -0.029104538 -0.058581 0.12524451 0.028037718
0.0633334 -0.005408733 -0.04583681 -0.064001806 -0.07628398 0.094620526 -0.039386556 -0.124211065
0.029164756 0.14839128 0.05567182 -0.0018815331 -0.11168357 0.17023522 0.1290479 0.01265584
-0.15652582 0.101302646 -0.15486261 0.06020373 0.0369924 0.10751221 -0.118538275 0.10297402
0.059457753 0.111854 -0.09883967 0.09158999 0.01968315 0.087143585 0.105532885 -0.10187614
-0.009021912 0.009022364 0.002091639 0.049936105 0.030877246 0.0019484356 0.03285153 -0.08964986
0.15304065 -0.080496825 0.12135492 -0.022125818 0.13682151 -0.082036614 0.0021605415 -0.15598863
-0.1339338 -0.042889483 -0.016027596 -0.044366326 0.011693008 -0.02554313 0.05606844 -0.043531977
0.07259831 0.09403207 -0.01608267 0.104388505 -0.10605444 -0.11175347 0.039468855 0.09746195
0.036792018 -0.12774077 -0.01690724 0.0899551 0.10795069 0.0713018 0.05072124 -0.11406117
-0.027428085 0.051197313 0.10682331 0.041907188 0.021627737 0.056103013 0.14721727 -0.075789124
-0.00598051 0.040452223 -0.12921353 0.14558728 0.112787955 -0.08739871 -0.07785487 -0.12347821
-0.13211155 -0.08632331 0.13292098 -0.008256368 -0.17934985 -0.038365476 0.18028319 0.084044866
0.067275204 -0.11759022 0.09669846 -0.074498095 0.05772226 0.06419521 0.036172386 -0.045400012
-0.10757438 -0.08265837 0.0031086283 -0.14149675 -0.13241613 -0.13628586 -0.12829287 0.07549388
-0.1871373 0.13758618 0.04578879 -0.012668592 -0.017592946 -0.01620992 0.108524784 0.026671879
-0.032627616 -0.11672577 -0.10774681 0.041733902 -0.12334682 0.12667859 -0.037813112 0.066199064
0.13872351 -0.09767449 -0.14185421 -0.17200641 0.0788173 -0.082824185 0.041676342 0.08697302
-0.057202816 -0.13069159 0.109021895 0.0028060495 -0.08656018 -0.035078753 -0.1166966 -0.08186073
00000000: b437 0b3e bbc3 083d 42f0 ffbd 302c 24bd
00000010: 33f8 c23d ec7d 803d d7f5 363c 173d ddbd
00000020: d98a 153c f37d 603d 9e1f 01bd 271c b23d
00000030: 4367 be3d fa7f 823d 1a14 ac3d e1cc 5abd
00000040: 27ee 173e 0165 d53d 7beb b33d 76f5 f6bd
00000050: 1bf4 183e 34a9 04bd 6fee 17bd 6154 7cbd
00000060: f1c7 cd3d 6d97 8ebd 8df0 e63a 9c65 f0ba
00000070: eae9 6bbd 142c 513c cccd 04be 858d 18bd
00000080: b9fe be3d c988 1f3d 42f2 bcbd 964f 2d3d
00000090: aa95 b63d 1e92 95bc 574b 9abd 29c4 c7bd
000000a0: db50 7bbd 02fc e03d 472b 0d3e 4809 3b3c
000000b0: 7f55 d03d eb27 f03d b0ad 093e 163a 35bd
000000c0: 74ec adbd e2de 95bb ab36 b03d e857 f13d
000000d0: 48d3 8dbc 3e0d 043e 6b8d 8a3d 624c 803d
000000e0: be37 043e 8244 0c3e 2b0e 023d 7f98 76bd
000000f0: d34d c8bd 46ed f5bd d82c cdbd a6cb 3a3e
00000100: dfd5 b4bd 8dfd babd cfdf b1bd 655e 32bd
00000110: 50c4 143d 57a4 b7bd c563 063e ff74 cd3c
00000120: 5736 93bd d492 013e 2bd0 91bd aff4 85bb
00000130: e6aa e63d ed45 bbbd ce0c 8a3d d7e9 70bd
00000140: 21fe b8bc 8cf9 babd 0fbd 71bd 1f14 f5bc
00000150: 8e07 e0bd 9a21 e1bd ab05 d33d 20e2 283e
00000160: bd74 cd3d e2cd 7dbd 65b2 eb3d 8e8d c23c
00000170: d86b 8e3d 8cef a43d 373c 923d 124a a8bd
00000180: 4639 8fbc 40d1 c4bb 7537 ccbd 7f9d fc3d
00000190: 11e7 10be abe2 18bc abe7 3abd 5233 13bb
000001a0: ab7f d23d 297b 45bd ed96 5abd d00a ed3d
000001b0: a46c eebc a1f2 6fbd 1940 003e 5baf e53c
000001c0: f1b4 813d be3b b1bb 61bf 3bbd 6113 83bd
000001d0: c63a 9cbd 68c8 c13d cc53 21bd 5f62 febd
000001e0: edea ee3c e2f3 173e 2208 643d c69d f6ba
000001f0: 5bba e4bd 2452 2e3e 2225 043e 715a 4f3c
00000200: 4e48 20be c377 cf3d 4e94 1ebe 3098 763d
00000210: 5885 173d 5d2f dc3d 32c4 f2bd 0be4 d23d
00000220: f989 733d b613 e53d 746c cabd 8893 bb3d
00000230: 8f3e a13c 5678 b23d a021 d83d 70a4 d0bd
00000240: a4d0 13bc 8ad2 133c e113 093b cd89 4c3d
00000250: 47f2 fc3c a662 ff3a 538f 063d 599a b7bd
00000260: b0b6 1c3e 85db a4bd ee88 f83d 3441 b5bc
00000270: f01a 0c3e d002 a8bd df97 0d3b 7cbb 1fbe
00000280: f125 09be e2ac 2fbd 4e4c 83bc 77b9 35bd
00000290: 0894 3f3c d33f d1bc 05a8 653d 964e 32bd
000002a0: 6cae 943d e393 c03d cebf 83bc a4c9 d53d
000002b0: 1233 d9bd 01df e4bd 18aa 213d 219a c73d
000002c0: 3ab3 163d 7ace 02be 0d81 8abc 613a b83d
000002d0: 4015 dd3d ae06 923d 13c1 4f3d e798 e9bd
000002e0: ddb0 e0bc 46b4 513d 2ec6 da3d dfa6 2b3d
000002f0: a72c b13c 46cc 653d 20c0 163e 5437 9bbd
00000300: 27f8 c3bb 3bb1 253d 8d50 04be d514 153e
00000310: 5ffd e63d 18fe b2bd 6072 9fbd 25e2 fcbd
00000320: 4048 07be 47ca b0bd 701c 083e b845 07bc
00000330: 7da7 37be 1e25 1dbd 289c 383e b71f ac3d
00000340: 95c7 893d 24d3 f0bd d809 c63d 7592 98bd
00000350: 2d6e 6c3d c778 833d 7f29 143d 5df5 39bd
00000360: f54f dcbd cb48 a9bd 21ba 4b3b 86e4 10be
00000370: 1898 07be 858e 0bbe 355f 03be 899c 9a3d
00000380: eca0 3fbe 64e3 0c3e 078d 3b3d ed8f 4fbc
00000390: 151f 90bc abca 84bc 3e42 de3d fc7e da3c
000003a0: 89a4 05bd ec0d efbd 5caa dcbd 2bf1 2a3d
000003b0: 429d fcbd 08b8 013e ece1 1abd 6093 873d
000003c0: 890d 0e3e 9009 c8bd 3b42 11be 7322 30be
000003d0: f76a a13d ba9f a9bd d0b4 2a3d e91e b23d
000003e0: 804d 6abd 04d4 05be df46 df3d b3e5 373b
000003f0: 7746 b1bd bdae 0fbd a1fe eebd 99a6 a7bd

conv2.bias f4 [32]
-0.012618913 0.0075121727 0.008053733 -0.017491236 -0.0018600248 -0.004190103 -0.00043441806 -0.013236376
-0.005652695 -0.00069546496 -0.012201638 0.0012719459 0.006043613 -0.020225164 0.0058264495 0.0032445302
0.010440921 -0.019062744 -0.0037849434 -0.0028139874 0.017766658 0.0013115025 0.0042554424 -0.0067054247
-0.003991248 -0.0011199432 -0.0035851782 -0.0005008984 -0.0020143583 -0.0036491987 0.000539135 -0.007867249
00000000: 8fbf 4ebc ac28 f63b cef3 033c c849 8fbc
00000010: 13cc f3ba 224d 89bb 9bc2 e3b9 63dd 58bc
00000020: 3e3a b9bb dd4f 36ba 61e9 47bc 6cb7 a63a
00000030: 8009 c63b 3eaf a5bc cdeb be3b 2fa2 543b
00000040: 6610 2b3c 7929 9cbc d00c 78bb e06a 38bb
00000050: 628b 913c b9e6 ab3a 3d71 8b3b 2eb9 dbbb
00000060: 04c9 82bb 0fcb 92ba 4ff5 6abb b94e 03ba
00000070: 5303 04bb 6527 6fbb bd54 0d3a a2e5 00bc

conv2.lin.weight f4 [32, 256]
0.110494144 0.068881415 -0.018582039 0.040063735 0.06208915 0.057000678 0.054983705 0.07204688
0.072421186 0.062486183 0.03463171 -0.055503927 -0.14173101 -0.11610691 0.13126431 -0.048413057
0.034489393 0.023784379 0.11450195 0.0028089685 -0.16848737 -0.13236633 0.08571548 -0.049234666
0.068766214 -0.08755333 0.08620041 -0.089767024 -0.038226232 -0.027293218 0.08285026 -0.08305308
0.070857 0.013660771 -0.03058276 -0.0050451937 0.06714412 -0.14909682 0.049179364 -0.00829771
0.011408083 0.15601973 -0.05580841 -0.07382951 0.1300586 -0.09295497 0.12574881 -0.04940271
-0.08732827 0.009932784 0.034613255 0.0060426067 0.0863642 0.07263906 0.07928971 0.120310985
0.11139571 -0.10687691 -0.10545272 -0.02065615 -0.12196306 -0.053534806 0.02504991 -0.08353376
-0.09773154 0.06562438 -0.0901726 0.047807254 -0.08454971 0.07851758 0.090687096 0.1388995
-0.04247281 -0.00077633816 -0.046997298 0.008500195 0.0749603 -0.0767757 -0.019334752 -0.009833456
0.101062134 0.046494067 -0.09211071 -0.12288396 0.1169005 0.033969726 -0.01237201 -0.12501411
-0.09143847 0.05231482 0.012806645 -0.12604225 0.012999518 0.079573415 0.009171039 -0.09779631
0.09499916 -0.049155746 -0.090133086 0.10323842 -0.05899321 -0.00038615576 -0.10682886 -0.09984201
-0.022667691 -0.0010800118 -0.11417078 0.07814592 0.10722142 0.076874204 -0.118613385 -0.027331006
-0.11426607 -0.009921492 -0.0014111069 0.0854246 0.11955142 0.1280978 0.07769765 -0.107205726
0.0045200735 0.08980383 0.03721805 0.029029168 0.075202055 0.11550814 0.09923382 0.1450039
-0.04652347 -0.022475466 -0.05200469 -0.024593325 -0.14055747 0.07377702 -0.083908975 -0.035466373
0.12782845 0.06559304 -0.036911976 -0.121151365 -0.13715698 -0.06857359 0.11970222 0.029082151
-0.0420601 0.013155884 0.009883849 -0.031612575 0.14535742 -0.08538249 0.04821547 0.037021045
0.003500096 -0.07539655 -0.13451232 0.065348595 0.069042325 -0.10718223 -0.008503467 -0.07202144
0.17230783 0.026605887 -0.059518553 -0.051577166 -0.013427308 -0.13005997 -0.0830398 -0.10201852
0.11378891 -0.0012655763 -0.10576529 0.06223788 0.04002302 -0.12897749 -0.006836862 -0.045018736
-0.10675561 0.034662463 0.008050143 -0.08494019 -0.002668303 0.06817228 0.0032759882 0.047361497
0.03729021 0.1249777 0.015157322 -0.017818775 -0.10896402 -0.06988851 0.05001357 -0.038832724
0.091004275 0.059902593 -0.04877573 0.064084314 0.0026859122 0.12306114 -0.03353454 -0.15382439
0.11402832 0.06712021 0.09535785 -0.13162735 -0.07535386 0.0004972748 -0.118805036 0.09995525
-0.05040961 -0.10421373 0.095165886 0.09304801 -0.039363053 -0.013371747 -0.059744675 0.121125504
-0.12754847 -0.020527862 -0.049549613 0.112573035 0.1314642 -0.097458445 -0.09389826 -0.013519401
0.0551752 0.02706313 -0.011042086 0.0964028 0.029563762 -0.09849535 0.13165766 0.0551107
0.05486552 0.03856006 -0.0032847372 0.09588807 0.009766444 0.08253516 0.062646344 0.15080377
-0.0666182 -0.043120205 -0.0026849601 0.048068322 -0.03343191 0.049625296 0.012889593 0.046563383
-0.13177226 0.001567882 0.00018289401 -0.05288578 -0.08709274 -0.11731177 -0.051287886 0.09772177
00000000: c14a e23d b311 8d3d 5c39 98bc df19 243d
00000010: 3151 7e3d 8b79 693d 9836 613d 518d 933d
00000020: 8f51 943d 83f1 7f3d fbd9 0d3d 1658 63bd
00000030: ef21 11be 76c9 edbd 276a 063e c54c 46bd
00000040: c044 0d3d 75d7 c23c 0080 ea3d ac16 383b
00000050: f487 2cbe 0a8b 07be 998b af3d 4aaa 49bd
00000060: 4dd5 8c3d 294f b3bd d789 b03d c6d7 b7bd
00000070: 1c93 1cbd 0796 dfbc 66ad a93d bc17 aabd
00000080: 7a1d 913d 6dd1 5f3c b288 fabc 2752 a5bb
00000090: db82 893d d6ac 18be 4d70 493d 1ef3 07bc
000000a0: f8e8 3a3c a3c3 1f3e 5c97 64bd ed33 97bd
000000b0: 152e 053e 2d5f bebd 4cc4 003e 7f5a 4abd
000000c0: 2ad9 b2bd 1ebd 223c a1c6 0d3d 0f01 c63b
000000d0: b7df b03d cac3 943d a562 a23d 9b65 f63d
000000e0: 6f23 e43d 48e2 dabd 98f7 d7bd 1637 a9bc
000000f0: c5c7 f9bd 5047 5bbd 7835 cd3c bf13 abbd
00000100: 7927 c8bd 1366 863d 69ac b8bd 8ad1 433d
00000110: 6628 adbd d3cd a03d 28ba b93d ac3b 0e3e
00000120: f8f7 2dbd 2c83 4bba 3d80 40bd 6744 0b3c
00000130: c984 993d 943c 9dbd ea63 9ebc 811c 21bc
00000140: aaf9 ce3d 9070 3e3d 8aa4 bcbd 96aa fbbd
00000150: 8869 ef3d d723 0b3d f9b3 4abc b303 00be
00000160: 1844 bbbd 1148 563d f6d2 513c 3811 01be
00000170: eefb 543c 63f7 a23d 2042 163c 6f49 c8bd
00000180: eb8e c23d 8957 49bd b297 b8bd aa6e d33d
00000190: dda2 71bd f374 cab9 17c9 dabd f879 ccbd
000001a0: 98b1 b9bc 2f8f 8dba 5fd2 e9bd f80a a03d
000001b0: e796 db3d 3970 9d3d 93eb f2bd 46e5 dfbc
000001c0: 5404 eabd c18d 22bc e4f4 b8ba 18f3 ae3d
000001d0: 60d7 f43d 122c 033e f21f 9f3d ad8e dbbd
000001e0: 201d 943b 12eb b73d f471 183d 94ce ed3c
000001f0: 8903 9a3d 888f ec3d 1a3b cb3d e77b 143e
00000200: 658f 3ebd 781e b8bc df02 55bd f177 c9bc
00000210: 4cee 0fbe 6818 973d 78d8 abbd 3045 11bd
00000220: 76e5 023e a555 863d 0331 17bd 351e f8bd
00000230: e172 0cbe 4f70 8cbd 7026 f53d b13d ee3c
00000240: 3647 2cbd c78b 573c deef 213c 307c 01bd
00000250: 93d8 143e 04dd aebd 967d 453d 61a3 173d
00000260: de61 653b 8269 9abd 99bd 09be 7cd5 853d
00000270: 1066 8d3d 5b82 dbbd 2052 0bbc fa7f 93bd
00000280: 7771 303e 97f4 d93c bac9 73bd 9442 53bd
00000290: 36fe 5bbc 712e 05be c510 aabd 16ef d0bd
000002a0: 290a e93d b2e1 a5ba 799b d8bd 26ed 7e3d
000002b0: 2eef 233d ad12 04be c107 e0bb 9165 38bd
000002c0: afa2 dabd 3afa 0d3d bfe4 033c 1ff5 adbd
000002d0: b2de 2ebb e99d 8b3d f6b1 563b 21fe 413d
000002e0: 9fbd 183d 4ff4 ff3d 6b56 783c aef8 91bc
000002f0: 8728 dfbd b521 8fbd 07db 4c3d 100f 1fbd
00000300: 7360 ba3d 6c5c 753d 0fc9 47bd a33e 833d
00000310: 2106 303b 7b07 fc3d 845b 09bd 2484 1dbe
00000320: ae87 e93d 5276 893d fa4a c33d 52c9 06be
00000330: 2053 9abd 8c5b 023a 0e50 f3bd 57b5 cc3d
00000340: 4f7a 4ebd 026e d5bd 55e6 c23d f48f be3d
00000350: 273b 21bd 2c15 5bbc d5b6 74bd a610 f83d
00000360: 119c 02be 0c2a a8bc 89f4 4abd b18c e63d
00000370: 8d9e 063e 4b98 c7bd bb4d c0bd 7a80 5dbc
00000380: 64ff 613d 7fb3 dd3c dee9 34bc d56e c53d
00000390: b42f f23c eeb7 c9bd 44d1 063e c2bb 613d
000003a0: abba 603d 27f1 1d3d bf44 57bb f760 c43d
000003b0: 6f03 203c 3208 a93d ba4c 803d 4e6c 1a3e
000003c0: 1f6f 88bd d09e 30bd 28f6 2fbb 4ae3 443d
000003d0: e6ef 08bd e543 4b3d df2e 533c 3fb9 3e3d
000003e0: 4fef 06be 6481 cd3a 3dc7 3f39 c29e 58bd
000003f0: ae5d b2bd 2741 f0bd 3f13 52bd 5a22 c83d
