pretrained_gnns/credit_dgi_gcn.pth (torch, 49720 bytes, 4 tensors)

conv1.bias f4 [256]
00000000: ff85 c73d 15b2 bb3d 52ac cb3b 265d c13d
00000010: 94ac 8b3d 68ca bc3d 95d9 ba3d 65be 0ebc
00000020: 691a b03d 34d0 8eba ad66 ba3d c0df af3d
00000030: af97 8a3d 683e af3d 7ed1 183d 3b0b 0a3d
00000040: aeb7 163c 5fdd b5bc c630 c53d b6cd c63d
00000050: 53ff a03d 0f5e db3c 4b1e 87bc a657 ff3c
00000060: 54ed 723d e8f2 6abc e6a8 5c3d b657 1d3d
00000070: 6d44 a9bc 824b 35bd c82b ffbc d971 bb3d
00000080: cf6d 95ba b93d ac3d 0b17 bc3b d5ff 80bc
00000090: 0c05 c33d e26d 173d 3c9f c73c 1213 a43d
000000a0: 02a2 9b3d b489 8f3d bff5 b93c fc49 a43d
000000b0: a9ac 943d 5c8f 9f3d ed74 2bbb fac6 ac3d
000000c0: 7dda 0c3d 1942 9ebc 66af 873a a249 7e3d
000000d0: 5a6f 883c 2f34 143d cd72 30bd 5f5a 81bc
000000e0: c904 7f3d c03f b13b 898f c03d 9d55 143d
000000f0: 749f c03d 9515 b03a 9649 233d 8ef4 e63b
00000100: c759 cd3d d99e bd3d b710 ca3d a804 6cbc
00000110: 3b43 c03d ba50 8bbc 3bc2 d5bb 5ac5 aa3d
00000120: e09c 5f3d c31b 9a3d 3447 c93d e70f 3c3d
00000130: 2009 233d 8a71 a53d 3cdb 28bd 1a77 c43d
00000140: d476 dcbc ffdc 9a3d 4322 953d 56e0 af3d
00000150: 0f26 a63d 9b13 223c e77a 06bc 1393 da3b
00000160: ad02 043d 4a81 7e3d 8b37 653d e35b b93d
00000170: d0bc c03d 8f8c b53d 77b8 a73d a25f 4bbc
00000180: 4a3c 603d 2433 bf3d 9ff3 c03d 19cd c93c
00000190: 262e 81bc d170 363d a06f c93d 14cf 5cbc
000001a0: 696d c13c 84a4 b93d ce8f bc3d fd89 c53d
000001b0: 33c5 e8bc 6ba4 19bc 3abf 7b3d 2613 c73d
000001c0: 96b7 ae3d 8ee5 903c 0fee ab3d 58d3 b43d
000001d0: c69c bc3d f733 37bd 0ccb c83b 0ad3 d73b
000001e0: 7221 903c c0c5 813d d7aa 273d c24e dabb
000001f0: b68f b73d 8344 c53d 687e 9a3d 4e75 f93c
00000200: 0a8d 363c 16c5 8d3b 1962 c13d e4c6 833d
00000210: 19fd dd3c 953f 213d c720 82bc a393 b03c
00000220: 5bb9 b53d dd1f c03d dd4f 60bb 30df 5ebb
00000230: 99e0 90bc 88f4 c23d e1b2 c23d 357e be3d
00000240: 077e bc3d 7574 653d 2ee7 843d 0e8a c63d
00000250: 77a1 34bc 91e1 823d 48f8 b33d 7aef bb3d
00000260: a09b 763d ef7e d83c 9003 b43d cb74 ca3d
00000270: 9d80 b0bb c16c 903d dcad d3ba 7f21 4f3d
00000280: 4c00 cf3d 0cc2 033d 01d6 4fbc 1780 ba3d
00000290: e0d0 893c c538 ffbc 0af6 763c 03c6 e53c
000002a0: 25bb dcbb 7511 4b3d b9b4 543c d4c6 c73c
000002b0: a82c ae3d 6c6c c63d c51a b23d e5e2 1f3d
000002c0: 30f9 903b 0006 c43d 034e b23d 3352 9e3c
000002d0: 18b6 9d3d 0d30 2cbc 4ae1 673d 25a6 e1bc
000002e0: f5ca 8a3d b71d c03d 35ef c73d becb 4e3c
000002f0: 3de3 893d 120e aaba df43 c63d d8c3 a73d
00000300: 5cc9 9e3d 9e17 533d 54d7 4d3c 8886 8b3b
00000310: c318 78bc 5125 9b3d 6261 68bc 217c a53d
00000320: accd aa3a aece af3d c45c 18bc 0495 9d3d
00000330: 26e9 b93d d151 6d3d 332c 86bc f66e 813d
00000340: be1e c73d a62f c0bc b5cb 71bd 1a01 cebb
00000350: cd54 9cb9 976e 8c3d 341c b93b 6a2c b53d
00000360: 7ffb a43d 0740 2a3d fafa be3d 44d7 b4bc
00000370: 2c22 e43c 4cd1 f5bb a42c 843d 4113 b03d
00000380: d306 973c b900 c53b 14b6 c53d b52d 763d
00000390: 1f8b 963d a505 bd3d 12b1 b43d 945e 363d
000003a0: 87c2 e8bb 44f4 08bc 96ec a33d 3edd 62bc
000003b0: 1dd1 bd3d fbfd 183d 8a66 ae3d 4668 5f3d
000003c0: 6a83 883d d476 64bc 14be b53d dcc7 573d
000003d0: affc cebc 3d16 bd3d 0717 1b3b 207c 8d3d
000003e0: 0e1c df3c 5d77 c13d 0cf5 76bc f38c 113d
000003f0: 6904 213d fdc2 b73d 292b 2c3d 504a 323d
0.097423546 0.09164826 0.0062156105 0.09441595 0.06820026 0.092182934 0.09123532 -0.008712386
0.08598787 -0.001089579 0.09101615 0.08587599 0.067672126 0.08556825 0.037309162 0.033702116
0.009199066 -0.022200285 0.096284434 0.09707205 0.07861199 0.02677825 -0.016493937 0.031169724
0.059308365 -0.01434014 0.05387201 0.038413726 -0.02066251 -0.044261463 -0.031148806 0.09152574
-0.0011400523 0.0841021 0.0057400516 -0.01574699 0.09522447 0.036970027 0.024367921 0.0801145
0.0759926 0.07008687 0.022700189 0.08021924 0.07259495 0.077910155 -0.0026162222 0.08436389
0.034388054 -0.019318627 0.0010351955 0.06208194 0.016654659 0.03618258 -0.043078233 -0.015790163
0.062260423 0.005409211 0.09402377 0.03621446 0.09405413 0.0013434166 0.0398651 0.007048196
0.10026889 0.092588134 0.09866469 -0.014405407 0.09387823 -0.017006267 -0.006523398 0.08338423
0.054592967 0.075248264 0.09828034 0.045913603 0.039803624 0.080782965 -0.041224703 0.09593029
-0.02691213 0.07561683 0.072819255 0.085877106 0.08112728 0.00989237 -0.008208013 0.0066703646
0.032229114 0.06213502 0.055961173 0.09050729 0.09411013 0.088647 0.08189481 -0.012412937
0.054744996 0.09335926 0.09421467 0.024633931 -0.015769076 0.044541184 0.09835744 -0.013477106
0.023611741 0.09064582 0.09207116 0.0964546 -0.028414344 -0.009377579 0.061461665 0.09720449
0.0853111 0.017687585 0.083950154 0.08829373 0.0920959 -0.044727292 0.0061277207 0.006586437
0.017594073 0.06336546 0.04093441 -0.0066622207 0.089629576 0.09632208 0.07543641 0.030451443
0.011142025 0.004326473 0.09442539 0.0643442 0.027098225 0.039367277 -0.01588477 0.021554774
0.088732444 0.093810774 -0.003422729 -0.0034007542 -0.017685222 0.09519297 0.09506775 0.09301416
0.09203725 0.056019265 0.064894065 0.096943006 -0.011024824 0.0639068 0.0878759 0.09176536
0.06020701 0.026427714 0.08789742 0.09885558 -0.0053864256 0.07051993 -0.0016149837 0.050569054
0.101074785 0.03216748 -0.0126853 0.091064624 0.016823232 -0.031155 0.015073309 0.02804852
-0.0067361766 0.049577195 0.012982541 0.0243868 0.08504611 0.096886486 0.08696512 0.039034743
0.0044242367 0.09571457 0.08706286 0.019326305 0.07700747 -0.010509503 0.056611337 -0.027545044
0.06776992 0.09380668 0.09762422 0.012621818 0.067327954 -0.0012974164 0.09680914 0.08191651
0.0775325 0.051536195 0.012563545 0.0042579807 -0.015142622 0.07575477 -0.014183374 0.08080316
0.0013031266 0.08584343 -0.009299461 0.07694438 0.09077673 0.057939354 -0.016378498 0.06319992
0.097226605 -0.02346022 -0.05903216 -0.0062867524 -0.0002981782 0.06857031 0.005649114 0.08846362
0.080557816 0.041564967 0.09325214 -0.022075303 0.027848326 -0.007501757 0.06453827 0.085974224
0.018435871 0.006012049 0.09653869 0.060102183 0.07350754 0.09229592 0.08822836 0.04452379
-0.0071032676 -0.008359019 0.080041096 -0.013846694 0.09268401 0.03735159 0.085156515 0.054542802
0.0666569 -0.013944346 0.08874145 0.052680835 -0.025266973 0.09232757 0.0023664848 0.069084406
0.027235057 0.09446595 -0.015073072 0.03553481 0.039310846 0.08972738 0.04203335 0.0435279

conv1.lin.weight f4 [256, 13]
00000000: 1c98 93bd 8d46 663e 5b9a 973d cba4 283e
00000010: 90c2 383e 1ee3 563e 2741 e13d 2058 18be
00000020: 25ca da3d bc66 4a3e 1126 37be fc0a 5d3d
00000030: 8d96 9abd 1405 0b3e 9f5e 823d 3f8f 9ebc
00000040: ec10 c43c d3d5 cdbd f564 30be dc5c b2bd
00000050: b4b7 883d f59a 383c f855 52be 7857 3e3e
00000060: c1aa df3d a90e 093e 20f7 e7bc 2468 933c
00000070: e7ff 1dbe a753 c93d 5496 68bd f760 18bb
00000080: 4f49 363d 79d7 4cbb b517 4a3e 3212 99bc
00000090: c5b8 43be 11e9 f03d b242 c13d 6ae0 6dbe
000000a0: d325 6fbe b0fa 68be a3ed 0b3e fad5 af3d
000000b0: bf6c 573e 49b9 563d 6bd8 f33c 82d9 44be
000000c0: 4c5e cebb 65c2 553e 1cf0 493d 0839 563d
000000d0: c222 a8b9 3688 68bd 5a42 23be 238e 99bd
000000e0: 0e3f 9f3d a178 5bbc 2cc7 873d 01ad 11be
000000f0: 95a6 063e e832 083e 7825 7cbe 0e0d 983d
00000100: 5248 553d 8277 11be 9bcb 323e c052 c2bd
00000110: 519f 9c3d 6c59 533e f576 b43d 7a8f 483e
00000120: bb67 48bd 1f84 16bd d8a0 963d 17b9 1d3e
00000130: b90f 903c 3a6f 533e 1d1d 4d3e 387d 38be
00000140: 64cc d43d b834 4cbc ef5a 0abd e430 20be
00000150: 849a 82bd 1d9b 0b3e 7db3 453e eb12 713d
00000160: 7095 f5bd f46f 863d be6c edbd e0fe 133b
00000170: 6d33 8ebb 55f0 1d3e e18d 32be a7f9 483e
00000180: 4bdd 62bd b90d 383d 76dc 45bb 7359 22be
00000190: 389b 88bb 8e9b a83d 15db 233d cc4f 1ebe
000001a0: ad25 d7bd 69e1 253e e991 3d3e 4cad 833d
000001b0: 07eb 1e3d f18b dfbd 9b91 b4bd 378a 5e3c
000001c0: 432a e63d 37d3 243d 9735 203e d6c5 883c
000001d0: bc58 4e3e 2013 03bc 7c5e 8f3b 7010 32be
000001e0: daa2 293d 8d04 f13c cf7c 033e 3f81 28be
000001f0: e6bb 8abd b82c 563e 3984 98bd 78a2 0f3e
00000200: edfa 76bd 245b c2bd b66d 59be 6463 53bd
00000210: a800 87bd 6715 5d3e c837 7d3e 57ec 483e
00000220: 2bb1 5d3e 8931 e2bd c1d3 3ebc 31d2 7ebb
00000230: 5c0e 0fbe eadb 703d 60d2 5abe 4da5 c1bd
00000240: 9509 19bd a934 2a3e f262 db3d 48a4 313d
00000250: 4439 2cbd 3161 06be 62bc 0d3e 88ea 4d3e
00000260: 4fff 503d 556f 2abe ef40 cfbd edb1 9ebd
00000270: 5e86 f8bd cecf 31be 6748 203e 48e1 edbd
00000280: b50f 463e 674c 9d3c ea7a 8f3c b0ff 2d3e
00000290: e532 1e3e 0620 eebd 29e3 1f3e fb8e de3d
000002a0: 427b 8fbd 92f8 3a3e 5e95 153d c66c e9bd
000002b0: 88bb 623e 6f9d 543e 8258 203e 7074 c63d
000002c0: 9666 0dbe 5418 21be f20a d93d 2c82 343d
000002d0: b6cd e8bd 8680 95bd 5e33 613d 812f 0fbe
000002e0: b87f 343e 0f94 3e3e 31bd 3bbe fd64 46bd
000002f0: c15f 2e3e ff14 7dbd 148b 83bc 2c25 313d
00000300: 1a99 cfbd cc71 a63c 315d b53d 9db3 553d
00000310: 9c2b fbbd 164e 023e 014b 36be 86d4 04be
00000320: 650e 4fbe ab1b 52bc 990a b43d 1313 583e
00000330: 3e6b e0bd edde f3bd 74dd 1e3d 74ab fbbd
00000340: f152 203d 5c45 613d f965 4dbe 5d9b c63d
00000350: 378f 0fbe b3e0 023e 0740 8ebd 7a91 093d
00000360: af51 e73d 1cd0 04bc 48fe ce3d 9056 5cbd
00000370: 26af 83bd c481 153d ac54 473d 016e 19be
00000380: f297 44bd ec73 533e 2bad 32be 4f67 a13d
00000390: 5c1d a73d f9ca 263d 0c8c 7e3b d107 573d
000003a0: 1683 2c3d 2f3c d4bd 6150 fe3d e0ae 1ebe
000003b0: 7c9d c7bd dd13 33be b1d8 33be 65bb 3d3d
000003c0: eea9 0d3e 0ae0 50be 41ef 03be db0e 543d
000003d0: 5625 5e3d 927f f53d 990e 623e 5bc7 d43d
000003e0: 36bb 77be af49 5d3d 8d1b 203d ea99 243e
000003f0: 10dd 4bbe 7697 ddbd 8a24 1e3e 0748 3e3e
-0.07206747 0.2248785 0.07402488 0.16469114 0.1804297 0.20985076 0.10998755 -0.14877367
0.10683087 0.19765753 -0.17885615 0.053965554 -0.075482465 0.13576156 0.06365704 -0.019355414
0.02393385 -0.10050549 -0.17226012 -0.08709118 0.066756636 0.011267413 -0.20540607 0.18588054
0.109212406 0.13384499 -0.02831608 0.017993994 -0.1542965 0.098304085 -0.05678399 -0.0023251155
0.044503506 -0.0031256361 0.19735606 -0.018685434 -0.19113453 0.11763204 0.09436549 -0.23230138
-0.23354273 -0.2275188 0.1366487 0.08585735 0.21037577 0.052422795 0.029766282 -0.19223598
-0.006297862 0.20874937 0.04930125 0.052300483 -0.00032069354 -0.056770526 -0.1594328 -0.074978136
0.077756986 -0.013395459 0.06629786 -0.14226152 0.13149484 0.13300669 -0.24623668 0.07424365
0.052070923 -0.14205745 0.17460482 -0.094884396 0.07647575 0.2063958 0.08811752 0.19585982
-0.04892705 -0.036747094 0.07354897 0.15402637 0.017585622 0.20647898 0.20030637 -0.18016517
0.10390547 -0.012463741 -0.033778127 -0.1564365 -0.06377128 0.1363339 0.1930675 0.058855932
-0.119913936 0.06564322 -0.115930066 0.0022582337 -0.0043396265 0.1542371 -0.17436935 0.19626485
-0.055386823 0.044934962 -0.003019122 -0.15854435 -0.004168894 0.08232795 0.040003855 -0.15460128
-0.10505233 0.16199268 0.18512692 0.06429538 0.03879836 -0.109153636 -0.088168345 0.013582758
0.112385295 0.040240493 0.15645443 0.016695898 0.20151037 -0.008000165 0.004375277 -0.17389083
0.041415073 0.029421115 0.1284058 -0.16455553 -0.0677412 0.20915496 -0.074470945 0.1402682
-0.060297895 -0.0949004 -0.21233258 -0.05160846 -0.06591922 0.21590196 0.2472831 0.19621406
0.21649615 -0.11044604 -0.011647166 -0.0038882608 -0.13970321 0.058803476 -0.21369314 -0.09455357
-0.037362654 0.16621651 0.10712232 0.04336956 -0.0420468 -0.13123013 0.13841394 0.20108998
0.05102473 -0.16644032 -0.10119807 -0.077487804 -0.121350035 -0.17364427 0.1565262 -0.116152346
0.1934193 0.01920147 0.017514665 0.16992068 0.15449102 -0.11627202 0.15613998 0.10867115
-0.070059314 0.18258885 0.0365194 -0.113977 0.2214185 0.20763181 0.15658763 0.096901774
-0.13808665 -0.15731937 0.10597791 0.044069454 -0.11367361 -0.072999045 0.05498063 -0.13982965
0.17626846 0.18611167 -0.1833389 -0.048436154 0.17028715 -0.0617876 -0.016057529 0.04324834
-0.10136624 0.020317934 0.088556655 0.052173246 -0.12264177 0.127251 -0.17802049 -0.12971696
-0.20220335 -0.012823979 0.08791084 0.21101026 -0.10957955 -0.11907754 0.038785413 -0.122885615
0.0391416 0.054997787 -0.2005843 0.09697602 -0.14019476 0.12781028 -0.06945806 0.033586003
0.11294877 -0.008106258 0.10107094 -0.05379349 -0.06429891 0.036500707 0.048664734 -0.1498337
-0.04799647 0.2064969 -0.17448871 0.07881033 0.08159897 0.040720914 0.0038840799 0.05249769
0.0421172 -0.103630416 0.12417675 -0.15496397 -0.09746835 -0.17488046 -0.1756313 0.04632129
0.13834354 -0.20397964 -0.12884237 0.05177198 0.054234825 0.11987223 0.22075881 0.103895865
-0.24192509 0.05402535 0.039088774 0.16074339 -0.19908547 -0.108199045 0.15443626 0.18582164

conv2.bias f4 [32]
00000000: e015 9cbd a06e 6f3d d87d e9bc 559f 5abd
00000010: 5409 8e3d e382 8c3d d9b1 a23d ca06 9dbd
00000020: 1a3f 80bd cd35 7fbd 9801 61bd 1b59 67bd
00000030: 3903 8bbd 73bf 923d 8a1e 80bd aeae a23d
00000040: 12c0 7f3d 6653 89bd 4173 8b3d 0b48 2bbd
00000050: eade a3bd e172 82bd 5744 833d 8474 233d
00000060: 0892 33bd 0456 74bd c47a 8dbd 89b7 64bd
00000070: 041a 8e3d 5f7c 96bd 2016 783d 4e0a 953d
-0.0762136 0.05845511 -0.02850239 -0.053374607 0.06935373 0.06860902 0.07944078 -0.076673105
-0.06262036 -0.062307168 -0.05493316 -0.056481462 -0.06787724 0.07165422 -0.06255825 0.07943474
0.062439032 -0.0670536 0.06809092 -0.041816752 -0.08001502 -0.06369568 0.06409519 0.03990604
-0.043840438 -0.059652343 -0.06908181 -0.055839095 0.06938556 -0.07347941 0.060567975 0.07277356

conv2.lin.weight f4 [32, 256]
00000000: 82db 26be 501f bcbd 0a5c 293e f2bd b4bd
00000010: 0a14 09bc d896 103d b60c 0cbe 68a7 673e
00000020: 2151 6a3d 1daa 9f3d 7ab7 df3c 86f1 103b
00000030: 0b88 20be ab57 1c3d f96f 833c a649 3bbe
00000040: 1cb7 8b3d 920c 0d3d d8a9 5dbd 00e1 52be
00000050: 2a1f 16be 3f41 39be 1b58 183c 342a 6fbd
00000060: 7568 23bc 8ac8 c4bd 73cf 40be 64d0 2cbe
00000070: 3e6d fe3d 0580 343d dafd 85bd c693 eb3c
00000080: 4262 613e b40e ddbd d10b 003e bc3a fa3d
00000090: d9a9 a03d d716 d33c 47d5 efbd ab7b 06be
000000a0: f66c b7bd f111 373d 53df a8bd 603c 38be
000000b0: a81d 2bbd 4c32 04be 3eeb f03d 8cdb 1dbe
000000c0: ffbd b6bc e9fa 113e 6380 ffb9 1ca2 a7bc
000000d0: 539b 27be d450 f53d d789 1fbe 5a59 0f3d
000000e0: c243 8dbc 1bd6 2b3e a05a acbd af39 20bd
000000f0: 2304 6bbd f788 f03d 3fbe 20be 6aed aebd
00000100: c70f 3fbe 2cf2 903d 04bf f03b 90b1 dc3d
00000110: 8726 50be 7b35 52be 9f66 0d3e f457 c33c
00000120: 2c8a e9bc 6b65 09be 9f9a b1bd 8cf3 4fbb
00000130: ee3e 443e ed1b 04bd 58d4 233e 66fa c0bd
00000140: 6e95 f03d 1538 9dbd 0691 09be cd48 4abe
00000150: 43d4 bdbd 5016 9f3d 902e 103e f4bd 08bc
00000160: 1f6b e83d fb2f 16be c667 7ebc ee15 53be
00000170: dac2 17be 10ea 26be eb81 50be d942 673d
00000180: fdc0 c2bc 60e8 8cbd daf6 23be 5cf8 5ebd
00000190: 11dd eabd 0f5f a1bc 6f12 dc3c 0a41 d4bc
000001a0: b482 4cbe fc26 36be 2c4c 0fbd 495c 4ebe
000001b0: 3197 a7bd 43c4 573e 4e82 7abb 8880 1fbe
000001c0: 3bc9 36bd 50c2 483e 63d8 1cbe 7350 1ebe
000001d0: 5016 26be 309f 43bd 8811 0dbc fa9a 213e
000001e0: 52bc 72bd fc9f c5bc 41f7 13be 5065 533e
000001f0: c664 ecbc 7a09 13bd 3a13 2dbd 1c5e 3d3e
00000200: f2de 8b3d 5708 623e ab1e bcbd 5d60 c1bd
00000210: 0f0e 733d 2712 073c 9a01 2a3d 80a1 9fbd
00000220: 965c 88bd a13d 9dbd eecb 433e e345 383e
00000230: da77 8d3d 29f7 3abd a51f 3cbd 356c 52bd
00000240: 8ce5 39be 66e0 fdbd 1f46 9bbd ef5b 83bc
00000250: a6d5 59bd 0a21 143d 2c89 63bd 66aa 66bd
00000260: d96e 94bd b8de 4ebd 9ac2 d1bd 79a0 87bd
00000270: 93a4 0d3e cc12 963b 0c08 a33d 0e8f 69bd
00000280: 8b2e f5bd 0899 193e b7e0 16bd e172 38be
00000290: 4919 dc3d 97ff b3bc 43da 0f3d aa9d 0f3e
000002a0: 4faf af3d 617d 22be af37 3cbd 7167 3f3c
000002b0: 98c3 40be 3274 4f3c 464c 19be fea8 3ebd
000002c0: 3386 1d3e c84d 25be 19fd a13d 4d9a 373d
000002d0: ebde 28be e1c5 163e 8eb3 5ebe 6221 633e
000002e0: 00fa 27bc ef24 d3bd 5f9f b7bc 1451 5c3d
000002f0: ee54 22bd e6bc 4b3c 2560 00be a86a bcbd
00000300: 9eb4 30be f682 323e ab60 723d 3dd3 a33d
00000310: 21cf 0b3d e133 21be 5408 173e 4481 893d
00000320: d646 543e c9f4 39be 6d5d 063e d50d d7bc
00000330: 01fa 32be b9c7 30be c812 193e 5ba8 3fbe
00000340: 45b9 683d 76f2 123e eb7f 433e 31fe b13d
00000350: c93f b53d fea9 61be 6634 b83d 3508 333d
00000360: 2bee e5b9 0c4b 92bd 6379 f63b 3bd0 5e3e
00000370: c54d be3d 2e3b 3e3e 3052 52be 2242 b9bd
00000380: c123 123e c7db 413d f86b 80bd 53f2 95bd
00000390: b638 06bc fd5a 4e3c 8b16 36bd d311 20be
000003a0: db2b 16bd 490c 9a3d 2941 d6bd e648 19bd
000003b0: f0d1 12be 87d5 76bd b916 a8bd 7855 30be
000003c0: 269f 213d 813e 053e ce5d 18be 15e4 51be
000003d0: f6a3 793e cddf 2abe d2a5 d63c e397 5dbe
000003e0: 4eb6 b33c 7637 76bc 51d6 013e fdff d5bc
000003f0: 45fc 313e 1290 edbd a6da 15be 750f adbc
-0.16294673 -0.0918566 0.16539016 -0.08825292 -0.008366594 0.035300106 -0.13676724 0.22622454
0.057206277 0.077961184 0.027309168 0.0022116615 -0.15676896 0.038169544 0.016044604 -0.18289813
0.06822035 0.034435816 -0.054117054 -0.20593643 -0.14660326 -0.18091296 0.00929835 -0.058389857
-0.009973635 -0.09608562 -0.18829136 -0.1687637 0.1242318 0.0440674 -0.06542559 0.028756987
0.22010139 -0.1079382 0.12504508 0.12218234 0.07844896 0.025767727 -0.11710601 -0.13133113
-0.089563295 0.044694845 -0.08245721 -0.17991781 -0.04177633 -0.12909812 0.11763619 -0.15415782
-0.022307394 0.14255871 -0.00048733046 -0.020463042 -0.16367845 0.11978307 -0.15579925 0.03499732
-0.017244224 0.16780894 -0.08415723 -0.03911751 -0.057376992 0.11744874 -0.15697573 -0.08541377
-0.18658362 0.070774406 0.0073469896 0.10776055 -0.20327197 -0.20528214 0.13808678 0.02384565
-0.028508268 -0.13417594 -0.0867207 -0.0031730859 0.19164631 -0.032253195 0.15998971 -0.0942276
0.117472515 -0.076767124 -0.13434228 -0.19754334 -0.09269001 0.07767928 0.14080262 -0.00834607
0.11348557 -0.1466674 -0.015527671 -0.20613834 -0.14820424 -0.16300225 -0.2036206 0.056460235
-0.023773665 -0.068802595 -0.16012135 -0.054436073 -0.11467946 -0.019698648 0.026864259 -0.02590992
-0.19971734 -0.17788309 -0.034984753 -0.20152391 -0.08183134 0.21070962 -0.003822464 -0.15576375
-0.044625502 0.19605374 -0.1531692 -0.15460376 -0.16219449 -0.047759235 -0.008610137 0.15781775
-0.059261627 -0.024124138 -0.14449789 0.20644116 -0.028856646 -0.03589771 -0.042254664 0.18492931
0.06829633 0.22073494 -0.09185537 -0.09442208 0.05933958 0.008244074 0.041505434 -0.077944756
-0.06658284 -0.076777704 0.19120762 0.1799541 0.069076255 -0.045645867 -0.045928616 -0.051372726
-0.18153971 -0.12396316 -0.07581734 -0.016035048 -0.053182267 0.03616432 -0.05555074 -0.05631485
-0.07247705 -0.05050537 -0.102421954 -0.066224046 0.13832311 0.0045798775 0.07960519 -0.057021193
-0.11971768 0.14999783 -0.0368354 -0.18012573 0.1074701 -0.02197246 0.03512026 0.14024988
0.08578359 -0.15868141 -0.04595154 0.011682377 -0.18824613 0.01266198 -0.14970502 -0.046547882
0.15383224 -0.16142952 0.07909603 0.044824887 -0.16491286 0.14723922 -0.21748182 0.22180703
-0.010252476 -0.10309779 -0.022414861 0.05378826 -0.039631777 0.012435174 -0.12536676 -0.092000306
-0.172564 0.1743277 0.05917422 0.07999275 0.03413308 -0.15742446 0.1474927 0.067141086
0.20730147 -0.18159784 0.13121577 -0.026251713 -0.17478181 -0.17263688 0.1494857 -0.18716566
0.05681731 0.14350304 0.19091766 0.08691061 0.08850057 -0.22037503 0.08994369 0.043709
-0.00043855733 -0.0714322 0.0075217946 0.21759121 0.09292177 0.18577263 -0.20539165 -0.09045817
0.14271452 0.047328737 -0.062705934 -0.0732161 -0.008192232 0.0125949355 -0.044455092 -0.156318
-0.036662918 0.075218745 -0.10461647 -0.037423037 -0.14337897 -0.06026223 -0.08207459 -0.17220104
0.039458416 0.13012125 -0.14879534 -0.20497163 0.24378952 -0.16686936 0.026202116 -0.21639971
0.021937516 -0.015027871 0.12679411 -0.026123041 0.1738139 -0.11599745 -0.14634189 -0.021125535
