pretrained_gnns/credit_gae_gcn.pth (torch, 48760 bytes, 4 tensors)

conv1.bias f4 [256]
0	0x3d3001ed	0.042970587
1	0x3be79f74	0.007068569
2	0x3d2fef97	0.0429531
3	0xbad4a6d5	-0.0016224036
4	0x3bd9a5b6	0.0066420687
5	0xbc9f8e19	-0.019476937
6	0x3d3b9e99	0.045805547
7	0x3c41aa66	0.011820411
8	0xbcbdbc11	-0.023160966
9	0x3cf4a310	0.02986291
10	0x3db0b6c0	0.08628607
11	0xbce0e21d	-0.02745157
12	0x3d9b9589	0.07596881
13	0x3c307732	0.010770606
14	0x3d9a8632	0.07545127
15	0x3c02fc6d	0.007994753
16	0x3d1cc501	0.038273815
17	0x3db6e359	0.08930082
18	0x3dab2031	0.083557494
19	0x3c290fa9	0.010318675
20	0xbb9a86de	-0.0047157845
21	0x3ceb726a	0.02874108
22	0x3dd7bdc4	0.10534242
23	0x3b4b567f	0.0031026897
24	0x3db23de1	0.08703209
25	0x3dc21c8d	0.09478102
26	0x3db026a9	0.08601124
27	0x3db826cf	0.08991777
28	0x3cbdb92b	0.023159584
29	0x3db392a8	0.08768207
30	0x3c9cce09	0.019141214
31	0x3db608ae	0.08888374
32	0x3c4d4373	0.012528288
33	0x3d9ea8a4	0.077470094
34	0x3d998fa7	0.07498103
35	0x3d1b70ce	0.037949376
36	0x3db391ed	0.087680675
37	0x3b704981	0.0036664905
38	0xbb30cfb4	-0.002697927
39	0x3d0c265c	0.03421627
40	0x3db98c4c	0.09059963
41	0x3cbc4686	0.022982847
42	0x3c3e7587	0.0116247
43	0xbb3c6d4e	-0.0028751674
44	0x3cac0077	0.020996315
45	0x3d6c831c	0.057742223
46	0x3bc839a4	0.006110387
47	0x3de2f0c2	0.11081077
48	0x3d9bc132	0.076052085
49	0x3d8b57da	0.06803866
50	0x3d883b39	0.06651921
51	0x3db5cfc2	0.08877517
52	0x3c1f17b0	0.009710237
53	0x3da4d22b	0.08047899
54	0xbc5ad983	-0.013357523
55	0x3da70bcf	0.08156549
56	0x3dab251c	0.083566874
57	0x3db464ee	0.08808313
58	0xbcf6274e	-0.030048039
59	0x3da74201	0.08166886
60	0x3db4aa9e	0.08821605
61	0x3da98c1a	0.082786754
62	0xbbb5c48f	-0.0055471133
63	0x3d77fb24	0.06054224
64	0x3dbced5a	0.09224959
65	0x3cc2925e	0.023751434
66	0x3bcfb1a3	0.0063383146
67	0x3c854807	0.016269697
68	0x3c8e4cd7	0.017370624
69	0x3d150eaa	0.036390938
70	0x3bc1bd3c	0.005912451
71	0xbbc42b34	-0.0059865955
72	0x3d9b5835	0.075851835
73	0x3c6ea52b	0.014565746
74	0x3db77ffd	0.08959959
75	0x3d0581dc	0.032594547
76	0xbc74594e	-0.01491387
77	0x3dc16413	0.09442916
78	0x3ba1b845	0.0049352967
79	0x3d50ec3f	0.05100655
80	0x3db6cba1	0.08925558
81	0x3b048d4c	0.002022582
82	0x3d2bd900	0.041954994
83	0xbc1a2e45	-0.009410446
84	0xbbe0ed0a	-0.0068641948
85	0x3d8b1a61	0.06792141
86	0x3dcdc9ea	0.10048278
87	0x3d84ecd4	0.06490484
88	0x3d8b3a3c	0.06798217
89	0xbbf9cdd3	-0.007623413
90	0x3d7abebb	0.06121705
91	0xbb50768c	-0.003180894
92	0x3c3af4fa	0.011410946
93	0x3da9ae5d	0.0828521
94	0x3dc2f592	0.09519495
95	0x3d8f7c0d	0.07006083
96	0xbb6d1777	-0.0036177316
97	0x3baaaead	0.0052088113
98	0x3da42e1a	0.08016606
99	0x3dc78532	0.09742202
100	0x3dc28b98	0.09499282
101	0x3cbf204b	0.023330828
102	0x3c2c4c1d	0.010516194
103	0x3dcebe40	0.10094881
104	0x3da08a53	0.07838883
105	0x3dace60d	0.08442316
106	0x3d8c183c	0.0684056
107	0x3dd0bfe5	0.10192851
108	0x3d9f3b25	0.07774953
109	0x3dd5e31b	0.104437076
110	0xbc4fa37d	-0.012673256
111	0x3cf00f08	0.029304042
112	0x3d3a3725	0.045462746
113	0x3d34aec9	0.044112
114	0x3daf7d97	0.08568876
115	0x3da82117	0.082094364
116	0x3cd558b3	0.026043272
117	0xbb52f08d	-0.0032186836
118	0x3dca4ede	0.09878324
119	0x3db46acf	0.088094346
120	0xbcec32d6	-0.028832834
121	0x3da6771d	0.08128188
122	0x3da0f9ab	0.078601204
123	0x3ce58495	0.028017322
124	0x3d690e9e	0.056898706
125	0x3d31a391	0.04336888
126	0x3c4f9463	0.0126696555
127	0x3db65322	0.08902575
128	0x3dc56d9d	0.09640048
129	0x3c2e8edb	0.010654177
130	0x3dc19f4b	0.09454211
131	0x3d8a1fa4	0.06744316
132	0x3c5419e4	0.012945626
133	0xbc086ea1	-0.008327157
134	0xbc630d26	-0.013858115
135	0xbcc2f8b7	-0.023800237
136	0xbc8a568b	-0.01688697
137	0x3dd6fb36	0.104971334
138	0x3d75c5a0	0.060002923
139	0x3c9a6b82	0.018850092
140	0xbb814398	-0.0039448254
141	0x3dc1f921	0.09471346
142	0x3d979273	0.0740098
143	0xbcfdb2fc	-0.030969135
144	0x3d3961a1	0.04525912
145	0xbaa58141	-0.0012627022
146	0x3dba982f	0.09111058
147	0x3d9bcfbf	0.07607984
148	0x3d837cbf	0.06420278
149	0x3cf88d88	0.030340925
150	0x3c765631	0.015035198
151	0x3d4f53fa	0.050617196
152	0x3ce911d9	0.028450893
153	0x3c702a4e	0.014658524
154	0x3c8a14c1	0.0168556
155	0xbc24788b	-0.010038505
156	0x3c931da1	0.017958464
157	0x3db17fa3	0.08666923
158	0x3d88da27	0.06682234
159	0xbc3d0769	-0.011537411
160	0x3d9043bd	0.0704417
161	0x3dbbeb57	0.09175747
162	0x3da569e6	0.08076839
163	0x3cba1221	0.022713723
164	0x3b828933	0.0039836406
165	0x3da358ca	0.079759195
166	0x3dd3e438	0.10346264
167	0x3dbab392	0.091162816
168	0xbcafb799	-0.02144985
169	0x3cd9a2fc	0.026566975
170	0x3c93de62	0.018050376
171	0x3d8891b2	0.06668414
172	0x3dc3e68e	0.09565459
173	0x3ca59d9d	0.020216757
174	0x3dac4d61	0.08413196
175	0x3da4146a	0.08011706
176	0x3d9ac571	0.0755719
177	0xbc6d33a1	-0.014477641
178	0x3d61c18c	0.05511622
179	0x3da651ca	0.08121069
180	0xb9e31b1d	-0.00043317015
181	0x3ddb614c	0.10711917
182	0x3ca879fc	0.02056598
183	0x3dc7d0aa	0.097565964
184	0x3dd94a6a	0.106098965
185	0x3c680d19	0.014163279
186	0x3d93d3f1	0.07218159
187	0x3c5ab486	0.013348704
188	0x3dea7b29	0.11449272
189	0x3d8c0fd9	0.0683896
190	0xbc4bc055	-0.012435992
191	0xbbeab93d	-0.0071631954
192	0x3b75873e	0.0037464644
193	0x3dc5a5cd	0.096507646
194	0x3d7124ee	0.05887311
195	0x3d55a968	0.05216351
196	0x3cb3bfc6	0.02194203
197	0x3c114cb5	0.008868386
198	0x3dd5efa2	0.10446097
199	0x3db83e79	0.08996291
200	0xbc00a636	-0.007852128
201	0x3d32bfb6	0.04363986
202	0x3c9423dd	0.018083507
203	0xbbe79a5f	-0.007067963
204	0x3dc398a8	0.09550601
205	0x3dbdcd25	0.09267644
206	0xbc091b03	-0.0083682565
207	0x3d5d7e53	0.05407555
208	0x3db1960c	0.08671197
209	0xbc59be86	-0.013290053
210	0x3da2bf98	0.079467
211	0xbc1745cd	-0.00923295
212	0x3c9b7540	0.018976808
213	0xbb2be474	-0.0026228698
214	0xbc9fac14	-0.019491233
215	0xbb2537f0	-0.0025210343
216	0x3becb1b4	0.0072233323
217	0x3cdf3dbf	0.027251123
218	0x3d9c1c69	0.07622606
219	0xbc569f5f	-0.0130995205
220	0x3c8422b7	0.016129835
221	0xbc93bd18	-0.018034503
222	0x3b6f7465	0.0036537882
223	0xbc791475	-0.015202631
224	0x3be733a7	0.007055718
225	0xbc2aedc3	-0.010432663
226	0xbbcdc261	-0.0062792753
227	0x3d75141c	0.05983363
228	0x3d6bb0d6	0.05754169
229	0xbc027260	-0.007961839
230	0x3dae7b3f	0.08519601
231	0x3dc666d2	0.0968758
232	0x3c13097f	0.008974432
233	0x3db1e595	0.086863674
234	0x3c461c97	0.012091777
235	0x3dd599f7	0.10429757
236	0xba1377d9	-0.00056254637
237	0x3d8f1085	0.06985573
238	0xbcc8bec2	-0.024505023
239	0x3c66e93f	0.014093696
240	0xbb2b9fa2	-0.0026187678
241	0x3d852dab	0.06502851
242	0x3dbc190a	0.09184463
243	0x3dcbf0f3	0.09958067
244	0x3b7c75e2	0.0038522412
245	0x3cd58134	0.026062585
246	0x3b2a7097	0.002600705
247	0x3d80394a	0.06260927
248	0x3d10f040	0.03538537
249	0x3d8319c9	0.064014025
250	0x3c55dc5f	0.013053029
251	0x3d9d8fa7	0.07693415
252	0x3a4e9f7f	0.0007882043
253	0x3db20957	0.08693188
254	0xbc515789	-0.012777218
255	0x3db935a1	0.09043432

conv1.lin.weight f4 [256, 12]
0	0x3df88412	0.121345654
1	0x3cfe670f	0.031055002
2	0x3d7022cb	0.05862693
3	0x3cac6f3d	0.021049136
4	0x3e0e817c	0.13916582
5	0x3e0bf217	0.13666569
6	0x3e50b35f	0.20380925
7	0xbdb74927	-0.089494996
8	0xbca65600	-0.02030468
9	0xbcb9e2d6	-0.022691172
10	0xbe07aa28	-0.13248503
11	0xbc144906	-0.009050613
12	0xbe592459	-0.21205272
13	0x3d8905ef	0.06690585
14	0x3db62ab7	0.08894866
15	0x3e3d4863	0.18484645
16	0x3e483923	0.19553046
17	0xbd8eb069	-0.06967241
18	0xbdc1fb44	-0.09471753
19	0x3d25eb2a	0.040507473
20	0xbe33bed2	-0.17553261
21	0x3d7e0dff	0.062025066
22	0x3ddddf66	0.108336255
23	0xbe032de8	-0.1281048
24	0xbdc3eb78	-0.095663965
25	0xbe39c22d	-0.18140478
26	0x3dc5572a	0.09635766
27	0x3e110208	0.14160931
28	0x3df00fbb	0.1172175
29	0x3d78bf2e	0.0607292
30	0x3da91368	0.082556546
31	0xbe32c280	-0.17457008
32	0x3df1b1da	0.118015006
33	0x3dd4665a	0.103710845
34	0xbd1ac39b	-0.0377842
35	0x3e09ed30	0.13469386
36	0xbe3efb45	-0.18650539
37	0xbdd487b9	-0.103774495
38	0xbe3a2f83	-0.18182187
39	0xbe012b4e	-0.12614176
40	0x3e33da2b	0.17563693
41	0xbd54c1b8	-0.051942557
42	0xbdf4eb30	-0.11958921
43	0xbe4b2c4b	-0.19841115
44	0x3dec1eb2	0.11529292
45	0x3d94e56f	0.072703235
46	0xbcd17d42	-0.025572423
47	0x3db9b8da	0.09068461
48	0x3cce4346	0.025178563
49	0x3df715a6	0.12064676
50	0xbe024b63	-0.1272407
51	0x3dd14e27	0.102199845
52	0x3c9f50ab	0.019447645
53	0x3c07cf18	0.008289121
54	0xbdc351d8	-0.09537095
55	0xbdc8df2c	-0.09808192
56	0xbe2aa9db	-0.16666357
57	0xbd92148f	-0.071328275
58	0xbdcbced8	-0.09951562
59	0xbd44ed77	-0.048078027
60	0xbdffc39b	-0.12488481
61	0x3c592f00	0.013255835
62	0xbe457850	-0.19284177
63	0x3d169901	0.03676701
64	0xbc345cdd	-0.011008468
65	0x3de3d244	0.11124089
66	0xbdd91b82	-0.1060095
67	0xbe0cd32e	-0.13752434
68	0xbdbbf963	-0.09178426
69	0xbe1d1c47	-0.15342818
70	0xbdde7b8c	-0.108634084
71	0xbda3c5a3	-0.079966806
72	0x3e30d4b6	0.17268643
73	0xbe35443e	-0.17701814
74	0x3ce453e8	0.02787204
75	0x3e03c145	0.12866695
76	0xbdd32625	-0.1031001
77	0x3ddec3f2	0.10877217
78	0xbd45f5ae	-0.04833
79	0x3de0a7f8	0.109695375
80	0x3e5256f1	0.20540978
81	0xbda40fed	-0.0801085
82	0xbd5af26e	-0.053453855
83	0xbe183538	-0.14864051
84	0xbdff12cf	-0.12454759
85	0xbe19655f	-0.14980076
86	0xbe2bf312	-0.16791943
87	0x3d0f961c	0.035055265
88	0x3e05011d	0.12988706
89	0x3e46a60f	0.19399284
90	0x3d8b3841	0.06797839
91	0xbe4557ae	-0.19271728
92	0x3b2c1b53	0.0026261404
93	0xbb896085	-0.004192414
94	0x3d7f50a7	0.062332775
95	0x3d519a2f	0.05117243
96	0xbda494ce	-0.08036195
97	0x3dfef33a	0.124487355
98	0xbc287e29	-0.010283985
99	0x3d00d85e	0.031456344
100	0xbe01ae38	-0.12664115
101	0xbdf854bf	-0.12125539
102	0xbe5f26ee	-0.21792194
103	0x3e1f4cbb	0.15556614
104	0xbdbb7926	-0.091539666
105	0xbdc172f0	-0.09445751
106	0xbe413cec	-0.18870896
107	0x3d525068	0.051346213
108	0x3df86dc8	0.12130314
109	0x3b4bc590	0.0031093098
110	0x3d9fe7f4	0.078079134
111	0x3e2860f3	0.16443233
112	0xbdce5248	-0.10074288
113	0x3e41ac3d	0.1891336
114	0x3dc177b8	0.09446663
115	0xbc72c163	-0.014816615
116	0xbd35bf61	-0.044371966
117	0xbd54c8b8	-0.051949233
118	0xbdaf20e8	-0.08551198
119	0x3d296fe8	0.041366488
120	0xbcf0a6ca	-0.029376406
121	0x3e2d5010	0.16925073
122	0xbd8549ef	-0.06508242
123	0xbe23a643	-0.15981393
124	0xbd89236f	-0.066962115
125	0x3e0fe21d	0.14051099
126	0x3e2d580f	0.16928123
127	0x3c8722d3	0.016496098
128	0xbe1c005f	-0.15234517
129	0xbe11b361	-0.14228584
130	0x3d10d86a	0.03536264
131	0x3daebe16	0.0853235
132	0xbd8e37e2	-0.069442526
133	0x3e08ff16	0.13378558
134	0xbe289ad9	-0.1646532
135	0x3c3cfcbb	0.011534865
136	0x3e14d6a9	0.14535011
137	0x3cc7c5dc	0.024386339
138	0xbdaff9a7	-0.08592539
139	0x3e054b6f	0.13017057
140	0x3d337db5	0.043821055
141	0xbde62550	-0.112375855
142	0xbd07cc56	-0.033153854
143	0xbe1e5b75	-0.15464576
144	0x3d734ea5	0.059401173
145	0xbd90135d	-0.07034943
146	0xbdf19e10	-0.11797726
147	0xbe3e44df	-0.1858096
148	0xbcccb717	-0.024989648
149	0xbaa88f46	-0.0012860082
150	0xbe14d0d2	-0.14532784
151	0xbd02b9c1	-0.03191543
152	0xbdc5f508	-0.096658766
153	0xbda39151	-0.07986701
154	0xbd6a7e4f	-0.057249364
155	0xbdcfb27c	-0.10141465
156	0xbe0eb062	-0.13934472
157	0xbe0d5f1b	-0.13805811
158	0xbdf2b6d7	-0.1185128
159	0xbe283f6d	-0.16430445
160	0x3dac332a	0.08408196
161	0xbe0e628d	-0.13904782
162	0x3d809ee9	0.0628031
163	0x3d1b8a42	0.03797365
164	0xbe00a73c	-0.12563795
165	0xbe32f672	-0.17476824
166	0x3df7b820	0.12095666
167	0x3cdd9be4	0.027051874
168	0x3de04a55	0.10951678
169	0xbdb10b8d	-0.08644781
170	0xbd24b5d1	-0.040212456
171	0x3c2a5667	0.0103965765
172	0xbda5868d	-0.08082304
173	0xbe45af4f	-0.19305156
174	0xbe1c49a3	-0.15262465
175	0xbe16e7fe	-0.14736935
176	0x3d228a3b	0.039682608
177	0x3e02bc05	0.12767036
178	0xbd9136a6	-0.070905015
179	0xbc340341	-0.010987104
180	0xbe64100c	-0.22271746
181	0xbe3b5a9e	-0.18296286
182	0x3e1d45ea	0.15358701
183	0xbe08c4ff	-0.13356398
184	0x3e3d4512	0.1848338
185	0xbdb5a9f9	-0.0887031
186	0x3df3039c	0.11865923
187	0x3dd88b79	0.10573477
188	0x3c830f75	0.015998581
189	0xbd8fe861	-0.07026745
190	0x3e0f3ebf	0.1398878
191	0xbad6da4a	-0.001639196
192	0xbd7f59b5	-0.06234141
193	0xbc81dafb	-0.015851488
194	0x3d1dfffa	0.038574196
195	0xbd63e9a0	-0.055642724
196	0x3e3154c8	0.17317498
197	0x3ce4e911	0.027943166
198	0x3dfdbace	0.12389146
199	0xbd881ea2	-0.06646468
200	0xbdaa7207	-0.0832253
201	0x3d211a69	0.039331827
202	0xbdb072d8	-0.08615655
203	0x3c5e4aea	0.013567666
204	0xbdbc0972	-0.09181489
205	0x3dedffd3	0.1162106
206	0x3d60138d	0.054706145
207	0x3c284cb1	0.010272191
208	0xbe15029f	-0.14551781
209	0x3d7ba0aa	0.061432518
210	0xbd3d7d6a	-0.046262182
211	0x3e020134	0.12695771
212	0x3e1b558a	0.1516935
213	0x3c2ff0f3	0.010738599
214	0x3db6fd93	0.08935084
215	0x3e099193	0.13434438
216	0xbd016b7b	-0.031596642
217	0x3dba5146	0.09097533
218	0x3d124d63	0.035718333
219	0x3d8024d5	0.06257025
220	0x3d9502f3	0.07275953
221	0x3d223f5e	0.039611213
222	0xbc74e741	-0.014947713
223	0x3dae7781	0.08518887
224	0xbcbca603	-0.02302838
225	0x3de42775	0.11140338
226	0xbdac1e00	-0.084041595
227	0x3c977392	0.018487725
228	0xbd63e8b8	-0.05564186
229	0x3ba36853	0.0049868017
230	0x3e17214a	0.14758793
231	0x3deaa3ed	0.114570476
232	0xbe4448b1	-0.19168355
233	0x3cee28b1	0.029072138
234	0xbca6bff9	-0.020355212
235	0xbdc35abc	-0.095387906
236	0x3e3e0b58	0.18559015
237	0xbe1e1108	-0.15436184
238	0xbe295ac3	-0.16538529
239	0xbd16938f	-0.036761817
240	0xbe5188a0	-0.20462275
241	0x3e29e228	0.16590178
242	0xbdd469bd	-0.103717305
243	0x3d5e6841	0.054298643
244	0xbdf02c1d	-0.11727164
245	0x3c2f5f32	0.010703849
246	0x3d5f4c39	0.05451605
247	0x3e22cd68	0.15898669
248	0x3d8c4b42	0.06850292
249	0xbdd8ee24	-0.10592297
250	0xbe173685	-0.14766891
251	0xbe3787b8	-0.17922866
252	0xbe195f3d	-0.14977737
253	0x3e2d1082	0.16900828
254	0xbcbca94a	-0.023029942
255	0x3e52788b	0.20553796

conv2.bias f4 [32]
0	0x3cc82c82	0.024435285
1	0x3d9499d0	0.072559
2	0xbcd882eb	-0.026429614
3	0x3d130041	0.035888914
4	0xbcef5c48	-0.029218808
5	0x3d4186a7	0.047247555
6	0xbcbb4ab8	-0.022862777
7	0xbcc0cc58	-0.023534939
8	0x3d81cd37	0.0633797
9	0xbd73e9a0	-0.059548974
10	0x3d81781e	0.06321739
11	0xbd9e28cf	-0.07722627
12	0x3b8b9747	0.004259977
13	0xbd94a6b7	-0.07258361
14	0xbd99be4c	-0.075069994
15	0x3d91a97f	0.07112407
16	0x3d917851	0.07103027
17	0xbcb4ed19	-0.022085713
18	0xbd7f64b3	-0.062351894
19	0xbda77752	-0.081770554
20	0xbd8c48f1	-0.0684985
21	0xbd7efd25	-0.062253136
22	0x3d162630	0.036657512
23	0xbc1a209b	-0.009407188
24	0x3d92415f	0.07141375
25	0x3d95fb1e	0.073232874
26	0x3c3c52ec	0.0114943795
27	0x3cc3537f	0.023843525
28	0xbadc77f1	-0.0016820413
29	0xbd9b5d39	-0.0758614
30	0x3d19479e	0.037421815
31	0x3ccb245c	0.024797611

conv2.lin.weight f4 [32, 256]
0	0x3e4e0597	0.2011932
1	0xbe16580c	-0.14682025
2	0x3e06321f	0.13105057
3	0x3d812608	0.06306082
4	0xbdf4d632	-0.11954917
5	0xbdbf1a49	-0.09331185
6	0x3d9e222c	0.077213615
7	0x3da30e2d	0.07961688
8	0xbe02dfba	-0.12780657
9	0x3d6fe91a	0.058571912
10	0x3df83fd2	0.12121548
11	0xbe4543a6	-0.19264087
12	0x3dc344a6	0.09534578
13	0x3dd46042	0.10369922
14	0x3d7b429d	0.061342824
15	0x3d32e5dc	0.043676242
16	0xbbb4ac24	-0.005513685
17	0x3ddc4bd4	0.107566506
18	0xbdd9eedb	-0.10641261
19	0xbe0e2612	-0.1388171
20	0x3d02c178	0.031922787
21	0xbdf81b3d	-0.1211457
22	0x3dff4c45	0.12465719
23	0xbd1e7287	-0.03868344
24	0xbe1153d3	-0.14192133
25	0xbc8af4bd	-0.016962403
26	0x3db54971	0.088518985
27	0xbdaa9668	-0.08329469
28	0x3d3b89a2	0.045785554
29	0xbe055faf	-0.13024782
30	0x3df299b0	0.1184572
31	0xbd535454	-0.051594093
32	0xbe0c2ab8	-0.13688171
33	0xbdb0e782	-0.086379066
34	0x3e23e7c3	0.16006379
35	0x3dec273c	0.11530921
36	0x3b851831	0.0040617217
37	0xbdb1479b	-0.08656236
38	0x3de0ec62	0.109825864
39	0x3d98df38	0.074644506
40	0xbd9357ac	-0.071944565
41	0xbd3ec0d4	-0.046570614
42	0xbd4e90f1	-0.050431196
43	0xbb82d0f0	-0.0039921924
44	0x3b1e5f7c	0.00241658
45	0xbcada7f3	-0.021198248
46	0x3db70a84	0.089375526
47	0xbd17546c	-0.036945745
48	0x3d89a9cd	0.0672184
49	0x3e339fa9	0.17541374
50	0xbd1eb63f	-0.038748022
51	0x3de02d4b	0.10946139
52	0x3da780e2	0.08178879
53	0xbcc9b12b	-0.024620613
54	0xbc8ca81d	-0.017170006
55	0xb9ad2582	-0.00033025077
56	0xbdfea25a	-0.1243331
57	0xbdc4df6f	-0.09612929
58	0xbca6749c	-0.020319276
59	0xbc5df996	-0.013548275
60	0xbd9fd977	-0.0780515
61	0xbd3e4fa8	-0.046462685
62	0xbe024443	-0.12721352
63	0xbe098a16	-0.13431582
64	0xbe085dc3	-0.13317017
65	0x3e0be1bf	0.13660334
66	0x3d43cddc	0.047803745
67	0xbdab4cec	-0.08364281
68	0xbda2d997	-0.07951658
69	0x3dca7732	0.09886016
70	0x3dadd651	0.08488143
71	0x3a851ae3	0.0010155108
72	0xbd699cda	-0.05703435
73	0x3bd8b52f	0.0066133956
74	0xbdc497a2	-0.09599234
75	0x3d5f1e2b	0.05447213
76	0xbd24b176	-0.040208302
77	0x3c8efa95	0.017453471
78	0x3ca2f169	0.019890504
79	0xbde713ea	-0.11283095
80	0x3d572bbd	0.052531946
81	0xbdb2d859	-0.08732671
82	0xbe426f72	-0.18987826
83	0xbdecc1ef	-0.115604274
84	0x3d8c4a98	0.06850165
85	0x3cd8199f	0.026379405
86	0xbe0f0aef	-0.13969015
87	0x3e20a3ef	0.15687536
88	0x3d6c2c11	0.057659212
89	0xbd5dc410	-0.054142058
90	0x3ddacd7a	0.10683723
91	0xbe3e68e9	-0.18594708
92	0x3c2acdb8	0.010425024
93	0xbde18ad1	-0.11012805
94	0x3b7f8c83	0.0038993664
95	0xbd960c66	-0.073265836
96	0xbe1e7bc1	-0.15476896
97	0x3e1d8664	0.15383297
98	0x3c397784	0.011319999
99	0x3d651bfa	0.055934884
100	0x3cb0034a	0.021485943
101	0x3d43770a	0.047720946
102	0xbe27a937	-0.16373144
103	0x3d5e6584	0.05429603
104	0xbe2042b6	-0.15650448
105	0x3d90f18a	0.0707732
106	0x3d0f2b4d	0.034953404
107	0x3dde7f8d	0.10864172
108	0x3dc7453f	0.097300045
109	0x3dcc263c	0.0996823
110	0x3d7fbcb8	0.062435836
111	0x3df9e01d	0.12200949
112	0xbca4d099	-0.020118998
113	0x3ca37bbb	0.01995646
114	0x3e183431	0.1486366
115	0x3d8098ac	0.0627912
116	0x3e2783b5	0.16358836
117	0x3d09aab8	0.033610076
118	0x3e32b149	0.17450441
119	0x3e3d1698	0.1846565
120	0x3d8fc35b	0.07019683
121	0xbe04432c	-0.12916249
122	0xbe33d1ed	-0.17560549
123	0x3c4fd646	0.012685364
124	0xbd4e4042	-0.05035425
125	0x3d86cebe	0.06582402
126	0x3df4dd38	0.11956257
127	0xbd054916	-0.032540403
128	0x3dc6cf7a	0.09707542
129	0xbe144b90	-0.1448195
130	0xbdcbf466	-0.09958725
131	0x3cbd15ef	0.023081748
132	0xbdece313	-0.115667485
133	0x3c820c60	0.015875041
134	0x3e071520	0.13191652
135	0xbe189069	-0.14898838
136	0xbdf2e398	-0.11859816
137	0xbe3b3544	-0.18282038
138	0x3d129237	0.035783973
139	0xbdb0f282	-0.08640005
140	0x3d210bb4	0.0393178
141	0xbdecc14d	-0.11560307
142	0x3e033d70	0.12816405
143	0x3d94bf89	0.07263095
144	0x3dd988b8	0.1062178
145	0xbc3a57c5	-0.011373465
146	0x3c30ffc1	0.010803164
147	0x3dab2251	0.08356155
148	0x3dd0df16	0.101988
149	0xbe2dd51a	-0.16975823
150	0xbdf991b7	-0.12185996
151	0xbe041b89	-0.12901129
152	0x3dad6d36	0.08468096
153	0xbd5c3431	-0.05376071
154	0xbd69dc34	-0.057094768
155	0x3c5dca8a	0.013537059
156	0x3d3598ee	0.0443353
157	0x3db3c338	0.087774694
158	0xbcb7a405	-0.022417078
159	0xbd6621ca	-0.056184568
160	0x3e1f131b	0.15534632
161	0xbe1f95c3	-0.15584473
162	0xbdcfdfa4	-0.10150078
163	0x3d5d6567	0.054051783
164	0xbe356b6c	-0.1771676
165	0xbcc84ed4	-0.02445165
166	0xbd6e5622	-0.05818761
167	0xbe02ffed	-0.1279294
168	0x3cbbf029	0.022941666
169	0x3d50d061	0.050979976
170	0xbe1d14af	-0.15339921
171	0x3d8478d1	0.064683564
172	0x3d216133	0.039399337
173	0xbdfd252a	-0.12360604
174	0xbda09556	-0.078409836
175	0x3e381bca	0.1797935
176	0xbd8cd3bb	-0.06876322
177	0xbde5657a	-0.11200996
178	0xbda3889f	-0.07985043
179	0xbc3e32b7	-0.011608771
180	0xbd84208f	-0.064515226
181	0x3df16163	0.11786153
182	0xbd318497	-0.04333934
183	0x3e390822	0.18069509
184	0xbe0ccb12	-0.1374934
185	0xbe064560	-0.13112402
186	0xbc4ee3be	-0.01262754
187	0xbd3ac041	-0.045593504
188	0x3e01d6d9	0.12679614
189	0x3e206bc9	0.15666117
190	0xbda3879c	-0.0798485
191	0xbe0c5180	-0.13702965
192	0xbd04ccc7	-0.032421853
193	0xbdc50d28	-0.0962165
194	0x3e183e97	0.14867626
195	0x3d83c473	0.06433954
196	0x3e13f501	0.1444893
197	0xbddf6a96	-0.109090015
198	0x3e4f31d4	0.20233852
199	0x3e398189	0.1811582
200	0x3cf5180f	0.029918699
201	0x3e45bd19	0.19310416
202	0x3c529212	0.012852209
203	0xbd86caba	-0.06581636
204	0x3d51df23	0.05123819
205	0x3ca769ff	0.020436285
206	0xb9e0232b	-0.00042750812
207	0x3d7998c1	0.060936693
208	0xbe09e978	-0.13467968
209	0xbd910bb6	-0.07082312
210	0x3e1c111d	0.15240903
211	0xbe2029d6	-0.15640959
212	0x3d1afc3f	0.037838217
213	0xbd58292e	-0.052773647
214	0x3be62f8e	0.007024712
215	0x3e151400	0.1455841
216	0xbb41fdba	-0.0029600696
217	0x3d3981d0	0.045289814
218	0xbdbbfb23	-0.0917876
219	0xbde779bb	-0.11302515
220	0xbe08c5ff	-0.1335678
221	0xbd15d8e2	-0.03658379
222	0x3dedddae	0.11614548
223	0x3dda1e38	0.10650295
224	0xbd981fb6	-0.074279234
225	0xbdca1e59	-0.098690696
226	0xbdac4241	-0.084110744
227	0x3d4735ec	0.04863541
228	0x3e193eeb	0.14965408
229	0x3cecb99c	0.0288971
230	0xbd46aa0c	-0.048502013
231	0xbad66757	-0.0016357702
232	0xbe0c89aa	-0.1372439
233	0xbdb69c0d	-0.08916483
234	0xbdf826f0	-0.12116802
235	0xbd736525	-0.05942263
236	0x3d9ad52b	0.0756019
237	0xbd9c3103	-0.07626536
238	0xbdc7c653	-0.09754624
239	0xbdcd4c4d	-0.10024319
240	0xbe02341b	-0.12715189
241	0x3d8be9f0	0.068317294
242	0x3d87653e	0.06611107
243	0x3e1c5529	0.15266861
244	0x3dfe1892	0.1240703
245	0xbe0253e6	-0.12727317
246	0xbcaada44	-0.02085603
247	0x3d8df60b	0.069316946
248	0x3dc17852	0.094467774
249	0xbcef3730	-0.02920112
250	0x3e18ba93	0.14914922
251	0x3d824bd2	0.06362118
252	0x3ccde61e	0.025134142
253	0x3db6555e	0.08903001
254	0x3d05ec33	0.03269596
255	0x3d477993	0.048699927
