pretrained_gnns/credit_bgrl_gcn.pth (torch, 48888 bytes, 4 tensors)

conv1.bias f4 [256]
0	0xbd055cd9	-0.03255925
1	0xbcf318a4	-0.029674836
2	0xbd2f2f38	-0.04276964
3	0xbd19603a	-0.037445284
4	0xbd01d801	-0.031700138
5	0xbd1d0560	-0.038335204
6	0xbd5793a2	-0.052631028
7	0xbcf28ac0	-0.029607177
8	0xbd1f6150	-0.038911164
9	0xbcc9442f	-0.024568645
10	0xbd196a50	-0.037454903
11	0xbd261c75	-0.040554482
12	0xbd46e824	-0.04856123
13	0xbd3a08ac	-0.045418426
14	0xbd321bd8	-0.043483585
15	0xbd35d95d	-0.044396747
16	0x3c8d9069	0.017280774
17	0xbd3a019b	-0.045411687
18	0xbd1dd761	-0.03853548
19	0xbcfc0127	-0.030762268
20	0xbd448a0a	-0.047983207
21	0xbd295974	-0.041345075
22	0xbd48a2e0	-0.048983455
23	0xbc4cb592	-0.012494462
24	0xbc02cd34	-0.007983495
25	0xbcf22c1e	-0.029562052
26	0xbd26e594	-0.040746287
27	0xbd468a66	-0.04847183
28	0xbd7a1ee4	-0.061064616
29	0xbd2b2cf7	-0.04179093
30	0xbd35381d	-0.044242967
31	0x3c8de0fb	0.017319193
32	0xbd0a138b	-0.033710044
33	0xbd45fe23	-0.048338067
34	0xbd5c241c	-0.053745374
35	0xbcabdd86	-0.020979654
36	0xbcfda5e4	-0.030962892
37	0xbd3ef518	-0.04662046
38	0xbd358b8c	-0.044322535
39	0xbd230ce0	-0.0398072
40	0xbd22c5c1	-0.039739374
41	0xbd37e782	-0.044898517
42	0xbd7181f8	-0.05896184
43	0xbccaf764	-0.024776168
44	0xbd34c746	-0.044135354
45	0xbd31a644	-0.043371454
46	0xbd84bfb8	-0.0648188
47	0xbd2fb697	-0.04289874
48	0xbb5c8eef	-0.003365453
49	0xbc898186	-0.016785394
50	0xbd15d427	-0.036579277
51	0xbcf4a4ed	-0.029863799
52	0xbbf77683	-0.0075519695
53	0xbc812eee	-0.015769448
54	0xbd56c3d4	-0.05243285
55	0xbcf23924	-0.029568262
56	0xbd2c35d3	-0.04204352
57	0xbd7de123	-0.061982285
58	0xbcb8e8be	-0.022571918
59	0xbd3a0114	-0.045411184
60	0xbcb61c50	-0.022230297
61	0xbc862fe6	-0.016380262
62	0xbc91c184	-0.01779247
63	0xbc733640	-0.014844477
64	0x3aeeec0b	0.0018228305
65	0xbcfe0e79	-0.03101276
66	0xbd2a5437	-0.04158422
67	0xbd1f78f7	-0.03893372
68	0xbd0c3cc8	-0.034237653
69	0xbd42c35a	-0.047549583
70	0xbd59dfc4	-0.053191915
71	0xbd63a41f	-0.05557644
72	0xbd2428fb	-0.040078145
73	0xbcae427e	-0.02127194
74	0xbcc2687d	-0.023731465
75	0xbbe12669	-0.006871034
76	0xbcf13c35	-0.029447654
77	0xbd2bce8a	-0.041945018
78	0xbb889b26	-0.0041688858
79	0xbc89fa80	-0.01684308
80	0xbd0a4743	-0.033759367
81	0xbc9d13c3	-0.019174462
82	0xbc2f3fb0	-0.010696337
83	0xbd3e1f2c	-0.046416447
84	0xbd1f7111	-0.038926188
85	0x3ba1b1cc	0.004934525
86	0xbd337041	-0.043808226
87	0xbd46862d	-0.048467804
88	0xbd2aa14e	-0.04165774
89	0xbcdc2e94	-0.026877679
90	0xbcde7064	-0.027153201
91	0xbd37b9ec	-0.044855043
92	0xbcd87102	-0.026421074
93	0xbcad9afd	-0.021192068
94	0xbcb03529	-0.021509724
95	0xbcf9bc77	-0.030485375
96	0xbd365583	-0.044515144
97	0xbcbe4f46	-0.02323116
98	0xbd34218f	-0.043977316
99	0xbd2546b0	-0.040350616
100	0xbc76946e	-0.015050037
101	0xbd61d50c	-0.055134818
102	0xbcf539dd	-0.029934818
103	0xbd46eaa5	-0.04856362
104	0xbd224501	-0.03961659
105	0xbd64bb2f	-0.055842575
106	0xbd449eb0	-0.0480029
107	0xbd1a54c6	-0.037678503
108	0xbc04ac63	-0.008097741
109	0x3ced16fb	0.028941622
110	0xbd3dba79	-0.046320412
111	0x3c0006fd	0.007814166
112	0xbd336cfb	-0.043805104
113	0xbcf6a09f	-0.030105887
114	0xbd286e48	-0.041120797
115	0xbccd5cb9	-0.025068628
116	0xbd637bdf	-0.055538055
117	0xbd2a8770	-0.04163307
118	0xbd20a71b	-0.039221864
119	0xbcfd9fa2	-0.030959908
120	0xbd0014a1	-0.031269673
121	0xbc5a4956	-0.013323149
122	0xbbce2440	-0.0062909424
123	0xbc9c4667	-0.01907654
124	0x3b3e74de	0.0029061357
125	0xbd2ddba3	-0.04244579
126	0xbd1c567d	-0.03816842
127	0xbd499eb9	-0.049223635
128	0xbd447035	-0.04795857
129	0xbc4288c5	-0.011873429
130	0xbd2a2bff	-0.041545864
131	0xbd300a93	-0.042978834
132	0xbb81bbe1	-0.0039591645
133	0xbd1ca5f6	-0.03824421
134	0xbd24ef3c	-0.040267214
135	0xbd101591	-0.035176817
136	0xbd1c89b6	-0.03821727
137	0xbb3c3665	-0.0028718945
138	0xbd19f616	-0.0375882
139	0x3c48a964	0.012247417
140	0xbcd4ba44	-0.025967725
141	0xbc5ffca6	-0.013671076
142	0xbd2064b4	-0.039158538
143	0xbd32afe1	-0.043624762
144	0xbc9890b7	-0.018623693
145	0xbccb3f2e	-0.0248104
146	0xbd1215de	-0.035665385
147	0x3b8566f4	0.004071111
148	0xbd27fa4f	-0.041010197
149	0xbc39b602	-0.011334898
150	0xbd28e548	-0.041234285
151	0xbcde05ff	-0.027102469
152	0xbd165f02	-0.0367117
153	0xbd305619	-0.04305086
154	0xbcf5889f	-0.029972373
155	0xbc4d48d8	-0.012529574
156	0xbcde90a9	-0.027168589
157	0xbd6081cd	-0.054811288
158	0xbc15569f	-0.00911489
159	0xbc9d390c	-0.019192241
160	0xbd3251f3	-0.043535184
161	0xbd0407d0	-0.032234013
162	0xbd7b515b	-0.061356883
163	0xbd3646ef	-0.04450124
164	0xbd183249	-0.03715733
165	0xbd19f91f	-0.037591096
166	0xbc0ab844	-0.008466784
167	0xbd37c939	-0.044869635
168	0xbd00bf9d	-0.031432737
169	0xbd353ba1	-0.04424632
170	0xbd0b28ab	-0.03397433
171	0xbd3ffc32	-0.04687137
172	0xbce12657	-0.027484102
173	0xbcf45174	-0.029823996
174	0x3a9f9908	0.0012176344
175	0xbca0fbf1	-0.019651385
176	0xbd346304	-0.04403974
177	0xbcba219f	-0.02272111
178	0xbd2eb38e	-0.042651705
179	0xbd3593e4	-0.044330493
180	0xbd6f7da6	-0.058469437
181	0xbc9f2f20	-0.01943165
182	0xbd2e746d	-0.0425915
183	0xbd3649a1	-0.04450381
184	0xbd3ee4d3	-0.046604943
185	0xbcac5f21	-0.021041455
186	0xbd0bcc41	-0.03413034
187	0xbd05476f	-0.032538828
188	0xbd034c4f	-0.032055195
189	0xbc9e54a7	-0.019327475
190	0xbd035b3e	-0.032069437
191	0xbcca5b82	-0.024701837
192	0xbd27742e	-0.040882282
193	0xbd4e458f	-0.050359305
194	0xbd48c823	-0.04901899
195	0xbcb55610	-0.022135764
196	0xbd4984b5	-0.049198825
197	0xbd2c9d09	-0.042141948
198	0xbd60ec70	-0.054912984
199	0xbcf84469	-0.030306058
200	0xbcac57a2	-0.02103788
201	0xbd38de2e	-0.045133762
202	0xbcb30482	-0.021852735
203	0xbd0c15f8	-0.03420064
204	0xbcd151d9	-0.025551723
205	0xbd3c29f5	-0.04593845
206	0xbd34285a	-0.043983795
207	0xbd314235	-0.04327603
208	0xbcaa4723	-0.020785874
209	0xbd27e7fd	-0.040992726
210	0xbd00bbee	-0.031429224
211	0xbbf6a2c5	-0.007526728
212	0xbc4e03c4	-0.01257414
213	0xbc0c1e5d	-0.008552161
214	0xbcddf7bd	-0.02709567
215	0x3b323693	0.0027193173
216	0xbd58ff27	-0.052977707
217	0xbcef0ddd	-0.029181415
218	0xbcf7305e	-0.03017443
219	0xbd54e57b	-0.051976662
220	0xbd20b72d	-0.03923719
221	0x39db77d5	0.00041860217
222	0xbd2298d9	-0.039696548
223	0xbceea1c7	-0.029129876
224	0xbd1bf7a4	-0.038077965
225	0xbd0f7d8c	-0.03503184
226	0xbd159d01	-0.036526684
227	0xbcfe7408	-0.031061187
228	0xbd64546d	-0.055744577
229	0xbd3f39e6	-0.046686076
230	0xbd83b565	-0.06431083
231	0xbcbc8847	-0.0230142
232	0xbcc3684a	-0.02385344
233	0xbc950230	-0.01818952
234	0xbd108ad3	-0.035288643
235	0xbd257cfb	-0.040402394
236	0xbd5ad9ba	-0.053430296
237	0xbd607dbc	-0.05480741
238	0xbd17d29a	-0.03706608
239	0xba23ac2c	-0.0006243612
240	0xbc21c787	-0.009874231
241	0xbd1fd958	-0.039025635
242	0xbd2594dc	-0.040425166
243	0xbd61a5b2	-0.05508966
244	0xbd7b0959	-0.06128821
245	0xbc445469	-0.011983016
246	0xbd5863d1	-0.052829567
247	0xbd2865eb	-0.04111282
248	0xbd2e9e91	-0.04263169
249	0x3b5e206c	0.0033893837
250	0xbc28cf12	-0.010303276
251	0xbd37216f	-0.04470962
252	0xbcca2c85	-0.024679432
253	0xbd0e5dc2	-0.034757383
254	0xbd24eb40	-0.040263414
255	0xbcd446d4	-0.02591268

conv1.lin.weight f4 [256, 12]
0	0x3c9931ab	0.018700441
1	0xbd3b932c	-0.04579465
2	0xbdfa1697	-0.1221134
3	0x3ce4f949	0.0279509
4	0x3a148755	0.0005665918
5	0xbbd7d06e	-0.006586126
6	0xbdb73ca8	-0.08947116
7	0x3df14e18	0.11782473
8	0x3d6d7b3c	0.057978854
9	0x3de36182	0.111025825
10	0x3c9fc2f9	0.01950215
11	0xbde1e6f4	-0.11030379
12	0x3d6b2e14	0.05741699
13	0xbda7ff4f	-0.08202993
14	0xbdcd4c23	-0.100242876
15	0x3c63d2bb	0.0139052225
16	0x3d26b29f	0.04069769
17	0x3c00de23	0.0078654615
18	0xbdb28ab5	-0.087178625
19	0x3d31058f	0.04321819
20	0x3d93e102	0.07220651
21	0x3d021d2e	0.03176611
22	0x3d4c040e	0.049808554
23	0xbcccb3e1	-0.024988117
24	0x3da8fcb6	0.08251326
25	0xbd37d818	-0.044883817
26	0xbd7e238a	-0.06204561
27	0x3d6c4869	0.057686243
28	0xbdb70b2f	-0.0893768
29	0x3d8e952a	0.069620445
30	0x3dbe6fc0	0.09298658
31	0x3d3718a9	0.044701252
32	0xba76779a	-0.00094019773
33	0x3d4417ae	0.047874145
34	0xbcd1762b	-0.025569042
35	0xbdc10a18	-0.09425753
36	0x3db4e775	0.088332094
37	0x3dd0c1ad	0.10193191
38	0x3da4fb6a	0.08055766
39	0xbd497e87	-0.04919293
40	0xbdc83fe9	-0.09777815
41	0x3da564f6	0.080758974
42	0x3cca93ac	0.024728619
43	0xbde489ef	-0.11159121
44	0x3d17e3be	0.037082426
45	0x3c2f3cfd	0.010695693
46	0xbc2c4cb3	-0.010516333
47	0xbd810f4c	-0.06301746
48	0xbdc062ad	-0.09393821
49	0x3dd29fd5	0.10284392
50	0xbd79e847	-0.061012533
51	0xbdf9fe2e	-0.12206684
52	0x3d76941f	0.060199853
53	0x3be642c7	0.0070270034
54	0x3d495936	0.049157344
55	0x3da6ca1e	0.081440195
56	0x3d91bb8a	0.07115848
57	0xbd4d652e	-0.05014532
58	0x3da2a1e8	0.079410374
59	0x3d819ddf	0.0632894
60	0x3d086017	0.033294763
61	0xbd7a3ba4	-0.061092034
62	0xbd900c74	-0.07033625
63	0x3d5ec67c	0.05438851
64	0xbd2683c0	-0.04065299
65	0xbd72d5c2	-0.059285887
66	0x3d7e2e98	0.062056154
67	0x3cc5da1b	0.024151852
68	0x3d945b30	0.07243955
69	0x3d289092	0.041153498
70	0xbd8613b9	-0.065467305
71	0xbdc94f42	-0.0982957
72	0xbc25897a	-0.010103578
73	0x3ccdddc8	0.025130168
74	0xb8334ad4	-4.2746615e-05
75	0xbd55182a	-0.052024998
76	0xbdb183c7	-0.08667713
77	0x3c72bc68	0.014815427
78	0x3d487335	0.048937995
79	0xbddeef1c	-0.1088545
80	0x3d8f7bc5	0.07006029
81	0x3d6fb0f7	0.058518376
82	0xbd8f50d8	-0.069978416
83	0x3d39af70	0.045333326
84	0x3cda91c9	0.026680844
85	0xbd92112c	-0.071321815
86	0x3d6abf75	0.057311494
87	0xbce2aeb8	-0.027671203
88	0xbd15dbc2	-0.03658653
89	0xbcca3f10	-0.024688274
90	0x3d90dad3	0.070729874
91	0x3d63e991	0.05564267
92	0xbcb481df	-0.022034584
93	0x3ce19949	0.027538912
94	0x3cfedcd3	0.031111157
95	0xbc8a19c3	-0.016857987
96	0xbda18d24	-0.078882486
97	0xbdb87cd2	-0.090081826
98	0xbb1af776	-0.0023646033
99	0x3d0c9bf4	0.034328416
100	0xbd128c7a	-0.0357785
101	0xbd964429	-0.07337219
102	0xbd97e4dd	-0.07416699
103	0xbc71ef49	-0.014766523
104	0x3db0006d	0.08593831
105	0xbb0f3c58	-0.0021856036
106	0xbdbc45ca	-0.09192999
107	0x3dc4e9e3	0.09614923
108	0xbd0935a6	-0.03349843
109	0xbd9d2b48	-0.07674271
110	0xbc0bf7d2	-0.008542972
111	0xbd37dadb	-0.04488645
112	0x3d938a93	0.07204165
113	0x3d43305d	0.047653545
114	0x3dc31cfb	0.09527012
115	0xbd47960a	-0.048727073
116	0x3b21fad8	0.0024716165
117	0xbd4f0c04	-0.05054857
118	0xbc4d5d33	-0.012534427
119	0x3d0963ba	0.033542372
120	0xbd860177	-0.06543248
121	0xbdac9a2f	-0.08427846
122	0xbd90cbc2	-0.07070114
123	0x3da57183	0.08078291
124	0xbd8bdcbe	-0.068292126
125	0x3d7beaf2	0.06150336
126	0x3d415bc2	0.047206648
127	0x3d196583	0.037450325
128	0x3c08e6c1	0.008355797
129	0xbd63f7dc	-0.0556563
130	0xbdd5fbe4	-0.10448435
131	0x3cd9b3cc	0.026574992
132	0xbccc49bf	-0.024937509
133	0xbc3fad85	-0.011699085
134	0x3d1300be	0.03588938
135	0xbd9ca60b	-0.07648858
136	0x3d9836fa	0.07432361
137	0xbd247b8f	-0.040156897
138	0xbb544f53	-0.0032395914
139	0xbc92434d	-0.017854357
140	0x3d8bc730	0.068251014
141	0xbd86488d	-0.06556807
142	0xbd7b80d6	-0.061402164
143	0x3d82023e	0.06348084
144	0x3c9916b4	0.018687584
145	0xbd9275a7	-0.07151347
146	0xbd8bb219	-0.06821079
147	0xbbd27b45	-0.0064233863
148	0xbd442d25	-0.047894616
149	0x3d55d135	0.05220147
150	0xbdb9e1e9	-0.09076292
151	0x3de95ddb	0.11394855
152	0x3d5a89f6	0.053354226
153	0xbd28b6a2	-0.041189797
154	0x3cb673ba	0.02227198
155	0x3d758a38	0.05994627
156	0x3c59d5e1	0.013295622
157	0xbd5eda27	-0.054407265
158	0x3d7d6431	0.061863128
159	0xbd2f5135	-0.042802054
160	0xbdd92cc1	-0.10604239
161	0x3dbdd02d	0.09268222
162	0xbd1365e3	-0.03598584
163	0x3d1eb56a	0.03874723
164	0xbda9887c	-0.082779855
165	0xbdc7f815	-0.09764115
166	0x3d492f66	0.04911747
167	0x3db18e96	0.08669774
168	0xbd3efde0	-0.046628833
169	0x3d4ed2b7	0.050493922
170	0xbd62076e	-0.055182867
171	0xbd955e49	-0.07293374
172	0xbd4f8765	-0.05066623
173	0x3c980a1c	0.018559508
174	0x3b0330f5	0.0020018194
175	0x3b1cb4f7	0.0023911574
176	0x3d538615	0.051641542
177	0xbd32229d	-0.04349004
178	0xbc8689af	-0.016423075
179	0x3dd4307f	0.103608124
180	0xbd0f58bf	-0.034996744
181	0xbd3b5be0	-0.045741916
182	0xbd0b9af7	-0.034083333
183	0x3d088b77	0.03333613
184	0xbc1b71b8	-0.009487562
185	0x3d54af76	0.051925145
186	0xbd62a835	-0.055336196
187	0x3d8e1713	0.06937995
188	0x3d5de79f	0.05417597
189	0x3cad633f	0.021165488
190	0x3da03bfe	0.078239426
191	0xbc942911	-0.018085988
192	0xbcf1650d	-0.02946713
193	0x3d109ffb	0.03530882
194	0x3d70a119	0.058747385
195	0xbd339d47	-0.043851163
196	0xbdb79c12	-0.08965315
197	0x3da5ec8a	0.08101757
198	0x3d2b068a	0.041754283
199	0xbce3bbaa	-0.027799446
200	0xbd3c9548	-0.046040803
201	0x3ce460cf	0.027878193
202	0xbc3ff6d5	-0.011716564
203	0xbcb7a160	-0.022415817
204	0x3bad95ba	0.00529739
205	0xbd4e7766	-0.050406836
206	0xbb9965f6	-0.004681344
207	0xba994550	-0.001169363
208	0xbd8365bf	-0.06415891
209	0xbba566e3	-0.0050476654
210	0xbd709426	-0.058735035
211	0xbd9374f1	-0.07200039
212	0x3b8e76f7	0.004347678
213	0xbd01a091	-0.03164727
214	0xbcb36bff	-0.021902082
215	0x3d38df9c	0.045135126
216	0x3afd3f67	0.0019321264
217	0x3d11896b	0.035531443
218	0x3bcb8968	0.0062114485
219	0x3db7d632	0.089764014
220	0x3c1a82fe	0.009430645
221	0x3b978aaf	0.0046246867
222	0x3d97b2aa	0.07407124
223	0xbdd6ab4a	-0.104818895
224	0x3c45ed1e	0.012080459
225	0xbdb8f3e6	-0.09030895
226	0x3d87e28b	0.066350065
227	0xbc81a824	-0.015827246
228	0xbde0c108	-0.10974318
229	0x3d23e7c6	0.04001596
230	0xbdf2b928	-0.11851722
231	0x3d31c63d	0.043401945
232	0xbd57ed90	-0.05271679
233	0xbd77901d	-0.06044017
234	0xbd7ae246	-0.061250947
235	0x3dc7bddb	0.09753009
236	0x3d9fdc3b	0.078056775
237	0xbd220be8	-0.039562136
238	0x3d10bf98	0.035338968
239	0xbc1d9285	-0.0096174525
240	0x3cc9a816	0.024616282
241	0xbd6939e1	-0.056939963
242	0xbd466d01	-0.048443798
243	0xbc2bcc69	-0.010485747
244	0xbd17a152	-0.03701908
245	0x3d931e3d	0.07183502
246	0x3cc58238	0.024109945
247	0xbc8c1c77	-0.017103417
248	0x3dd85fc8	0.10565144
249	0xbd80cdbc	-0.06289241
250	0x3cb334ee	0.021875825
251	0xbd870b19	-0.065939136
252	0x3baf29ce	0.0053455597
253	0xbd84e504	-0.06488994
254	0x3d56f3b5	0.05247851
255	0x3d12a98c	0.035806224

conv2.bias f4 [32]
0	0x3d355b6f	0.04427665
1	0xbd86db3a	-0.06584783
2	0x3d2a9561	0.041646365
3	0x3cb1643a	0.021654237
4	0xbc9abe8d	-0.01888969
5	0xbd3a4106	-0.045472167
6	0xbc1d925a	-0.009617412
7	0x3ca693e5	0.020334193
8	0x3ccaf2c1	0.024773957
9	0x3d5667b6	0.052345
10	0xbc2cf912	-0.01055743
11	0x3aba8f51	0.0014233385
12	0xbd8dfe9a	-0.06933327
13	0xbcd5e47e	-0.02610993
14	0x3d8206bf	0.06348943
15	0xbd4b4b23	-0.049632203
16	0xbd7ff9a3	-0.06249393
17	0x3ce1cb8c	0.027562879
18	0x3d2f7e5b	0.04284511
19	0x3d61ad50	0.055096924
20	0x3d1b806f	0.03796428
21	0xbcbdcb40	-0.023168206
22	0x3cab8785	0.020938644
23	0x3bba30fc	0.005682109
24	0xbce4abca	-0.027913947
25	0xbbc9ed44	-0.0061623175
26	0xbd340fb0	-0.043960273
27	0xbc7353fc	-0.014851566
28	0xbd64c942	-0.055855997
29	0x3cbaec91	0.022817882
30	0x3d6dd436	0.05806371
31	0x3d16d8d3	0.036827873

conv2.lin.weight f4 [32, 256]
0	0x3dc20c26	0.094749734
1	0x3d731238	0.059343547
2	0x3d6113b3	0.054950427
3	0x3ddd57fc	0.10807797
4	0x3d3113ba	0.043231703
5	0xbd80e3e9	-0.062934704
6	0x3dad2860	0.084549665
7	0x3c663245	0.014050071
8	0x3de109cf	0.10988199
9	0xbd5963ab	-0.053073566
10	0xba6dd921	-0.0009073187
11	0x3bd1116a	0.0063802497
12	0x3c34fb69	0.011046269
13	0xbd01dcbe	-0.031704657
14	0x3caea8b9	0.021320688
15	0x3d870d7f	0.06594371
16	0xbcdc7618	-0.02691178
17	0xbdbbc4d4	-0.09168401
18	0xbd06efd1	-0.03294355
19	0x3c183005	0.0092887925
20	0xbc81ff2a	-0.015868742
21	0xbc465328	-0.012104787
22	0xbd7f8d6c	-0.06239073
23	0xbaab0e9c	-0.0013050619
24	0x3d811a65	0.063038625
25	0x3db2a58e	0.08722983
26	0x3dc10ded	0.09426484
27	0xbd5c8dc2	-0.05384613
28	0xbd9f3fd6	-0.077758476
29	0x3db4b58c	0.0882369
30	0x3cd9f01a	0.026603747
31	0x3d40deae	0.047087364
32	0x3d5a5559	0.05330405
33	0xbdc65faf	-0.09686219
34	0xbdb13ee5	-0.08654574
35	0x3d75c96d	0.060006548
36	0x3d0e29f5	0.034707982
37	0xbdc5d100	-0.09659004
38	0xbc8d800e	-0.017272975
39	0xbdb6818f	-0.0891143
40	0x3d92b83f	0.071640484
41	0xbcaadba5	-0.020856688
42	0xbdb5c673	-0.08875742
43	0x3d93e503	0.07221415
44	0xbd2b28d0	-0.04178697
45	0xbd976549	-0.073923655
46	0x3d20fece	0.0393055
47	0x3ce62c91	0.028097423
48	0xbda86a99	-0.08223457
49	0x3dc40f58	0.09573239
50	0xbd0e1a5d	-0.03469311
51	0x3de04bd1	0.10951961
52	0x3da27b04	0.079336196
53	0xbdc863d4	-0.09784666
54	0x3d3b9f48	0.0458062
55	0xbd80c308	-0.06287199
56	0xbcc9a665	-0.024615476
57	0xbca06cf8	-0.01958321
58	0x3b49b73c	0.0030779382
59	0xbba85ce4	-0.0051380266
60	0xbcffda0f	-0.031231908
61	0x3dd1c99a	0.102435306
62	0xbc90588b	-0.017620346
63	0x3d09b85d	0.03362309
64	0xbd950db2	-0.07278003
65	0xbd9adc33	-0.07561531
66	0xbc1eb860	-0.009687513
67	0xbdb09040	-0.086212635
68	0x3d621d83	0.055203926
69	0xbd156389	-0.036471877
70	0x3b5e6c74	0.0033939155
71	0xbc9cf1b9	-0.019158231
72	0xbdc30b35	-0.09523622
73	0x39359ad1	0.00017319179
74	0xbb281d43	-0.0025652207
75	0x39f69819	0.00047034098
76	0x3d7eb6ee	0.062186174
77	0xbd35df49	-0.044402394
78	0x3dac04dc	0.08399364
79	0xbd4c7351	-0.04991466
80	0xbc6c9d5d	-0.014441815
81	0x3d9774e0	0.07395339
82	0xbda534f3	-0.0806674
83	0x3db35356	0.087561294
84	0xbce81585	-0.028330574
85	0xbd8ae9d0	-0.067828774
86	0x3d07c3b7	0.033145633
87	0x3ddf0c44	0.10891011
88	0x3cc737ac	0.024318539
89	0x3dc5f891	0.09666551
90	0xbc83fbb5	-0.016111234
91	0x3d7dfdf7	0.062009778
92	0x3db2b752	0.08726372
93	0x3d8eb303	0.069677375
94	0xbd104a35	-0.03522702
95	0x3d07a4f3	0.033116292
96	0x3dbb2c31	0.09139288
97	0x3d237bfd	0.039913166
98	0x3d959d10	0.07305348
99	0xbdba8789	-0.091078825
100	0xbda3a78e	-0.07990943
101	0x3de54903	0.111955665
102	0x3d429164	0.047501937
103	0x3c36e3c6	0.011162704
104	0xbd1bdbd6	-0.03805145
105	0x3cdd91a8	0.027046993
106	0x3d546ccc	0.05186157
107	0xbcae7284	-0.02129484
108	0x3cfab130	0.030602068
109	0x3d74bfb7	0.059753146
110	0xbd5ab9bf	-0.053399798
111	0x3da0f345	0.078589
112	0xbda3a392	-0.07990183
113	0x3ca64347	0.020295752
114	0xbd86b1d0	-0.06576884
115	0x3dd2c53d	0.102915265
116	0xbc93ef53	-0.018058455
117	0xbda82439	-0.08210034
118	0xbb797d8d	-0.003806922
119	0xbd171580	-0.03688574
120	0xbd8effc9	-0.06982381
121	0x3ca19302	0.01972342
122	0xbd2483b5	-0.040164668
123	0xbd0d5a49	-0.03450993
124	0x3d77f09b	0.060532194
125	0xbda0e573	-0.07856264
126	0x3da5a236	0.0808758
127	0xbdca748d	-0.098855115
128	0x3c030420	0.007996589
129	0xbd462591	-0.04837567
130	0xbdb40206	-0.087894484
131	0xbda0ec90	-0.07857621
132	0x3dd43dae	0.10363327
133	0x3d57f632	0.052725025
134	0x3d458b74	0.048228696
135	0x3d524680	0.051336765
136	0xbc4af763	-0.012388083
137	0xbd5d8ab1	-0.054087345
138	0x3d387734	0.045035556
139	0x3ceab418	0.028650329
140	0xbd441803	-0.04787446
141	0x3bf782a8	0.0075534172
142	0xbd0d61e3	-0.03451718
143	0x3dc02a1b	0.09383031
144	0x3d99feb8	0.07519287
145	0x3d5fe052	0.054657288
146	0xbd4fc8df	-0.050728675
147	0x3d714abd	0.058909167
148	0x3d16b636	0.036794864
149	0x3d9c0fd7	0.07620209
150	0xbd2faf3f	-0.042891737
151	0xbcdadd3a	-0.026716817
152	0xbddd0c68	-0.10793382
153	0x3c8219b4	0.015881397
154	0xbcb63593	-0.022242343
155	0x3d9f612e	0.077822074
156	0x3c44306b	0.011974434
157	0x3dbb09b1	0.09132708
158	0x3d8108a4	0.06300476
159	0x3d988f3c	0.07449195
160	0xbcf339b2	-0.029690597
161	0xbc0730af	-0.008251353
162	0x3d9b07c0	0.075698376
163	0x3dbbc31f	0.09168076
164	0xbd846df4	-0.064662844
165	0xbd84d0c6	-0.06485133
166	0x3c8d03f9	0.017213808
167	0x3dc64651	0.096813805
168	0x3d6d718a	0.057969607
169	0x3df3fc5a	0.119133666
170	0x3d37cf54	0.044875458
171	0xbd04b86c	-0.03240244
172	0xba63ff2d	-0.0008697387
173	0x3dbc2b0d	0.09187899
174	0x3dcc28f2	0.09968747
175	0x3d799a2e	0.060938053
176	0xbd12aac4	-0.035807386
177	0x3d0b536d	0.034015108
178	0x3cb2ce8b	0.021827003
179	0x3de25474	0.110512644
180	0x3d2672f4	0.04063697
181	0x3c135820	0.008993179
182	0xbd5cd3db	-0.05391298
183	0xbd8f2e84	-0.06991294
184	0x3d2df226	0.04246726
185	0x3d2e9ff1	0.042633
186	0xbd3b54e0	-0.04573524
187	0xbd7158dc	-0.058922634
188	0xbc00fec6	-0.007873243
189	0xbdf40136	-0.119142935
190	0xbdb29c84	-0.08721259
191	0x3d5b0c6e	0.05347865
192	0x3dc8b218	0.09799594
193	0xbd3d85b0	-0.046270072
194	0xbdb15a94	-0.086598545
195	0x3da6a79c	0.08137438
196	0xbca742cf	-0.020417599
197	0xbd2fb067	-0.04289284
198	0xbcf6ce2a	-0.030127604
199	0xbde39241	-0.1111188
200	0xbcfc06c5	-0.030764947
201	0xbdd0f5cc	-0.10203132
202	0x3cd2f9f0	0.025753945
203	0x3d959ae8	0.07304937
204	0x3d98ce55	0.0746123
205	0xbd1ed9f1	-0.038782064
206	0xbd93a15e	-0.07208513
207	0xbc5d4d44	-0.013507191
208	0x3dec1138	0.11526722
209	0xbdd123b1	-0.10211886
210	0xbde14177	-0.109988146
211	0xbd51d8a2	-0.051231988
212	0x3dac977d	0.084273316
213	0xbd6eb7e9	-0.05828086
214	0xbb0db5d0	-0.0021623261
215	0x3be88d0a	0.0070968913
216	0x3c03f77c	0.00805461
217	0xbc8223f7	-0.01588629
218	0x3cc0cc0b	0.023534795
219	0xbd90eced	-0.0707644
220	0xbcf24492	-0.029573712
221	0x3d16cee0	0.036818385
222	0x3d9c66fd	0.07636831
223	0x3d437d4c	0.047726914
224	0x3d950fa1	0.072783716
225	0x3d9388a7	0.07203799
226	0x3d75730a	0.059924163
227	0x3d3a72a7	0.045519497
228	0x3bb9141c	0.005648149
229	0xbcb8e566	-0.022570323
230	0x3cd876b4	0.02642379
231	0xbd94bcca	-0.07262571
232	0xbc355ca1	-0.011069448
233	0xbd87ed1d	-0.06637023
234	0x3c940162	0.018067066
235	0x3cf5cd22	0.030005042
236	0xbd3ce68f	-0.046118315
237	0x3bf317f2	0.007418626
238	0x3d28ec21	0.041240815
239	0x3debc9a1	0.11513067
240	0xbd0722f1	-0.032992307
241	0x3d8bf4e6	0.0683382
242	0xbc98785c	-0.01861208
243	0xbaea7a70	-0.0017889272
244	0xbd303459	-0.043018673
245	0xbdbefaec	-0.09325203
246	0xbce450a7	-0.02787049
247	0xbd148591	-0.03626019
248	0xbdb7e45a	-0.089791015
249	0xbcdb9ce0	-0.026808202
250	0xbd6d9281	-0.058001045
251	0x3c9321ca	0.017960448
252	0x3d92eba2	0.0717385
253	0x3dd1975b	0.10233947
254	0x3d2e423c	0.042543635
255	0xbdb47436	-0.08811228
