pretrained_gnns/german_bgrl_gcn.pth (torch, 56400 bytes, 4 tensors)

0.bias f4 [256]
0	0xbbdbe710	-0.0067108944
1	0xb81fa4b8	-3.806196e-05
2	0xbbc56fa0	-0.0060252696
3	0xbb097dd3	-0.0020979538
4	0xbbc05db2	-0.0058705444
5	0xbaa52e13	-0.0012602232
6	0xbbd3670f	-0.0064514945
7	0xbc601855	-0.013677676
8	0x3b00e471	0.0019667412
9	0x3a06bf9f	0.0005140248
10	0xbad42022	-0.0016183893
11	0x39c5ef0f	0.0003775288
12	0xbbe1ae71	-0.00688725
13	0xb9efe559	-0.0004575651
14	0xbc00f5b1	-0.007871077
15	0xbbd043fe	-0.0063557616
16	0xb9e5b2ce	-0.00043811504
17	0xbae3d761	-0.0017382914
18	0xbc1c9964	-0.009558056
19	0xbbd15d0e	-0.006389267
20	0xbbaa1f27	-0.005191702
21	0x3a55bbbc	0.000815328
22	0xbb7f7e88	-0.003898533
23	0x3b6cb874	0.0036120685
24	0xbb2476d3	-0.0025095239
25	0xbbd1e4e1	-0.0064054583
26	0xbafce52f	-0.0019294376
27	0xbb72d4a0	-0.0037053004
28	0xbb192ab3	-0.0023371398
29	0x3abdec98	0.0014490066
30	0xbbe1dd35	-0.006892825
31	0xb901767d	-0.00012346539
32	0xba8c2340	-0.0010691658
33	0xbb3862bf	-0.002813503
34	0xbba01694	-0.004885504
35	0xbacdf049	-0.0015711869
36	0xba806349	-0.0009795214
37	0xbbb0bce5	-0.0053936117
38	0xba88117c	-0.0010381187
39	0xbb6c1db6	-0.0036028451
40	0xbc227439	-0.009915405
41	0xbc3f00a3	-0.011657867
42	0xbbb9c304	-0.0056689996
43	0xbc14254f	-0.009042098
44	0xbc289f0a	-0.010291824
45	0xba3405ec	-0.00068673375
46	0xbbacc1d0	-0.0052721277
47	0x3ab06093	0.0013456516
48	0xbb5e7417	-0.0033943707
49	0xbba44c29	-0.005013962
50	0xbbd54e2f	-0.0065095644
51	0xbac67185	-0.0015140033
52	0xbb3e118c	-0.0029002158
53	0xbb8b581b	-0.0042524463
54	0xbbc11716	-0.0058926446
55	0x3a5564fe	0.0008140354
56	0x3b9d837f	0.0048069353
57	0xbb5536c8	-0.0032533873
58	0xbb239177	-0.002495853
59	0xbbe44c58	-0.0069671087
60	0xbae67075	-0.0017581122
61	0xbb44c589	-0.0030024967
62	0xbbd038c4	-0.0063544232
63	0xbbcd0d85	-0.006257715
64	0xbc02a5bf	-0.007974087
65	0xbbdf0ccb	-0.006806945
66	0xbc2417be	-0.010015426
67	0xbbb919c7	-0.005648825
68	0x3a505719	0.0007947549
69	0xbc19d2b0	-0.009388611
70	0xbbd4a8e1	-0.0064898585
71	0xbb090b7d	-0.0020911389
72	0xba4e722c	-0.00078752893
73	0xbc77005c	-0.015075769
74	0xbc1c3e23	-0.009536299
75	0xbb4f4452	-0.0031626415
76	0x3a987fd9	0.0011634781
77	0xb9e3e2bd	-0.00043465747
78	0x3b351452	0.002763052
79	0xba6ee3f8	-0.00091129495
80	0xbba02589	-0.004887287
81	0xbbc86d34	-0.0061165337
82	0xbb22bafc	-0.002483069
83	0xbc10a247	-0.008827752
84	0xbc172806	-0.009225851
85	0x3bc12348	0.0058940984
86	0xbc315e17	-0.010825655
87	0xbbf19d6d	-0.007373503
88	0xbbd2a9b0	-0.0064289197
89	0xbbe3550c	-0.0069376286
90	0xbaaa606b	-0.0012998705
91	0xbae907a4	-0.0017778766
92	0xbc11ae0d	-0.008891595
93	0xbc024ae4	-0.007952426
94	0xbb1d3997	-0.0023990625
95	0xbbd00b3a	-0.0063489946
96	0x3953f17f	0.00020212492
97	0xba61e188	-0.00086166756
98	0x3b0dc1c2	0.0021630381
99	0xba1836ac	-0.00058064866
100	0xbbff213a	-0.0077859433
101	0xbaf4550b	-0.0018641067
102	0xbb82719e	-0.0039808294
103	0xbbee4209	-0.0072710556
104	0xbb87d310	-0.0041450337
105	0x39de527c	0.00042404595
106	0xba6da8c6	-0.0009065982
107	0xba07d9e4	-0.00051823095
108	0xbc4c4217	-0.012466929
109	0xbae49a3d	-0.0017440986
110	0xbc02f634	-0.00799327
111	0xbb3c9978	-0.0028777998
112	0xbbaf4669	-0.0053489697
113	0xbae4f69b	-0.0017468514
114	0xbb451072	-0.0030069617
115	0xbb9520f3	-0.004551047
116	0xbb9964bc	-0.004681198
117	0xbb9a336c	-0.004705837
118	0xbc00075a	-0.007814253
119	0xbab3e560	-0.0013724975
120	0xbbec3d23	-0.0072094365
121	0xbb9cffc6	-0.0047912328
122	0xbbf71d99	-0.00754137
123	0xbabfec86	-0.0014642633
124	0xbaf6238c	-0.0018778904
125	0xbc20fab2	-0.009825395
126	0xbbf1a694	-0.007374594
127	0xbbbdffad	-0.005798301
128	0xbbbb991a	-0.0057250382
129	0xbaa14abc	-0.0012305598
130	0x3b8919a5	0.0041839653
131	0xbbd34325	-0.0064472132
132	0xbc316dfd	-0.010829446
133	0xba72059f	-0.0009232405
134	0x3bc1a816	0.00590993
135	0xbc05135d	-0.008122292
136	0x3acbca05	0.0015547877
137	0xbbd6b69a	-0.0065525295
138	0x3b0f7652	0.0021890593
139	0xbba3b977	-0.0049964744
140	0x3ad1c6e0	0.0016004704
141	0xbbcdf1b0	-0.006284915
142	0xbbcc4e5f	-0.0062349285
143	0xbba13fd8	-0.004920941
144	0x39892d08	0.00026164227
145	0xbb9c0de4	-0.004762398
146	0xbc3d9034	-0.011570025
147	0xbb011df2	-0.0019701687
148	0xba8c921f	-0.00107247
149	0xbbebe164	-0.0071984995
150	0xbbd08b39	-0.006364253
151	0xbb867751	-0.004103579
152	0xbc2045b8	-0.009782247
153	0xbbf7eb99	-0.007565927
154	0xbbc9f0d4	-0.006162742
155	0xbc3aff33	-0.011413383
156	0xba007908	-0.00049008476
157	0xbc2cd85d	-0.010549632
158	0x3962fac4	0.00021646457
159	0xbc26f256	-0.010189613
160	0xbc42fe9c	-0.011901524
161	0xbbdb1645	-0.0066860043
162	0xba150974	-0.00056853076
163	0xbac14a4d	-0.0014746875
164	0xbb9c23dc	-0.004765017
165	0x3b306a6d	0.0026918903
166	0xbbb2c0dd	-0.00545512
167	0xbbe3d2cf	-0.0069526206
168	0xb777f695	-1.4779759e-05
169	0xbc2777b3	-0.01022141
170	0xbb8c7079	-0.0042858687
171	0xbc347653	-0.011014539
172	0xbb535458	-0.0032246318
173	0xbc1c0b05	-0.009524112
174	0xbadee904	-0.00170067
175	0xbc10ddb1	-0.008841918
176	0xbbd0c3b3	-0.0063709854
177	0xbadac301	-0.0016690196
178	0xbb0f5de1	-0.0021876025
179	0xbb8ec16d	-0.0043565542
180	0xbc0499d1	-0.008093313
181	0xbb86f5dd	-0.0041186647
182	0xbbfda784	-0.0077409167
183	0x3b8c8a31	0.0042889346
184	0xbb93412a	-0.004493852
185	0xba1954aa	-0.0005849103
186	0xbbc79314	-0.006090531
187	0xbb94927b	-0.0045340634
188	0x3a35e760	0.00069390796
189	0xbbb347c8	-0.0054712035
190	0xbc6373cd	-0.0138825895
191	0xbbcdb8d3	-0.0062781363
192	0xbbeae845	-0.007168802
193	0x3a28a84f	0.00064337713
194	0xbc0dc7fb	-0.008653636
195	0xbac46b57	-0.0014985603
196	0xbc1c6b50	-0.00954707
197	0xbb2e47b8	-0.002659304
198	0xbb8e0c47	-0.0043349597
199	0xbc4f03cc	-0.012635183
200	0xbc09c6e4	-0.008409236
201	0xbbc592e5	-0.006029474
202	0xbbcf849a	-0.006332946
203	0xbbe447d4	-0.0069665704
204	0xbc1c2b3d	-0.009531793
205	0xbb78bf6f	-0.00379559
206	0x3abd6e8d	0.0014452502
207	0xbbfbc0ad	-0.007682881
208	0x39847443	0.00025263624
209	0xbbbcce76	-0.0057619167
210	0xbb0e82af	-0.0021745374
211	0xbb83a5c4	-0.0040175635
212	0xbc17a920	-0.009256631
213	0xbb4c1ed1	-0.0031146298
214	0xbba4a771	-0.0050248434
215	0xbc085c8b	-0.008322845
216	0x39c4373c	0.00037425186
217	0xbc25cbcf	-0.010119393
218	0xbba99730	-0.0051754937
219	0xbc170256	-0.0092168655
220	0x39ebe246	0.0004499128
221	0xbbffca72	-0.007806116
222	0xbbfac2e2	-0.0076526264
223	0x3aad723e	0.0013232899
224	0x3b1de160	0.0024090633
225	0xbb8f5191	-0.004373737
226	0x3a92d289	0.001120166
227	0xb881bb2a	-6.1860614e-05
228	0xbb2e5139	-0.0026598705
229	0xbb80e600	-0.003933668
230	0xbb873f7c	-0.004127441
231	0xbb0faab2	-0.002192181
232	0xbbcf3a55	-0.0063240924
233	0xbbb3b5eb	-0.005484333
234	0xbbd0ee77	-0.0063760835
235	0xbbd0d8ea	-0.0063735144
236	0xbb77aaed	-0.0037791089
237	0xb9912c36	-0.00027689495
238	0xbbaeab5f	-0.0053304876
239	0xbaab532b	-0.0013071051
240	0xbb95f582	-0.004576386
241	0xbbda65d5	-0.0066649714
242	0xbbdf5d20	-0.0068165213
243	0xbbdc1cf3	-0.006717318
244	0xbc113782	-0.008863332
245	0xbc2c56af	-0.010518714
246	0xb8064f48	-3.2021926e-05
247	0xbb8a6415	-0.0042233565
248	0xbb9b5476	-0.004740293
249	0xbc03cb2f	-0.008044048
250	0xbbaab647	-0.0052097174
251	0xbb3cf12c	-0.0028830273
252	0xbba4ab45	-0.0050252997
253	0xbb9215fb	-0.0044581867
254	0xbaaa53c5	-0.0012994936
255	0xba4b6f93	-0.00077604613

0.lin.weight f4 [256, 20]
0	0xbdf1e2ca	-0.11810835
1	0xbdc3b814	-0.095565945
2	0x3d043e7d	0.032286156
3	0xbd440c4e	-0.047863297
4	0x3bf652a0	0.007517174
5	0x3dc6f20e	0.09714137
6	0x3cdaa31c	0.026689105
7	0x3e04bf05	0.12963493
8	0xbacd19da	-0.0015647963
9	0x3e0941fb	0.13404076
10	0x3c8cd6a2	0.017192189
11	0xbc9719ac	-0.018444858
12	0x3d677e9f	0.05651724
13	0xbde28caf	-0.110619895
14	0x3de6a069	0.112610646
15	0x3ded09df	0.115741484
16	0xbdfe64c7	-0.124215655
17	0xbdae3987	-0.08507066
18	0x3de018c1	0.109422214
19	0x3d43c668	0.047796637
20	0xbd57c983	-0.05268241
21	0xbda6d3a3	-0.08145835
22	0xbd4b4727	-0.049628403
23	0xbd2bc793	-0.041938376
24	0x3e071b6b	0.13194053
25	0xbdacd25a	-0.08438559
26	0xbb63aa58	-0.0034738984
27	0x3ca232b9	0.019799577
28	0xbd922d41	-0.07137538
29	0xbc751267	-0.014958001
30	0xbc184e41	-0.009296001
31	0x3dd33a48	0.10313851
32	0x3dd8e1bc	0.105899304
33	0x3b385e18	0.0028132256
34	0xbd9945f6	-0.07484047
35	0xbda96021	-0.08270288
36	0xbd80e53c	-0.06293723
37	0x3dfe190b	0.1240712
38	0x3ddc1ddc	0.10747883
39	0x3cf841ce	0.030304816
40	0xbdf3d0db	-0.119050704
41	0x3d447f07	0.047972705
42	0xbd17b760	-0.037040114
43	0x3dae52a2	0.08511855
44	0x3d8dbe81	0.06921101
45	0x3deaf8ff	0.114732735
46	0x3b2e8dfa	0.0026634918
47	0xbc29104c	-0.010318827
48	0x3c1a86bd	0.009431538
49	0x3db625ce	0.088939294
50	0x3dec6717	0.115431
51	0x3da1724c	0.078831285
52	0xbd077459	-0.033069942
53	0xbd20e013	-0.039276194
54	0x3e081160	0.13287878
55	0xbd9ed1f9	-0.07754893
56	0x3cd65825	0.026165077
57	0x3d12907e	0.03578233
58	0x3d8558bb	0.065110646
59	0xbd664c7e	-0.056225292
60	0xbd49df75	-0.04928537
61	0xbce21513	-0.02759794
62	0xbd57d4e5	-0.052693266
63	0xbdf495a2	-0.11942603
64	0x3d9268c2	0.07148887
65	0xbdc5f084	-0.09665015
66	0xbd16e1e4	-0.03683652
67	0x3d4f9b25	0.050685067
68	0x3deb0c21	0.11476923
69	0xbcf879f2	-0.030331586
70	0xbda3fa0b	-0.08006676
71	0xbd85262e	-0.06501423
72	0x3c9f2e86	0.019431364
73	0xbd9ec82b	-0.07753023
74	0x3d3ed602	0.046590813
75	0x3d933aa0	0.07188916
76	0x3dff9f23	0.12481525
77	0x3defec8c	0.117150396
78	0xbd1146b9	-0.035467837
79	0x3d3836ee	0.04497426
80	0x3d06e361	0.03293169
81	0x3d831284	0.06400016
82	0xbd156128	-0.03646961
83	0x3dfa558f	0.1222335
84	0x3b3681c7	0.002784835
85	0x3db1a504	0.08674052
86	0x3dcd9f5d	0.10040162
87	0xbd1a9f6b	-0.03774969
88	0x3de0a1cf	0.109683625
89	0xbd6c7c2b	-0.057735603
90	0x3d840a0a	0.06447227
91	0xbbb3c282	-0.0054858336
92	0xbdee5afa	-0.11638446
93	0xbcdaaf5d	-0.026694948
94	0x3cd409a9	0.025883513
95	0x3ddea8d0	0.10872042
96	0xbe05c778	-0.13064373
97	0xbdaa5ff9	-0.083190866
98	0x3d8aea62	0.06782986
99	0xbd76e042	-0.060272463
100	0x3ccd8ede	0.025092538
101	0xbd976817	-0.073929004
102	0x3c64d704	0.013967279
103	0xbd3ef587	-0.046620872
104	0x3d2beb83	0.04197265
105	0x3da79229	0.08182175
106	0x3ce93e5c	0.028472118
107	0xbdd36844	-0.103226215
108	0x3dc716b5	0.09721128
109	0x3dfaa8ff	0.12239265
110	0xbe0c1645	-0.1368037
111	0x3ddf6180	0.109072685
112	0xbdf14337	-0.11780398
113	0x3d8c341b	0.06845876
114	0xbc7373e0	-0.01485917
115	0xbcc13214	-0.02358345
116	0xbda136d3	-0.07871785
117	0x3df1a848	0.11799675
118	0x3c3bd750	0.011464909
119	0xbc094341	-0.008377851
120	0xb947515c	-0.00019008428
121	0x3da759e0	0.08171439
122	0x3e0d0b7e	0.13773915
123	0xbd8f6cd3	-0.070031784
124	0xbe00d7f0	-0.12582374
125	0xbdc479af	-0.09593522
126	0xbd9e8bb5	-0.07741491
127	0xbdfb571c	-0.12272474
128	0xbd32b131	-0.043626014
129	0xbd79ccf9	-0.060986493
130	0xbbe69e6b	-0.007037928
131	0x3d5b815f	0.053590175
132	0x3dd1929d	0.102330424
133	0xbda77b91	-0.08177865
134	0xbdbebab0	-0.093129516
135	0xbd5c0fd5	-0.053726036
136	0xbdb8f22b	-0.09030565
137	0x3c95823f	0.018250583
138	0xbdc26693	-0.09492221
139	0xbac9bc48	-0.0015391195
140	0xbac05bdd	-0.0014675815
141	0xbdc48dd6	-0.095973656
142	0xbd18dd99	-0.037320707
143	0x3d8d426e	0.06897436
144	0xbd64743e	-0.05577492
145	0xbddd6df4	-0.108119875
146	0x3de1aeea	0.1101969
147	0xbd4040cf	-0.046936806
148	0x3d0ea54f	0.03482562
149	0x3dce5f63	0.10076787
150	0x3d89c9bf	0.06727933
151	0xbdf9537a	-0.12174125
152	0x3e0ef841	0.13961889
153	0xbcf07e22	-0.02935702
154	0x3c0cb0bc	0.008587059
155	0x3d5afc81	0.053463463
156	0x3d338639	0.043829177
157	0x3dcfc100	0.10144234
158	0xbd9f30de	-0.077729926
159	0x3dbe2101	0.09283639
160	0x3dc74cf0	0.097314715
161	0xbe08c82d	-0.13357611
162	0xbd8b2dc7	-0.06795841
163	0x3dcaec92	0.099084035
164	0xbdefd162	-0.117098585
165	0xbe0707f0	-0.13186622
166	0x3db9cc62	0.09072186
167	0x3d09f156	0.03367742
168	0x3c916c4a	0.017751832
169	0x3de8470e	0.113416776
170	0x3c8311de	0.01599973
171	0x3e0127c0	0.1261282
172	0xbdcbb294	-0.099461704
173	0xbdf62110	-0.12018025
174	0xbc8bbe18	-0.017058417
175	0x3e13212d	0.14368124
176	0xbde9a073	-0.114075564
177	0x3d9d81d3	0.07690778
178	0x3d061253	0.03273232
179	0xbcf5e7e2	-0.030017797
180	0xbdcd5499	-0.10025901
181	0x3d524cab	0.051342648
182	0x3d1ff474	0.039051488
183	0x3c44a869	0.012003043
184	0x3d1b8dfd	0.037977207
185	0x3d9d32ac	0.076756805
186	0xbdcf6c95	-0.10128132
187	0xbe1708e4	-0.14749485
188	0xbcb3c975	-0.021946648
189	0xbd1090ea	-0.03529445
190	0xbd482e61	-0.048872355
191	0x3d1ac852	0.037788697
192	0xbde0f499	-0.10984153
193	0x3e139836	0.14413533
194	0xbcefe710	-0.029284984
195	0xbd93d55c	-0.072184294
196	0xbcaa8457	-0.020815058
197	0xbde168e7	-0.11006337
198	0xbde4dc11	-0.11174787
199	0x3d7ce7c7	0.061744478
200	0xbd4fe09b	-0.05075131
201	0xbd9765da	-0.073924735
202	0x3d6e9710	0.058249533
203	0x3dbebbdc	0.09313175
204	0x3ca3613e	0.01994383
205	0xbdacaefd	-0.08431814
206	0x3da8ec5e	0.082482085
207	0xbd3b0281	-0.045656685
208	0xbd89e41a	-0.0673296
209	0xbcddd26a	-0.027077872
210	0xbcf49cdb	-0.02985995
211	0x3e0da39c	0.13831943
212	0xbcaef890	-0.021358758
213	0xbe0840bc	-0.13305944
214	0xbce19b1e	-0.027539786
215	0x3d64dd44	0.055875078
216	0x3d77f119	0.060532663
217	0xbdafe5a7	-0.085887246
218	0xbd850413	-0.06494918
219	0xbd5a1907	-0.053246524
220	0xbb190b41	-0.0023352655
221	0xbe02d78b	-0.12777536
222	0x3d629f7e	0.055327885
223	0xbd30adbb	-0.043134432
224	0x3db97d85	0.09057144
225	0x3d355f22	0.04428018
226	0xbd248a7e	-0.04017114
227	0xbca18617	-0.01971726
228	0x3d60e116	0.05490216
229	0xbdce1dd7	-0.10064285
230	0xbcc52b62	-0.024068538
231	0x3d77f9a7	0.06054082
232	0xbe02a872	-0.1275957
233	0xbc9711d5	-0.01844112
234	0x3c8409e0	0.01611799
235	0xbd69d7a4	-0.057090417
236	0x3d4c0a2b	0.049814384
237	0x3d407cd3	0.04699404
238	0xbc70cc9d	-0.014697221
239	0xbd2af56f	-0.04173797
240	0x3d4fe58a	0.050756015
241	0xbcf33f48	-0.02969326
242	0xbdd34b1a	-0.10317059
243	0x3d895b52	0.06706871
244	0x3e0952e1	0.13410522
245	0x3df8cec4	0.121488124
246	0xbd9b91d1	-0.07596172
247	0x3e14df4b	0.14538305
248	0xbd8ff3c5	-0.07028917
249	0xbde718d2	-0.11284031
250	0x3dce9d46	0.10088591
251	0xbdbda786	-0.09260468
252	0x3dfb20ec	0.12262139
253	0x3df67a85	0.120350875
254	0xbddcc935	-0.10780565
255	0x3da96272	0.0827073

1.bias f4 [32]
0	0x3a1a3d7b	0.0005883795
1	0xba686281	-0.0008864776
2	0x3b71aa36	0.0036875135
3	0xbb8cb09d	-0.004293515
4	0x3b988a7b	0.00465518
5	0xbbe46f17	-0.0069712508
6	0xbb1c91e8	-0.0023890678
7	0xbab186a8	-0.0013544159
8	0x3b5bcb0a	0.0033537769
9	0x3ab93831	0.0014131126
10	0x3b0bf5ed	0.00213563
11	0xbb137deb	-0.0022505473
12	0x3a84d1d6	0.0010133337
13	0xb989c66c	-0.00026278512
14	0x3b4fae4c	0.0031689582
15	0xbacccd8c	-0.0015625223
16	0x3b3d4b7e	0.0028884108
17	0x3bae7dcc	0.0053250547
18	0xbbbd7235	-0.005781437
19	0xbb0e4c20	-0.0021712855
20	0xbb9ab066	-0.0047207354
21	0x3bf7e2d3	0.0075648814
22	0x3bc9e96e	0.00616186
23	0x392d1dbe	0.00016509646
24	0x3c0c2ac9	0.008555123
25	0xb7692519	-1.389652e-05
26	0xbb4aabf8	-0.0030925255
27	0x3b3ac22d	0.0028497085
28	0x3834e970	4.313275e-05
29	0x3b32c97a	0.0027280734
30	0x3c09b53b	0.008405025
31	0x3c0838f5	0.008314361

1.lin.weight f4 [32, 256]
0	0xbc51f2de	-0.012814252
1	0xbdb2f879	-0.08738799
2	0xbd58f246	-0.052965425
3	0xbb2fa7f6	-0.0026802993
4	0xbd645ce3	-0.055752646
5	0xbd8e4adb	-0.06947871
6	0x3dada191	0.08478082
7	0xbe02829b	-0.12745135
8	0xbc6b1a92	-0.014349597
9	0x3dca96ff	0.098920815
10	0x3d411f4c	0.047148988
11	0xbca8634e	-0.020555165
12	0x3dcec305	0.10095791
13	0xbd9fc0bb	-0.07800432
14	0x3c8b1a82	0.016980413
15	0x3e0b1f65	0.13586195
16	0x3987fb1f	0.00025936306
17	0xbdfc9d0f	-0.12334644
18	0xbddba8b4	-0.10725537
19	0xbdfd2787	-0.12361055
20	0xbd8b81a6	-0.06811838
21	0x3d36a54c	0.044591233
22	0xbd8b5621	-0.06803537
23	0x3c253ccf	0.010085299
24	0xbe0daf89	-0.13836493
25	0xbcd10bbc	-0.02551829
26	0x3d668bfa	0.056285836
27	0x3d6d3999	0.057916258
28	0x3df29b39	0.118460126
29	0x3d873648	0.0660215
30	0xbdd68694	-0.104748875
31	0x3da8ac1e	0.08235954
32	0xbddae104	-0.106874496
33	0xbcbffd0d	-0.023436094
34	0x3d9f6045	0.07782034
35	0x3df113a3	0.117713235
36	0x3cc44e06	0.023962986
37	0x3d5422a9	0.051790867
38	0x3d9c3230	0.0762676
39	0x3e069bcd	0.13145371
40	0x3dcf55db	0.101237975
41	0xbd74d072	-0.0597691
42	0x3d4184c6	0.047245763
43	0xbe0609e3	-0.13089709
44	0xbd09f6b8	-0.033682555
45	0x3d37d654	0.044882134
46	0x3dac2c73	0.084069155
47	0x3dca89c0	0.09889555
48	0x3c7a10b2	0.01526277
49	0xbcc6b13c	-0.024254434
50	0x3dd186e8	0.102308095
51	0x3dd1e087	0.10247903
52	0xbd4348f0	-0.04767698
53	0x3ca16ac1	0.019704225
54	0xbc99ce82	-0.018775228
55	0x3d8e4744	0.069471866
56	0xbdbeb5c8	-0.09312016
57	0xbdbad930	-0.091234565
58	0xbd08059c	-0.033208475
59	0x3de252a0	0.11050916
60	0x3d0c158d	0.03420024
61	0x3d2b3ada	0.041804172
62	0x3d5e6c3b	0.054302435
63	0x3e0a1630	0.13485026
64	0xbd7dacec	-0.06193249
65	0xbbab19ba	-0.0052215727
66	0x3d63b19f	0.055589315
67	0x3c624bb6	0.013811996
68	0x3df016d5	0.11723105
69	0xbdf4a1d0	-0.11944926
70	0xbd001b94	-0.0312763
71	0xbdb6e3fd	-0.08930204
72	0x3cd55bee	0.026044812
73	0x3d7b088e	0.061287455
74	0xbdad0667	-0.08448487
75	0x3df4a105	0.119447745
76	0x3c552c5b	0.013011063
77	0xbe1023c5	-0.14076145
78	0xbe0c16a1	-0.13680507
79	0x3d3f262b	0.04666726
80	0x3d182d17	0.037152376
81	0xbdbc28eb	-0.09187492
82	0x3d745862	0.0596546
83	0x3db6a833	0.089188
84	0x3ddbd88d	0.10734663
85	0xbcea0341	-0.028566005
86	0xbd30894d	-0.04309969
87	0x3d45f469	0.04832879
88	0xbdaab0cc	-0.083345026
89	0xbe001bef	-0.12510656
90	0xbd037ea2	-0.03210319
91	0x3c9c2af6	0.019063454
92	0x3d3b1190	0.045671046
93	0x3dcf216d	0.10113797
94	0xbcc90b9a	-0.024541665
95	0xbdbadeb4	-0.091245085
96	0xbb01d7ea	-0.0019812533
97	0x3d1fca60	0.03901136
98	0x3e02b337	0.12763678
99	0x3dcdda06	0.1005135
100	0xbdf5dccb	-0.120050035
101	0x3cd79a46	0.02631868
102	0x3d8646e3	0.06556489
103	0xbd280899	-0.041023824
104	0x3d91e9e0	0.07124686
105	0xbc6ba4cb	-0.014382551
106	0xbd820760	-0.06349063
107	0xbd800a0f	-0.062519185
108	0x3daa6b5a	0.08321257
109	0x3deea67c	0.11652848
110	0x3df884bb	0.12134691
111	0x3cbab20e	0.022789981
112	0xbc012b9c	-0.007883932
113	0x3dacadea	0.08431609
114	0x3ddead6d	0.10872922
115	0xbc46f391	-0.012143032
116	0xbd2a343f	-0.041553732
117	0xbda67595	-0.08127896
118	0x3d863ec8	0.06554943
119	0xbe0046fc	-0.12527078
120	0x3d47f740	0.04881978
121	0xbde88e95	-0.1135532
122	0x3e078a6c	0.13236398
123	0xbe0742aa	-0.13209024
124	0xbdab3635	-0.083599485
125	0xbc33d2b9	-0.010975533
126	0xbd0fd1b1	-0.035112087
127	0xbcc74f12	-0.024329696
128	0xbda25733	-0.07926788
129	0xbcd48897	-0.025944037
130	0xbdca81ce	-0.098880395
131	0xbe121684	-0.14266402
132	0xbe0d4b09	-0.13798155
133	0x3de6e4d9	0.11274118
134	0x3d057240	0.03257966
135	0x3deae503	0.11469462
136	0x3cda505b	0.026649645
137	0xbd521b5b	-0.05129562
138	0xbcb969ee	-0.022633519
139	0xbe07e39d	-0.13270421
140	0x3e060534	0.13087922
141	0x3db87f74	0.09008685
142	0xbd89b2f2	-0.06723584
143	0x3d107b9f	0.035274144
144	0x3db982b3	0.09058132
145	0xbd8ed204	-0.06973651
146	0xbdc37074	-0.09542933
147	0xbdc7bec3	-0.09753182
148	0xbe0b498d	-0.13602276
149	0x3e0fe7d5	0.1405328
150	0x3a410056	0.0007362416
151	0xbc686f16	-0.014186641
152	0x3c8086dd	0.015689308
153	0xbde67a3f	-0.11253785
154	0x3dd3e3dd	0.10346196
155	0xbe16468e	-0.14675352
156	0x3ddbd2c2	0.10733558
157	0xbdafe758	-0.08589047
158	0x3d84bb46	0.06481032
159	0x3b8075d5	0.0039202967
160	0xbe117daa	-0.14208093
161	0x3ddad20f	0.10684597
162	0x3db49a2e	0.0881847
163	0x3d21eedb	0.03953443
164	0x3d960142	0.07324459
165	0xbe0de8ea	-0.13858381
166	0x3d0e3ca0	0.034725785
167	0x3d37efff	0.044906612
168	0x3dc00a37	0.09376948
169	0xbe124c5a	-0.14286938
170	0xbbafce02	-0.005365134
171	0x3dde8aa6	0.10866289
172	0xbdd06651	-0.10175765
173	0xbdc185b6	-0.094493315
174	0x3e055842	0.13021949
175	0x3d019678	0.03163764
176	0xbce86970	-0.028370589
177	0xbda61de3	-0.08111169
178	0x3ca0e1d4	0.019638933
179	0x3cdbcc77	0.026830895
180	0x3de81830	0.113327384
181	0xbcde81ae	-0.027161445
182	0x3d5312fb	0.051531773
183	0x3d957e3d	0.07299469
184	0x3d4aa237	0.049471106
185	0xbdd6de50	-0.104916215
186	0x3d435ba2	0.04769481
187	0xbca80d44	-0.020514138
188	0xbdc8c16a	-0.09802516
189	0xbd3e7905	-0.046502132
190	0xbd1ea38d	-0.038730193
191	0xbce7d02e	-0.02829751
192	0xbc1b4356	-0.009476503
193	0x3dea5daf	0.1144365
194	0x3d8202b5	0.063481726
195	0x3d429bd3	0.047511887
196	0x3d8db76f	0.06919753
197	0x3dfba8ca	0.12288053
198	0xbdc7143f	-0.097206585
199	0xbce1e160	-0.027573287
200	0xbdee25c5	-0.11628298
201	0xbd9800dd	-0.0742204
202	0x3d508532	0.050908275
203	0x3de7343e	0.11289261
204	0x3d206b7b	0.039165
205	0xbd0ab61a	-0.03386507
206	0xbd8dab4c	-0.06917438
207	0xbdc5ffda	-0.096679404
208	0x3d136236	0.035982333
209	0xbde1d5f0	-0.110271335
210	0x3df0752b	0.11741098
211	0xbb5c0513	-0.003357236
212	0x3c464de7	0.012103534
213	0xbd85553d	-0.065103985
214	0xbd733696	-0.05937823
215	0x3d23a974	0.039956525
216	0x3cd30b00	0.025762081
217	0x3d93b4d5	0.07212225
218	0x3dbf7b81	0.093497284
219	0xbdb2e429	-0.08734924
220	0x3e030a5a	0.12796918
221	0x3c383c62	0.011244865
222	0xbded9b42	-0.11601879
223	0x3da00cdb	0.07814952
224	0xbdaf26ff	-0.0855236
225	0x3dcc7b30	0.09984434
226	0xbd8c540e	-0.0685197
227	0xbd7767af	-0.060401615
228	0x3d73cce4	0.05952157
229	0x3e0ccf98	0.13751066
230	0xbddb388f	-0.10704147
231	0x3d7a4dac	0.06110923
232	0xbdeeaaf7	-0.11653703
233	0x3df064e1	0.11737991
234	0xbc57308c	-0.013134133
235	0x3da93280	0.08261585
236	0xbdc1f24c	-0.094700426
237	0x3d1cd964	0.038293257
238	0x3de2d9fa	0.11076732
239	0x3d9f12f2	0.077672854
240	0x3dc3bb8b	0.09557255
241	0x3dd7a0ba	0.10528703
242	0xbd27e6d5	-0.040991623
243	0xbdd8c95f	-0.105852835
244	0x3ca767c9	0.02043523
245	0xbde613d9	-0.112342544
246	0xbe0e5bbc	-0.13902181
247	0x3d80c751	0.062880166
248	0x3dc1c46b	0.09461292
249	0x3cfc4bd9	0.030797886
250	0xbdec9a16	-0.11552827
251	0x3c3f0141	0.011658014
252	0x3dcad756	0.09904353
253	0x3c834364	0.016023345
254	0xbdee07d1	-0.116225846
255	0xbd04f108	-0.032456428
