pretrained_gnns/german_dgi_gcn.pth (torch, 56464 bytes, 4 tensors)

conv1.bias f4 [256]
0	0x3ba32b50	0.0049795285
1	0x3d56bab8	0.052424163
2	0xbc4da32f	-0.012551113
3	0x3d801a74	0.062550455
4	0x3d698be9	0.057018194
5	0x3d4b1850	0.049583733
6	0x3d5968e5	0.05307855
7	0x3d6f2a51	0.058389965
8	0x3d1cb4f0	0.038258493
9	0x3cda0fec	0.02661892
10	0x3d82d220	0.063877344
11	0x3d81d5e3	0.06339624
12	0x3dab42f4	0.0836238
13	0xbbc258d6	-0.005931
14	0x3cb04816	0.021518748
15	0x3d119d80	0.035550594
16	0x3d2cef37	0.04222032
17	0x3d1aa276	0.03775259
18	0xbcaf82bd	-0.021424646
19	0x3d958b9d	0.0730202
20	0x3d8857c4	0.06657365
21	0x3c96b787	0.01839806
22	0x3d1e2a3e	0.038614504
23	0x3ced3625	0.028956482
24	0x3bc6359a	0.0060488703
25	0x3da11d42	0.078669086
26	0x3d086a89	0.033304725
27	0x3d5af32a	0.053454556
28	0x3d6c30e1	0.057663802
29	0x3c9dffe0	0.01928705
30	0x3bf6e0c2	0.0075341174
31	0x3d8546f4	0.06507674
32	0x3daa3df6	0.08312599
33	0x3cf48569	0.029848771
34	0x3cb6871b	0.02228122
35	0x3d4d45ae	0.05011528
36	0x3da66f4b	0.08126696
37	0x3cce560b	0.025187513
38	0x3d38540e	0.045002036
39	0x3c2bfa4e	0.010496689
40	0x3d8a1a2b	0.067432724
41	0x3d846bac	0.06465849
42	0x3d78c8c0	0.060738325
43	0x3d759a30	0.059961498
44	0x3d8fa701	0.07014275
45	0x3d7e9c86	0.06216099
46	0x3d7851d2	0.060624905
47	0x3d880e3e	0.066433415
48	0x3da199a3	0.07890632
49	0x3d5dca04	0.054147735
50	0x3d5c8eee	0.053847246
51	0x3d45e1bd	0.048310984
52	0x3d498b9e	0.049205415
53	0x3d5a074a	0.053229608
54	0x3d55142d	0.052021194
55	0x3db66078	0.08905119
56	0x3d50d103	0.05098058
57	0x3c7afd11	0.015319125
58	0x3b70cb86	0.0036742403
59	0x3cfb9b3d	0.030713672
60	0x3d4d6519	0.050145242
61	0x3da55613	0.08073058
62	0x3d532f71	0.051558916
63	0x3d7ee457	0.06222948
64	0x3d2f4471	0.04278988
65	0x3c950e7a	0.01819538
66	0x3d5d3199	0.054002378
67	0x3d58ed83	0.052960884
68	0xbb33a43f	-0.002741113
69	0x3d862295	0.06549565
70	0x3d128b57	0.035777416
71	0x3d0fc7bd	0.035102595
72	0xbd01fcb6	-0.031735145
73	0xbd44fcf5	-0.0480928
74	0x3ce1aa25	0.027546952
75	0xbb331146	-0.0027323528
76	0x3cda862b	0.026675304
77	0x3d20ad4c	0.03922777
78	0x3d3c5d47	0.045987394
79	0x3da2c849	0.079483576
80	0x3d8a8b68	0.06764871
81	0x3d9aa67b	0.07551285
82	0x3c80692a	0.015675146
83	0x3cf46c50	0.029836804
84	0x3d998400	0.0749588
85	0xbd16e3c6	-0.036838315
86	0x3cd86fb0	0.026420444
87	0x3d949993	0.072558545
88	0x3d7063a2	0.058688767
89	0x3d359f97	0.04434165
90	0x3db647c8	0.0890041
91	0x3d91f740	0.07127237
92	0x3d829c07	0.06377416
93	0xbd0677bf	-0.032829043
94	0x3d95e35f	0.07318758
95	0x3b03a90f	0.002008978
96	0x3c0537fe	0.008131025
97	0x3d77e8aa	0.06052462
98	0x3d18712c	0.037217304
99	0x3d88966f	0.06669318
100	0x3c62fc11	0.013854043
101	0x3d27b181	0.040940765
102	0x3d838823	0.064224504
103	0x3d832e9a	0.06405373
104	0x3d838a97	0.06422918
105	0x3daaebbd	0.08345745
106	0x3c12b5f5	0.008954515
107	0x3d09ae3d	0.033613432
108	0x3cb1ab40	0.021688104
109	0x3d5388ad	0.051644016
110	0x3d2f87b0	0.04285401
111	0x3d4ded3e	0.05027508
112	0xbca894bd	-0.020578736
113	0x3d87a48a	0.0662318
114	0xbbe11a0d	-0.0068695606
115	0x3d924aad	0.071431495
116	0x3b87f82d	0.004149458
117	0x3d9e9b01	0.077444084
118	0x3d2d2019	0.04226694
119	0xbca5b86f	-0.020229546
120	0x3d5c5e52	0.05380089
121	0x3d84dda9	0.06487591
122	0x3d0ce330	0.03439635
123	0x3d0d19c5	0.034448404
124	0x3d0dd35b	0.034625392
125	0x3bde3677	0.006781395
126	0x3b99a378	0.0046886764
127	0x3d5aa807	0.0533829
128	0x3d8cee3c	0.06881377
129	0x3d29f485	0.041492958
130	0x3d813eec	0.063108295
131	0x3cd0d824	0.025493689
132	0x3d2017f4	0.039085343
133	0x3d979e56	0.07403247
134	0xbca9fab1	-0.020749422
135	0x3d4d9042	0.050186403
136	0xbba48025	-0.005020159
137	0x3d1d96ce	0.038473897
138	0x3d4b11d1	0.049577538
139	0xbb79ba20	-0.0038105324
140	0x3d5ed39d	0.05440103
141	0x3d28968c	0.041159198
142	0x3c21a020	0.009864837
143	0x3cbb9e6b	0.022902688
144	0x3d6980f1	0.057007734
145	0x3db72e02	0.08944322
146	0x3d8d0611	0.06885923
147	0x3cbbd9f1	0.022931071
148	0x3d64c2b3	0.055849742
149	0x3d4d29c7	0.05008867
150	0x3c9d4226	0.019196581
151	0x3d9ba0ca	0.075990275
152	0x3d5e1a00	0.054224014
153	0x3d75e9fa	0.06003759
154	0x3d3c1019	0.04591379
155	0x3d77161c	0.06032382
156	0x3d55bb54	0.052180603
157	0x3d354a5e	0.044260375
158	0x3c8698b4	0.016430236
159	0x3c077f42	0.008270087
160	0x3d2207bf	0.03955817
161	0x3d8b7a0d	0.06810389
162	0x3d229258	0.039690346
163	0x3da85271	0.082188495
164	0x3dab72b2	0.08371486
165	0x3d94538c	0.07242498
166	0x3d55da6f	0.052210268
167	0x3d9881c7	0.07446628
168	0x3d85aaa3	0.06526687
169	0x3d24b2fb	0.04020975
170	0x3d3ae41d	0.045627702
171	0xbc046f89	-0.008083233
172	0x3c8938b6	0.016750675
173	0x3d93e8f4	0.07222167
174	0x3d4fdf8f	0.05075031
175	0x3d86a466	0.06574325
176	0x3d08dc81	0.033413414
177	0xbd7fe8f4	-0.06247802
178	0x3d05e57f	0.032689568
179	0x3d9e11fa	0.077182725
180	0xbd0c0b87	-0.03419068
181	0x3d81a757	0.06330746
182	0x3d89d80a	0.06730659
183	0x3a3764f1	0.00069959374
184	0x3d7548af	0.05988377
185	0x3c87ad88	0.016562238
186	0xbc5a6208	-0.0133290365
187	0x3d633383	0.055469047
188	0x3c5b2bed	0.013377172
189	0x3da1bd3e	0.07897423
190	0x3c9acaf9	0.018895613
191	0x3c760b9e	0.015017418
192	0x3d2274ce	0.039662175
193	0x3d95723d	0.0729718
194	0x3ca6fc67	0.020384027
195	0xbbb8cbfc	-0.005639551
196	0x3d044569	0.032292757
197	0xbca28033	-0.01983652
198	0x3da62743	0.08112957
199	0x3c435b02	0.011923553
200	0x3bfe1e00	0.007755041
201	0x3d4f7273	0.050646257
202	0x3d30ba70	0.04314655
203	0x3d3f9b31	0.04677886
204	0x3cec5ce6	0.028852891
205	0x3d7e5d70	0.062100828
206	0x3d44ccca	0.048046865
207	0x3da1ecfe	0.07906531
208	0x3d00bcdc	0.03143011
209	0x3d5013b7	0.05080005
210	0x3d9e5d01	0.07732583
211	0x3d6f7d46	0.05846908
212	0x3d5db3f4	0.054126695
213	0x3d2eacc8	0.042645246
214	0x3d77184c	0.060325906
215	0x3d195fad	0.03744476
216	0x3d2d92e4	0.042376414
217	0x3d340c0c	0.0439568
218	0x3da512c2	0.080602184
219	0x3cbb0305	0.022828588
220	0x3d69e346	0.05710151
221	0xbd13404f	-0.03595
222	0x3d8c73ed	0.068580486
223	0x3d82f13e	0.063936695
224	0x3d87b243	0.066257976
225	0xbbdd613c	-0.006755976
226	0xbc09cdae	-0.008410854
227	0x3d157a74	0.036493734
228	0x3cefdd39	0.029280292
229	0x3c3de6f1	0.011590705
230	0x3d867376	0.06564991
231	0x3d82988b	0.063767515
232	0x3d2b8023	0.041870248
233	0x3d99dd30	0.07512891
234	0x3da1d90d	0.07902727
235	0x3d65bed0	0.056090176
236	0x3d31bea3	0.043394696
237	0x3d348221	0.044069413
238	0x3d6c138f	0.05763584
239	0x3d5109a9	0.051034603
240	0x3d9b6f9e	0.07589649
241	0x3d72abe0	0.059245944
242	0xbb14107e	-0.0022592838
243	0x3d984645	0.07435278
244	0x3d71c860	0.059028983
245	0x3d43b044	0.047775522
246	0x3d00acb8	0.031414717
247	0x3d815b14	0.063162
248	0x3c2aba56	0.0104204025
249	0x3d9ad3ab	0.07559904
250	0x3d62e488	0.055393726
251	0x3d47dbcc	0.0487936
252	0x3d3ac95e	0.045602195
253	0x3d006ef8	0.031355828
254	0xba01209c	-0.00049258186
255	0x3d30129a	0.04298649

conv1.lin.weight f4 [256, 20]
0	0xbdb8ca6a	-0.090229824
1	0x3da1fbbd	0.079093434
2	0xbd9fbb24	-0.07799366
3	0x3d5eff6a	0.0544428
4	0x3b513610	0.0031923093
5	0x3dbe24cc	0.09284362
6	0x3da12561	0.078684576
7	0xbd063af8	-0.03277108
8	0xbdec0bc4	-0.115256816
9	0x3d01c101	0.031678203
10	0xbe0770f6	-0.13226685
11	0x3daa5600	0.083171844
12	0xbde1ff96	-0.11035077
13	0x3d97cf7f	0.074126236
14	0x3e144e3a	0.14482966
15	0xbd45d5d9	-0.048299644
16	0x3e37f268	0.17963564
17	0xbe340ef0	-0.17583823
18	0xbd93fba9	-0.07225735
19	0xbd515572	-0.051106878
20	0xbd8dc5b8	-0.069224775
21	0xbbcd73ce	-0.0062699085
22	0x3e01d890	0.12680268
23	0xbdb25369	-0.087073155
24	0xbcbfd05c	-0.023414783
25	0x3e4c17bb	0.19930927
26	0xbe3b4f3e	-0.18291947
27	0x3cf1b052	0.029503021
28	0xbe1ce787	-0.15322696
29	0xbe07d0ec	-0.13263291
30	0xbd2f5834	-0.042808726
31	0x3e0f85ed	0.14015932
32	0x3dbe0b23	0.09279468
33	0x3e0afe2c	0.13573521
34	0x3da100c9	0.07861478
35	0x3dafa2fb	0.08576008
36	0xbe1dd01c	-0.15411419
37	0xbb844250	-0.0040362254
38	0xbd8faf69	-0.07015879
39	0x3c78e9bd	0.015192446
40	0xbcd7f89f	-0.026363669
41	0xbac0a2bd	-0.0014696937
42	0x3d6126f6	0.054968797
43	0xbd8b7b57	-0.068106346
44	0x3d0c4890	0.03424889
45	0x3b0baef7	0.0021314004
46	0xbbbea7b6	-0.0058183325
47	0x3d471aa6	0.0486094
48	0xbdf699bb	-0.120410405
49	0xbde3109b	-0.110871516
50	0xbd83d35d	-0.06436799
51	0xbd818f38	-0.06326145
52	0xbc11b6fa	-0.008893723
53	0x3e06a262	0.13147882
54	0xbe488fd8	-0.19586122
55	0xbe297da2	-0.16551831
56	0xbe0acd4a	-0.13554874
57	0x3d16c1f4	0.036806062
58	0xbd96d84d	-0.07365475
59	0x3c0c3c2f	0.008559271
60	0xbd61dada	-0.055140354
61	0xbd63654a	-0.05551652
62	0x3e55b56f	0.20869993
63	0xbd971112	-0.07376303
64	0x3d5ef371	0.054431383
65	0xbd4ff8e8	-0.050774485
66	0x3d9f0363	0.07764318
67	0x3d7e02ce	0.062014394
68	0x3dc8b9a1	0.09801031
69	0x3e46e8d8	0.1942476
70	0x3e18a5bd	0.14906974
71	0xbd987e13	-0.07445922
72	0x3db1a68c	0.086743444
73	0xbe07fdbc	-0.13280386
74	0xbdc6b7e7	-0.09703045
75	0x3dc9b8eb	0.098497234
76	0xbca323b8	-0.019914493
77	0xbe09839c	-0.13429111
78	0x3d1e69ef	0.038675245
79	0x3e19c21f	0.15015458
80	0x3cb9d30f	0.022683648
81	0xbdd0831b	-0.101812564
82	0xbd843fec	-0.06457505
83	0xbc1243e6	-0.008927321
84	0x3db6f5b8	0.08933586
85	0x3d1cb6a9	0.038260136
86	0xbd2e8355	-0.042605717
87	0x3df07b9d	0.11742327
88	0xbd4aac34	-0.049480632
89	0xbd72402c	-0.05914323
90	0xbb2e582b	-0.0026602845
91	0x3d9a5daf	0.075374
92	0xbe288be4	-0.16459614
93	0x3df175e7	0.11790066
94	0xbdec7d97	-0.11547392
95	0xbd82a013	-0.06378188
96	0xbcfceca5	-0.03087456
97	0x3e131390	0.14362931
98	0x3cd21d41	0.025648715
99	0x3e191b9e	0.14951941
100	0xbdb27c16	-0.08715074
101	0xbd9da422	-0.076973215
102	0xbe0e38a1	-0.1388879
103	0xbe0404cd	-0.12892456
104	0xbcac305f	-0.021019159
105	0x3e1f41a5	0.15552385
106	0xbde3d46e	-0.11124502
107	0xbdb331d4	-0.08749738
108	0x3e17c0e9	0.14819683
109	0x3da50e56	0.08059375
110	0xbe131cea	-0.14366499
111	0x3e0c9ef3	0.1373251
112	0x3d62c98e	0.055368
113	0x3db3d816	0.087814495
114	0xbd63ca40	-0.055612803
115	0xbc115b02	-0.008871796
116	0x3dad10e6	0.08450489
117	0xbde0b31c	-0.109716624
118	0xbe1c04e5	-0.15236242
119	0xbe098c15	-0.13432343
120	0x3d5e10cc	0.054215237
121	0xbd8eada4	-0.06966713
122	0x3e17ecff	0.148365
123	0xbe470c50	-0.1943829
124	0x3d00a8a1	0.031410817
125	0x3d1bf5c1	0.038076166
126	0x3d6e8ed9	0.0582417
127	0x3e14f1ad	0.14545317
128	0x3d5c5d17	0.053799715
129	0xbe2ee137	-0.170781
130	0x3dc1b483	0.09458258
131	0xbd0cb0f3	-0.03434844
132	0xbdb6d08d	-0.08926497
133	0x3e0517f3	0.12997417
134	0xbda07888	-0.078354895
135	0xbca7239c	-0.020402722
136	0x3cceb5f3	0.025233245
137	0x3d959bc8	0.073051035
138	0xbddccfed	-0.10781846
139	0x3d9f730e	0.07785617
140	0x3dc213f8	0.09476465
141	0x3e50b212	0.20380428
142	0xbcc09b9f	-0.023511706
143	0x3d4baec0	0.0497272
144	0x3d518203	0.05114938
145	0xbda446d4	-0.08021322
146	0xbe243efc	-0.16039652
147	0xbd38b978	-0.04509875
148	0xbdc1ca93	-0.09462466
149	0x3b5ef389	0.003401967
150	0xbe0b2fa2	-0.13592389
151	0x3e0cbbf9	0.13743581
152	0xbe2fd9cb	-0.17172925
153	0x3cc2d9ab	0.023785433
154	0x3e1bdc98	0.15220869
155	0xbe569293	-0.20954351
156	0x3d5865df	0.052831527
157	0xbe43cdd1	-0.19121481
158	0xbdda64af	-0.10663735
159	0xbe17ed77	-0.1483668
160	0xbe1a5978	-0.15073192
161	0xbe1fa6d7	-0.15590988
162	0xbc8b7d21	-0.01702744
163	0x3cc7b32c	0.024377428
164	0x3dc8d393	0.098059796
165	0xbe1a3256	-0.15058264
166	0xbd4c581c	-0.049888715
167	0x3b2c6cbf	0.0026309935
168	0xbde03eee	-0.10949503
169	0xbe06df7f	-0.13171194
170	0x3c625a97	0.013815544
171	0xbc9c7776	-0.019099932
172	0xbdbaa553	-0.09113564
173	0xbd873f04	-0.06603816
174	0xbd6e8a42	-0.05823732
175	0xbe47e58b	-0.19521157
176	0xbcffcfdb	-0.031227043
177	0x3e32c7f9	0.17459096
178	0x3df72163	0.12066915
179	0x3e29038b	0.16505258
180	0xbd4ba94c	-0.049722
181	0x3c68a38d	0.01419915
182	0xbded8a4c	-0.11598644
183	0x3d018931	0.031624977
184	0x3d6c6e0a	0.05772213
185	0x3c892f57	0.016746206
186	0xbe21d5ad	-0.15804167
187	0x3cabad61	0.020956697
188	0xbe3ab324	-0.18232399
189	0xbdf48f29	-0.11941368
190	0x3e09d122	0.13458684
191	0x3d9ba0a8	0.07599002
192	0x3a86b96c	0.0010278649
193	0x3ddad453	0.10685029
194	0xbd914632	-0.07093467
195	0x3cd15d6f	0.025557248
196	0xbe08c82e	-0.13357612
197	0x3db61b96	0.0889198
198	0x3dbf4c5c	0.09340736
199	0xbcf8c1bc	-0.030365817
200	0xbba0896a	-0.0048991935
201	0x3bf75484	0.007547917
202	0x3e1b2bc5	0.15153416
203	0x3cbcb735	0.023036579
204	0xbb5244f4	-0.0032084556
205	0x3e1661f0	0.14685798
206	0xbe456e57	-0.19280373
207	0xbb82994b	-0.003985559
208	0x3d892d0b	0.066980444
209	0x3df37432	0.11887397
210	0x3daad083	0.08340552
211	0xbe015b79	-0.1263255
212	0x3db82d2d	0.089929916
213	0x3d5632be	0.052294485
214	0xbdecabbe	-0.11556195
215	0xbbee0fd3	-0.00726507
216	0xbd9af65d	-0.07566521
217	0xbd14b2fb	-0.0363035
218	0xbde75b9d	-0.11296771
219	0xbd96e88d	-0.07368574
220	0x3cb5de80	0.022200823
221	0x3e284d53	0.16435747
222	0x3cb7b07a	0.022423018
223	0xbdde811c	-0.108644694
224	0x3d7f25f5	0.062292058
225	0xbdf89153	-0.121370934
226	0xbd34f4bd	-0.044178713
227	0x3e442624	0.19155174
228	0xbdc0837d	-0.094000794
229	0xbd820564	-0.063486844
230	0xbdaa3096	-0.08310048
231	0xbd66eb71	-0.05637688
232	0x3d21d1cc	0.03950672
233	0x3e306454	0.17225772
234	0xbe466ace	-0.1937668
235	0xbdc52f57	-0.0962817
236	0xbe25e07b	-0.16198914
237	0x3e13ccec	0.1443364
238	0xbe132c0d	-0.14372273
239	0xba82d50f	-0.0009981709
240	0xbdfdde83	-0.12395956
241	0x3df51d8d	0.11968527
242	0x3e215aa6	0.15757236
243	0x3de49cc7	0.111627154
244	0x3d9b6cef	0.07589137
245	0x3deadfe4	0.11468485
246	0xbc936a07	-0.017994894
247	0x3e01e3f6	0.12684616
248	0xbe43f170	-0.1913507
249	0x3dd35205	0.10318378
250	0x3e1c4853	0.15261964
251	0x3d9bd6cb	0.07609328
252	0x3c5939d0	0.0132584125
253	0xbd84e276	-0.064885065
254	0xbb629a04	-0.0034576664
255	0xbdbbfbda	-0.09178896

conv2.bias f4 [32]
0	0x3be969ea	0.0071232216
1	0x3d23e296	0.04001101
2	0xbd0e9080	-0.034805775
3	0x3d80de87	0.06292444
4	0xbc0186ce	-0.007905675
5	0xbd6c5d5e	-0.05770623
6	0x3be591de	0.007005914
7	0xbd80d9b7	-0.06291526
8	0xbd3a1de0	-0.045438647
9	0x3d89a716	0.06721322
10	0xbd4153a5	-0.04719891
11	0xbd87536b	-0.066077076
12	0xbcd6b3c9	-0.026208775
13	0xbd20883f	-0.039192434
14	0xbcb967bc	-0.022632472
15	0xbd22e482	-0.039768703
16	0x3d14dfcf	0.036346253
17	0xbd278635	-0.040899474
18	0xbc39bf82	-0.011337163
19	0xbcc15071	-0.023597928
20	0x3b8c26c1	0.0042770808
21	0xbd7f29f3	-0.062295865
22	0xbd3e64c1	-0.046482805
23	0xbd774c4e	-0.060375504
24	0xbd142bc1	-0.03617454
25	0xbd5c49be	-0.053781264
26	0x378e1e6d	1.6941887e-05
27	0x3d4e78aa	0.050408043
28	0xbcd0ae6e	-0.0254738
29	0x3d4c40ec	0.0498666
30	0xbd89ec3f	-0.067345135
31	0xbd43149f	-0.047627088

conv2.lin.weight f4 [32, 256]
0	0x3d908903	0.07057383
1	0x3d06e59a	0.03293381
2	0x3dcb0f49	0.09915025
3	0xbd6e0e00	-0.05811882
4	0x3dcd32f2	0.10019483
5	0xbd2aab2a	-0.04166714
6	0xbe10bd22	-0.14134648
7	0xbca24464	-0.019808002
8	0xbda47a7c	-0.080311745
9	0x3ce2cc22	0.027685229
10	0xbd950a1a	-0.07277317
11	0xbd62554d	-0.05525713
12	0x3e18b1a7	0.14911519
13	0xbd542d74	-0.05180116
14	0xbdea0f0c	-0.11428651
15	0x3d99f73c	0.07517859
16	0x3e0c975a	0.13729611
17	0xbe0c5858	-0.13705575
18	0x3a1f4684	0.00060758763
19	0x3da8718d	0.08224783
20	0xbcd5f086	-0.026115667
21	0x3dd91e2e	0.106014594
22	0x3d229b46	0.03969886
23	0x3d75b828	0.05999008
24	0x3d07c77f	0.03314924
25	0xbc624ede	-0.013812749
26	0x3de76bec	0.11299881
27	0x3e169bf8	0.14707935
28	0xbdd97e25	-0.10619763
29	0xbd7b2c26	-0.0613214
30	0x3dac2a40	0.08406496
31	0x3e024a78	0.1272372
32	0xbde76300	-0.112981796
33	0xbdc7879d	-0.09742663
34	0x3d3f1b69	0.046657
35	0xbd602d3b	-0.054730635
36	0x3de11990	0.10991204
37	0xbd9ec599	-0.077525325
38	0xbe05112a	-0.12994829
39	0xbe072f57	-0.13201652
40	0xbdc7670a	-0.0973645
41	0xbd95cb26	-0.07314138
42	0x3dfe8da8	0.124293625
43	0x3ddc8bd1	0.10768855
44	0x3dc371cf	0.09543192
45	0xbd9e313b	-0.07724234
46	0xbd4e7fe6	-0.050414942
47	0xbdd5af49	-0.104338236
48	0x3de09c82	0.109673515
49	0x3cea2619	0.02858262
50	0x3d02d114	0.031937674
51	0x3da1d85c	0.079025954
52	0x3d660491	0.0561567
53	0xbe0815b3	-0.13289528
54	0xbda5f2e3	-0.081029676
55	0x3d8fd023	0.07022121
56	0xbdab0686	-0.083508536
57	0xbe047852	-0.12936524
58	0xbe012969	-0.12613453
59	0xbd36c6fe	-0.044623367
60	0x3de371ec	0.11105713
61	0xbd8490ae	-0.06472908
62	0xbe02d9ba	-0.12778369
63	0x3db36d09	0.08761031
64	0x3c59b49d	0.0132876905
65	0xbdff6e68	-0.1247223
66	0x3d99be0d	0.075069524
67	0x3d8aad6c	0.06771359
68	0x3df8c4ef	0.12146937
69	0x3df24651	0.11829818
70	0x3da3ee4e	0.080044374
71	0xbcdbae2b	-0.026816448
72	0xbd3fcf53	-0.04682858
73	0xbdf4a099	-0.11944694
74	0xbdb4c079	-0.08825774
75	0xbccd4b7d	-0.02506041
76	0x3b8c75a6	0.0042864857
77	0x3cc8616e	0.02446052
78	0xbde33c38	-0.1109547
79	0xbdbfa2ce	-0.093572244
80	0x3e04d6aa	0.12972513
81	0x3e256911	0.16153361
82	0x3db69af4	0.08916274
83	0x3e0428db	0.1290621
84	0xbe196534	-0.14980012
85	0x3c8ebf98	0.017425343
86	0x3e0ab49a	0.13545457
87	0x3d6c48be	0.05768656
88	0x3dfcd6fe	0.12345694
89	0x3e16693d	0.14688583
90	0xbcc9d3a9	-0.02463706
91	0x3dc1aa92	0.09456362
92	0x3cda4395	0.026643554
93	0x3e0ca825	0.13736017
94	0x3dbd8504	0.09253886
95	0x3dcddfab	0.10052427
96	0xbdb1b7c5	-0.086776294
97	0x3ccc343a	0.024927247
98	0xba9bc723	-0.0011884909
99	0xbad022c2	-0.0015879499
100	0xbdb45211	-0.088047154
101	0xbd558338	-0.052127093
102	0x3d4fb410	0.05070883
103	0xbd54d71a	-0.05196295
104	0xbd492099	-0.049103353
105	0xbd74ae06	-0.059736274
106	0x3dae3429	0.085060425
107	0xbd51897a	-0.0511565
108	0x3cb4baf0	0.022061795
109	0xbda0fa2f	-0.07860219
110	0xbca679ad	-0.020321691
111	0x3d97a047	0.07403617
112	0xbdcdd33b	-0.10050055
113	0x3d63324b	0.055467885
114	0xbd7c12d6	-0.0615414
115	0xbd64217a	-0.05569599
116	0x3dccc4c2	0.09998466
117	0xbafbc0f3	-0.0019207284
118	0x3dd40583	0.10352614
119	0xbd8c2b34	-0.06844178
120	0xbda2f839	-0.07957501
121	0xbd8abef0	-0.067747
122	0xbd915dd9	-0.07097978
123	0xbd856f6f	-0.06515395
124	0xbddc37af	-0.10752808
125	0xbe04e9f0	-0.12979865
126	0xbe03ed42	-0.12883475
127	0xbc9f1bad	-0.019422377
128	0x3d269ba5	0.040675778
129	0x3bf5060c	0.0074775275
130	0x3cf946d8	0.030429289
131	0xbc6782f0	-0.014130339
132	0xbd01a39a	-0.031650163
133	0x3d3990b1	0.045304004
134	0x3d22356f	0.03960174
135	0xbe0a182f	-0.13485788
136	0x3cf34eec	0.029700719
137	0x3daacdd4	0.0834004
138	0x3c1d898e	0.009615315
139	0x3da0e5bc	0.07856318
140	0x3d87fc5b	0.0663993
141	0xbc533383	-0.012890699
142	0xbcd45775	-0.025920609
143	0x3e0884ce	0.13331911
144	0x3cc5a9db	0.024128845
145	0xbd24747f	-0.04015016
146	0xbde6638f	-0.11249458
147	0xbdc3f8c3	-0.09568932
148	0xbd0261b2	-0.03183145
149	0xbc26522a	-0.010151425
150	0x3da76122	0.081728235
151	0xbd5d616c	-0.054047987
152	0xbce4cf68	-0.02793093
153	0xbde8e3f0	-0.11371601
154	0xbda985c9	-0.082774706
155	0xbd990ea0	-0.074734926
156	0x3d13c360	0.036074996
157	0x3dfddc02	0.12395479
158	0x3d834bb2	0.06410922
159	0xbd58e70e	-0.052954726
160	0xbd9e78dd	-0.077378966
161	0xbcc7fc36	-0.024412256
162	0x3e0ab53f	0.13545702
163	0x3dfa9fd6	0.122375175
164	0x3cf06402	0.029344562
165	0x3decbd99	0.115596004
166	0x3d65960b	0.056051295
167	0x3e1e7f66	0.15478286
168	0xbd93e1ce	-0.07220803
169	0xbde97323	-0.11398914
170	0xbdf06195	-0.11737362
171	0x3dcbbcb0	0.09948099
172	0xbdeff866	-0.117173
173	0x3c55fc16	0.01306059
174	0x3da950e7	0.08267384
175	0x3da5bd5a	0.080927566
176	0xbd186260	-0.037203193
177	0xbcb23bb4	-0.021756984
178	0xbb2054ab	-0.0024464529
179	0xbd485b47	-0.048915174
180	0xbd160bc9	-0.036632333
181	0x3da33ba6	0.079703614
182	0x3e0525cc	0.130027
183	0x3e058569	0.13039173
184	0x3da8b202	0.08237077
185	0x3dbea39a	0.09308548
186	0x3d6780b0	0.05651921
187	0xbd5862e4	-0.052828684
188	0xbe02cdde	-0.12773845
189	0xbdd426a0	-0.1035893
190	0x3d1ebdc7	0.038755205
191	0x3dd4e225	0.10394696
192	0xbd988231	-0.07446707
193	0xbd2f511b	-0.042801958
194	0x3deab3b5	0.11460058
195	0x3ddc8c7f	0.10768985
196	0xbda9b96a	-0.08287318
197	0x3e081a5e	0.13291308
198	0xbdb99cd7	-0.09063118
199	0xbcf82ce7	-0.030294849
200	0x3d24231a	0.040072538
201	0x3dffe061	0.12493969
202	0x3d80d79f	0.062911265
203	0x3d2747b8	0.04083988
204	0xbd909072	-0.07058801
205	0xbd0eae3c	-0.03483413
206	0xbd072062	-0.032989867
207	0xbd813a90	-0.06309998
208	0x3e029c1c	0.12754864
209	0x3dbfed1f	0.09371399
210	0x3d0e7dcc	0.034787938
211	0xbdbe2707	-0.092847876
212	0x3e22ca1a	0.15897408
213	0x3e04f9c7	0.12985907
214	0x3dfb0551	0.122568734
215	0x3d6b2050	0.057403862
216	0xbd3fedde	-0.046857707
217	0x3de8d6ba	0.11369081
218	0xbbcb6d15	-0.006208072
219	0x3df992e5	0.12186221
220	0x3db2dc46	0.0873342
221	0x3e1b650a	0.15175262
222	0xbd119e95	-0.035551626
223	0xbd3e89a4	-0.046517983
224	0xbd669ab4	-0.05629988
225	0xbcbf6314	-0.023362674
226	0xbda730ac	-0.0816358
227	0x3ddf66b7	0.10908263
228	0x3cfbe2a0	0.030747712
229	0x3b1966e0	0.0023407266
230	0xbb17a9e5	-0.0023142037
231	0xbd5e61a2	-0.05429233
232	0xbd5197f9	-0.051170323
233	0xbbdf0d46	-0.0068070022
234	0xbd8a2044	-0.067444354
235	0x3db1d2a2	0.08682753
236	0xbd5f4107	-0.054505374
237	0x3d4db35b	0.050219875
238	0x3ba925c5	0.005161973
239	0x3d1744f7	0.036931004
240	0x3d15269e	0.03641378
241	0xbdfe300b	-0.12411507
242	0xbe045b06	-0.12925348
243	0xbda49da5	-0.08037881
244	0xbda0ca43	-0.07851078
245	0xbde6b309	-0.11264617
246	0xbdbf0898	-0.09327811
247	0xbcbcaab8	-0.023030624
248	0x3baa1180	0.0051900744
249	0xbde335a4	-0.110942155
250	0xbc29e36e	-0.010369165
251	0xbc997f35	-0.018737415
252	0xbd8ce2c2	-0.06879188
253	0xbdab3c0e	-0.08361064
254	0x3d34dc45	0.044155378
255	0xbd3897da	-0.045066692
