pretrained_gnns/german_graphcl_gcn.pth (torch, 56984 bytes, 4 tensors)

conv1.bias f4 [256]
00000000: 5914 60bc 84e9 423a be99 4d3a c72d 86bb
00000010: 1da3 ac3b 94ea b13b 2291 4ebc e9b5 6b3c
00000020: daf5 653c 1a85 743b eea4 23bb b4ee 32bc
00000030: 0a00 b33a 6bfa 783c 7475 783b 39e2 97bc
00000040: 423f 883b 3a77 213c 07a7 27bb 5eef b7ba
00000050: c6c2 903c b346 e53a 214d 033c 9410 44bc
00000060: 05f7 3b3b a2de 6d3b ad7d 9aba 3d38 903b
00000070: 6fb6 52bc 9423 27bc 8e57 eb3b 19bb d4ba
00000080: e2c0 1b3c 6d3d 863b 1924 ff3b aed6 823b
00000090: b7a5 b1bb e83b 23bc 5e9d 583c 7f82 873b
000000a0: 8c54 1b3c 0019 8f3c 4d9a 21bc 1b93 6e3c
000000b0: 6a78 313b d120 053c d3c3 863c d865 abba
000000c0: b3fa 36bc 611f 623b e8c8 4d3b 3cd4 903b
000000d0: 4df2 613c a226 94ba 4167 f63b d5dc c63b
000000e0: 5258 d3bc 4810 38b8 5523 6a3b 0ce4 173c
000000f0: bfdf 52bc 5470 01bc 1406 b2bb 8f4f c4bb
00000100: 24ce 71bc ed33 1d3c 266f 023c 9f68 813c
00000110: b498 03bc 4e18 003d c228 6b3c 47b7 a03c
00000120: 169a a03c 31fd a13c 45d1 a9bb 3472 113c
00000130: e8a6 2b3b 276d 053c b0c7 0bbb 2d48 293b
00000140: 72a3 8cba 8358 493c 4a77 b7bb 99e6 863a
00000150: 3c4b 803c a4ec 87bb 358a 83bb 87a2 18bc
00000160: 7324 02bc 0acb e2bb 742e 8cbb 4225 9dbc
00000170: b397 9439 3fd9 653c 5b8c bc3b 71ff 9bbb
00000180: b7ad 59bb e889 61ba dea0 213b 7da9 0c3c
00000190: b7d1 9a3c d65a 07bc 0e28 a33a b203 4a3c
000001a0: 5522 9fba 4411 b43b 21ed 133c e8f8 c93b
000001b0: 6ef7 6c3c 6351 ff3b 24ac 9f3b 95ba 3abb
000001c0: f64b 8c3b 8f8e a53b 7d04 4e3c e458 683b
000001d0: 9cb8 1f3c 5b97 343b 2aae a73c 935a ae3c
000001e0: aa2d f83b 9a8d a7bb 5c40 fb3b 16b2 593a
000001f0: 14f9 af3c 485d 2e3a a1b7 1e3c c9f1 c2ba
00000200: ae00 a1bc a6dc 163c 59c7 8e3b 61ef 00bc
00000210: bae1 883b e101 b1b9 86cf 853c f257 d2bb
00000220: 88f7 5a3b 340d f63b a94e 2b3c 2845 383a
00000230: 2517 8b3b 3842 793b 0b9c 9bbb 4407 2cbc
00000240: 62c9 dcbb b9d3 603b 3435 4d3c 9f67 903b
00000250: 328a 363c 845c 89b9 5985 edbb 77fd 58bb
00000260: f452 3ebb 35a6 a5ba 064e 023c 3c8a 353c
00000270: fd78 ac3c 295c 173c 22da 613c 951d abbc
00000280: 04e6 f93b 2ca3 f83a bbcb 153c ef16 eb3b
00000290: 2967 aa3b dfac e239 840a 833c 5171 483c
000002a0: 5eb6 d6bb d45e 633a 3442 733c 8ec4 3d3c
000002b0: a517 d63b 0b82 de39 7975 583c 2088 14bc
000002c0: ade0 1bbc 656f 093c d973 8e3c 668e 3ebb
000002d0: 0348 e83a a268 543c 03b6 363c baa6 64ba
000002e0: 6b1a 54ba 2aa2 a3ba da16 883b c001 033c
000002f0: ee59 3b3c 2092 6a3c 55cd 583b b28a 813c
00000300: 6ee8 6ebb 2101 623c 38db aabb bc50 48bc
00000310: 514d 083c 8f2f 12bc 6579 b03b 514b 553a
00000320: b38b 343c ce20 813b 67ed 463a 6167 8b3a
00000330: 1475 0ebc 3923 203b 52c4 e0bb d35b 103c
00000340: 0692 153b 9351 4ebc f7c2 5a3c a019 513c
00000350: cfd0 42bb f3d1 82bb 288f 123c 1de5 8c3b
00000360: 4e71 4c3b 6399 e43b 9853 09bc f85c fe3b
00000370: 7b3c 133c 6fa4 513c 5d7f 3c3c acf2 a53b
00000380: 3f73 4a3c 2c26 c63b 9b23 503c e185 cd3b
00000390: 47f7 fdb9 32b0 a03a c6fc 92bb 9563 133b
000003a0: 3382 06ba 2d25 09bc 8bd6 0a3c c2e4 0c3c
000003b0: 6461 4f3a ce1a 05bb 3361 1ebb d269 033c
000003c0: 0966 0e3a c4a0 023b 5052 dabb 5dc0 23bb
000003d0: 5d60 f9bb c0cb 593c e515 f8bb 41f6 1a3c
000003e0: e822 07ba af3e f03a 130a f63a aa52 af3b
000003f0: 6394 ae3c 10ae 493b 0649 663c 685f 323c
-0.013676726 0.0007435309 0.0007843039 -0.0040948126 0.005268468 0.005429575 -0.012607845 0.0143866325
0.014035666 0.003731078 -0.0024970132 -0.010921169 0.0013656628 0.015196423 0.0037911804 -0.018540489
0.0041579315 0.009855086 -0.0025581734 -0.0014033129 0.017671 0.0017492383 0.008013994 -0.011966843
0.002868117 0.003629603 -0.0011786722 0.0044012354 -0.012860878 -0.010201354 0.007182068 -0.0016230076
0.009506436 0.004096678 0.0077862856 0.003992877 -0.005421366 -0.009963013 0.013221113 0.0041354294
0.009480607 0.017467976 -0.009863448 0.01456144 0.002707983 0.0081255 0.016450798 -0.0013076616
-0.01116817 0.0034503567 0.0031400267 0.0044198316 0.013790679 -0.0011303017 0.007519633 0.0060688057
-0.02579895 -4.388418e-05 0.0035726626 0.009270679 -0.012870728 -0.007900316 -0.0054328535 -0.0059909294
-0.01475862 0.0095949 0.00796107 0.015796958 -0.008032013 0.03127318 0.014352979 0.019618643
0.019604724 0.019774051 -0.0051824176 0.008877326 0.0026192013 0.0081437 -0.002132874 0.0025830374
-0.0010729863 0.012289169 -0.005598937 0.0010292112 0.015660875 -0.004148083 -0.0040142783 -0.009316093
-0.0079432605 -0.006921177 -0.0042779986 -0.019182805 0.00028341784 0.014028846 0.0057540364 -0.0047606756
-0.0033215114 -0.00086036185 0.0024662535 0.008585331 0.018898828 -0.008261403 0.001244785 0.012329983
-0.0012140969 0.0054952223 0.009028704 0.006163705 0.014463289 0.0077916845 0.0048728157 -0.002849256
0.004281516 0.0050523947 0.012574312 0.0035453374 0.009748604 0.0027556035 0.02046879 0.021283424
0.007573803 -0.005113316 0.0076675843 0.000830443 0.021481074 0.0006651473 0.009687335 -0.0014873083
-0.019653644 0.00920788 0.00435726 -0.007869572 0.0041772993 -0.0003376147 0.016334306 -0.0064191753
0.00334117 0.007508898 0.010455766 0.0007029348 0.0042447024 0.0038033854 -0.0047488264 -0.010499779
-0.006737874 0.0034305884 0.012524892 0.004406884 0.011141347 -0.00026199606 -0.0072485623 -0.0033110061
-0.0029041143 -0.0012638035 0.007953173 0.011080321 0.021053785 0.009238281 0.013784917 -0.02088813
0.007626297 0.0018969527 0.009142811 0.0071743648 0.005200286 0.00043234878 0.015996225 0.012234048
-0.0065525016 0.0008673493 0.014847327 0.011582507 0.0065335804 0.0004244003 0.013211601 -0.009065658
-0.009514016 0.008388375 0.017389225 -0.0029076575 0.0017721656 0.0129643995 0.011151793 -0.0008722354
-0.0008091095 -0.0012484242 0.0041531147 0.007996023 0.011435015 0.0143170655 0.0033081372 0.015813205
-0.0036454457 0.013794214 -0.005214121 -0.01222628 0.008319215 -0.008922472 0.005385565 0.0008136528
0.011019635 0.003940678 0.00075884763 0.0010635668 -0.008694906 0.0024435057 -0.0068593407 0.008810955
0.0022822632 -0.012592691 0.013352147 0.012762457 -0.002972651 -0.003992313 0.008945264 0.0042997734
0.0031195465 0.006976293 -0.008381747 0.0077625476 0.008986588 0.012795552 0.011504975 0.005064329
0.012356578 0.006047031 0.0127038015 0.006272063 -0.00048440156 0.0012259542 -0.0044856993 0.0022489775
-0.00051310955 -0.00837068 0.008474003 0.008599462 0.00079109357 -0.0020310166 -0.0024166822 0.008020835
0.00054320745 0.001993225 -0.0066626444 -0.0024986484 -0.0076103644 0.013293207 -0.0075709694 0.009458126
-0.0005155043 0.0018329228 0.0018771313 0.0053504305 0.02131099 0.0030773915 0.014055496 0.010887004

conv1.lin.weight f4 [256, 20]
00000000: b9fd eb3d 18b2 a4bd 33e8 17bd 0cf4 39bc
00000010: 71b9 a73d f72b 7cbd da6a cb3d 2b0e b0bd
00000020: be81 673d e08d 013e deb7 163d 984e e3bd
00000030: dbf6 ae3c 538d 3f3e bf21 a03d 6973 fd3d
00000040: 38fb 063e 5ec5 733d ba1a 7f3b 1df9 093e
00000050: 5430 d63b 727a 3f3d 227e e1bd 5a86 cabd
00000060: b703 923d d2f2 76bd a01b 14be e97c b3bd
00000070: 50ad be3d ff42 d7bd 7089 a8bd ad58 943c
00000080: f036 9a3c 1ed1 223e 2b29 b93a ee9b 68bd
00000090: dba3 ab3c 390f d43d 45ee a5bd 4fad 0dba
000000a0: 1346 efbd ef75 14bd ce99 b13b ec12 af3d
000000b0: bdea d03d a8e0 093e dfd4 f13d 23fc 783d
000000c0: ad7c 3c3c a540 2ebd dc4d 913c 2e83 0ebd
000000d0: 2583 09bc dd10 a33b f7bc c6bd e965 033e
000000e0: 0955 503d 1b79 6dbd b3e9 b73d 09cd e83b
000000f0: 7b40 a33d 2000 eabc 83ea d1bd ac7a cd3d
00000100: 18ca f43d 6c4f febb d386 d83d 5875 e43d
00000110: 5a7c c33d 61a2 96bd 50fa 7e3d 23f3 acbd
00000120: 5f77 f23c 0daa dcba 757b 20be 8b06 d0bc
00000130: 0992 173d 6f21 dc3d b720 f43d 4b1d 5d3d
00000140: a2a1 513d 99c4 053e 1285 c13d 6711 e13d
00000150: 5751 363d 1319 dabd 04a8 0d3d 605e 4abd
00000160: 259a 153e a23a 363b 929d 053e d1b9 d43d
00000170: 2e69 b5bd f967 153e ddb3 72bd b735 0dbd
00000180: 822a 0abe e70d aa3d baa5 8b3c abd1 c33c
00000190: 8ce3 fcbd 8887 a7bd ad75 133e 0038 ce3d
000001a0: 558b 023e e28b a0bd 3f00 a63d 82a4 323d
000001b0: b17b 77bd 68e3 d3bd ecca debc f0af a4bd
000001c0: 9e93 84bd 9994 babc e0c5 5a3d a6a4 62bd
000001d0: 0143 b9bd fd3e fa3d cb19 bdbc 342e 6abc
000001e0: 03c6 c1bd cb58 be3c fb2f fb3d 1076 e8bd
000001f0: a67a 3f3d 965a 013e f70b ffbd 5af3 0e3e
00000200: bbfb 513d f2ed 803d f4c3 ff3d e959 e13d
00000210: fd85 bc3c 677a 0a3c 1ef2 a53d c50a 13bd
00000220: 77ad db3d 9bac a23d 1d95 81bd 7fbf 13be
00000230: 2eeb e43d 5cbf 5bbd aea9 dd3d bba8 37bd
00000240: 046e cb3d 6c72 69bc a420 b23c f9dd b7bc
00000250: e6cd 433d 0cd9 a4bc 4eee 173d 4c6d cc3c
00000260: 4aba 09be 95e0 303d 5dec 25be 5489 cf3d
00000270: a4bb 08be c56b 4abd 62bb c43d bcd9 f13d
00000280: c238 16be 01cb fa3d 76ad 8a3d d5d8 36bd
00000290: 7850 91bd 6482 a8bd 9d98 853d 1537 acbc
000002a0: 5606 b53d a313 e2bc 162a dd3d adb1 833d
000002b0: 3f95 76bd 31e5 c2bd 08c6 a4bd 6db6 283e
000002c0: 619d dfbd 8bc7 ae3c da2c b53d 80d9 fa3d
000002d0: 79b1 20bd 70d5 87bd ebc0 8d3c bae7 a23d
000002e0: 40b7 fcbd 2df8 1cbe 2123 91bc 2724 d8bd
000002f0: 4d34 87bd 3612 76bd f396 f6bb 8766 debd
00000300: 7753 a0bd 97e7 82bd 70d6 a3bd fbd8 a1bd
00000310: 16f8 183e 49d1 fdbd e193 94bd 56cd 4f3d
00000320: e9e3 efbd 9054 b9bd f310 b63d 0149 b9bd
00000330: 5c56 3fbd efd0 eb3d 8f05 6bbd 5ef5 8c3c
00000340: 2504 313d 0973 05be 6766 123d f34f 4e3d
00000350: 76d0 1bbd 7366 4fbd 0917 debd f13e 063e
00000360: 28dd bc3d f365 b33c d46e 4abd 20b6 bdbd
00000370: b469 f53d 1465 9a3b 6ba4 843c 54ce 01be
00000380: 7074 d3bd 8451 3fbd dd93 363d e292 d43d
00000390: 8409 df3d 313d 29be a918 ea3d de6f b8bd
000003a0: 92bc 9ebd 2390 1a3e 7dc9 4bbd c8a0 c63d
000003b0: 351d 0cbd f6ce 9cbd 977c ce3d d5c5 bf3d
000003c0: dff7 be3d 3fad 14be 42a6 0abe 7bf0 b13d
000003d0: 90b3 2b3c 2b9d 4436 7514 28bd f342 cd3d
000003e0: fd9a a4bc 58c6 613a fbaf efbd 3099 89bc
000003f0: e9e3 053e a820 f63d 10b0 9dbc 2f39 e8bc
0.11523003 -0.08041781 -0.037086677 -0.011349689 0.08189667 -0.061565366 0.0993249 -0.08596452
0.056520216 0.12651777 0.036796443 -0.11098975 0.021357944 0.18706255 0.078189366 0.12375528
0.1318177 0.059514396 0.0038925842 0.13473935 0.006536523 0.046747632 -0.11010386 -0.09888907
0.07129615 -0.060290165 -0.14463663 -0.08764059 0.093104005 -0.10510825 -0.08229339 0.01810869
0.018825024 0.15900084 0.0014126649 -0.05678933 0.020952156 0.10354466 -0.08102087 -0.0005404548
-0.116832875 -0.036245283 0.0054199463 0.08548531 0.10201023 0.13464606 0.1180818 0.06078733
0.011504334 -0.04254212 0.017737322 -0.03479307 -0.008393084 0.0049763755 -0.09704011 0.12831844
0.050862346 -0.057976823 0.089801215 0.00710452 0.07971283 -0.028564513 -0.10249808 0.100331634
0.11952609 -0.0077609327 0.10572591 0.11155194 0.095452026 -0.0735519 0.062250435 -0.08444812
0.029597936 -0.0016835347 -0.15672095 -0.025393745 0.037004504 0.107485645 0.11920302 0.053983014
0.051179536 0.13063277 0.09449209 0.10989647 0.044511165 -0.10649314 0.03458406 -0.04940641
0.14609583 0.0027805944 0.1304839 0.10387004 -0.08857952 0.14590444 -0.059253562 -0.034475055
-0.13492778 0.08303433 0.017046798 0.023903688 -0.123480886 -0.081801474 0.14400358 0.10069275
0.12748463 -0.078391805 0.08105516 0.043613918 -0.060420696 -0.10346109 -0.02719637 -0.0804137
-0.06473468 -0.022775935 0.053411365 -0.055332802 -0.09045983 0.12219045 -0.023083588 -0.014293242
-0.09461596 0.0232357 0.12265011 -0.11350644 0.046747826 0.12632212 -0.12453454 0.13960019
0.05126546 0.062953845 0.12488547 0.11003477 0.02301311 0.008452035 0.08102821 -0.035898943
0.10726445 0.07943078 -0.06327269 -0.14428519 0.111776695 -0.05364929 0.108233795 -0.04483865
0.09933093 -0.014248472 0.02174408 -0.022444712 0.047803782 -0.020123027 0.0370925 0.02495446
-0.1344997 0.043182928 -0.16203447 0.10133615 -0.13352829 -0.049419183 0.09606053 0.11809108
-0.14670089 0.12245751 0.06771366 -0.04464038 -0.07095426 -0.08227995 0.06523249 -0.021022359
0.08839099 -0.027597254 0.10799043 0.06430373 -0.060200926 -0.09516371 -0.08045584 0.1647584
-0.109186895 0.021335384 0.088464454 0.12248516 -0.03923175 -0.06632507 0.017303905 0.079543546
-0.1233964 -0.15329047 -0.017716946 -0.105537705 -0.066017725 -0.06007596 -0.007525319 -0.10859399
-0.0782842 -0.063918285 -0.07999885 -0.07902714 0.14938387 -0.123934336 -0.07254768 0.050732933
-0.11713392 -0.09049332 0.088899516 -0.090471275 -0.046713218 0.1151446 -0.057378348 0.017206844
0.043216843 -0.13032164 0.03574219 0.050369214 -0.0380406 -0.050634813 -0.10844237 0.13109948
0.0922187 0.0218992 -0.0494221 -0.09263253 0.11983052 0.0047117565 0.016191682 -0.12676364
-0.10324943 -0.0467086 0.044574607 0.10379578 0.10890487 -0.16527249 0.11430485 -0.09005712
-0.07750811 0.15094046 -0.0497527 0.09698635 -0.03420754 -0.07656662 0.100823574 0.09363905
0.093246214 -0.14519213 -0.13539985 0.08688446 0.010479823 2.929776e-06 -0.041035134 0.10022535
-0.020093435 0.00086126244 -0.117034875 -0.016796678 0.13075222 0.120179474 -0.019248992 -0.02834758

conv2.bias f4 [32]
00000000: 9362 263c a438 34bb 6a56 863c 1da2 2ebb
00000010: 5d70 7cbb e5c9 9d3b 973a 2b3b 73f7 e9bb
00000020: fa29 95bc 3dcd 9abb 1129 2f37 e64d 96bb
00000030: a62a 20bc e825 d13b 17de 853b 7b42 7c3c
00000040: 7408 8c3b 74a8 84bc b974 643c 8a5b 07ba
00000050: f822 dcba bb9e debb 4393 f9bb e679 82bb
00000060: 4b67 7abb 1caa 053b b630 573c d38f 8bbb
00000070: 18ea 5e3c e794 49b8 3229 61ba 9c21 d03b
0.010155338 -0.002749958 0.016398627 -0.002664692 -0.0038519122 0.0048153275 0.0026127452 -0.007140094
-0.018208493 -0.0047241733 1.0440374e-05 -0.004586923 -0.009775793 0.0063826926 0.004085313 0.01539671
0.0042734686 -0.016193606 0.0139438445 -0.00051634817 -0.001679509 -0.0067938245 -0.007616432 -0.0039818166
-0.003820854 0.0020395583 0.013134172 -0.0042590885 0.013605617 -4.806081e-05 -0.00085892074 0.006351663

conv2.lin.weight f4 [32, 256]
00000000: 6a0a 743d 2f64 07be bbe7 0bbe 08df 773b
00000010: 9707 12be ffa2 9a39 e054 b0bd bfdd bd3d
00000020: c130 193d c457 c73d 69fa 04be 15e2 24be
00000030: 8707 f83d 1011 133e 058f 693c ea6c 163d
00000040: fb07 db3d 96b9 e5bd b122 c1bd b5ad c1bd
00000050: ad87 c2bd 48ed 7bbd 2d2c 86ba a716 2f3d
00000060: 6cc4 00be 4a7c 073d 5fb9 9d3b b437 bd3d
00000070: a970 6b3b d3bb 81bb 8be6 0fbe 52ac 553d
00000080: 146b 513c 3234 43bd e369 f53c ac0c 23be
00000090: 9956 c23d 515f a0bd c7ec 31bc 880a 59bd
000000a0: 4427 0d3e 2004 f2bd 41fb 9a3d 9e0f 503c
000000b0: 5398 303d 0aff bb3d 138e 413d 147b e5bd
000000c0: ac9c 3ebb 6ca1 113d 7a23 0dbc 454f 343d
000000d0: e2f7 e8bd d80c 0ebe 82bd d4bd 163d a83d
000000e0: b515 b1bc 340e fabd 7315 f4bd 0100 e03b
000000f0: 6e7d 8cbd 87df 06be 9115 26be 8f1d fd3d
00000100: b006 acbd 3de8 49bd e38f b7bd 8d12 ed3d
00000110: fd0c b03c c433 1b3c 07f5 12be 98ee 17bd
00000120: ea12 fcbc 0322 b93d 3fe7 8d3d 87fe 0dbe
00000130: faf5 003e 5e8f b2bc 9f2b a63d 07de a9bc
00000140: 95f7 ae3d f501 cd3d 69ad 0b3e 9687 d5bd
00000150: f678 373d 6003 9fbd 3079 0e3e 5b65 f5bd
00000160: 56eb fcbb 09b6 7a3c 0978 183d 2209 adbd
00000170: ebc2 3e3c 789a c73d da1c f83d eb11 2f3d
00000180: 8d6b fdbc 37e0 b83d 31dd 21bc 4493 133d
00000190: e0b9 ac3d 13f4 19be bdb8 7e3c 08b5 2abd
000001a0: c1a7 b5bd 40f9 993c 899d e23c 5525 65bd
000001b0: 5feb 71bc 7fbc c13d 5b2c 193d 9e64 f3bd
000001c0: 9cbe 153d 1204 08bd 316a d93d f83e da3c
000001d0: 3f8a 0dbb 3ad3 f9bd 8ccd 803c 4555 b2bd
000001e0: 960e a93d 13cd c5bc fd5b a2bc 89ea 2fbd
000001f0: e11a 92bd 63b8 b1bd b6a7 1bbc 9a35 653d
00000200: 67f4 10bd d23c 05bd 6ec7 96bc 4472 ed3d
00000210: 99d4 f53d 7f69 8dbd 7cfa e03d 9eda f53d
00000220: 9e2f 063e 1ae0 87bd a1f1 47bd 3c6c 1fb9
00000230: be64 413d 7cf2 e13d 1dec 203c 61df adbd
00000240: 3d2f 063e 9721 083e 8aad 2c3d 437f fb3d
00000250: 4751 d53d 90dd 433c 7ee6 09be 6c6d fbbc
00000260: f3f3 00be 96ca 923d 6ceb 4cbd 5246 023e
00000270: 7145 2abd a040 633d faf8 8dbd 0981 c8bb
00000280: 702b 72bd 3795 213d 2ad9 4f3c 67cc 003e
00000290: b125 71bd 8ad9 583d 9c5a 7e3c a32a 0a3e
000002a0: 22c4 40bd 2846 6abd 2a08 033d ceb3 bb3d
000002b0: 07c4 1b3e f31a a7bb 7fb2 edbc f323 b53d
000002c0: e62c a3bd 164e e33d fbc3 d5bd 4c7c 9d3c
000002d0: 005d 353d bb3a 4f3b ac1f 093c b3fe 123d
000002e0: dd5a d43d 91bc bd3c 1a5d c7bd 0ca8 0f3d
000002f0: ff4f 34bd 5b33 033e aae3 793d 4f33 d4bb
00000300: d2c4 37bd bb16 db3d 826a 19bc 610f 0ebd
00000310: c4d7 1cbe 6867 8e3d 8055 ebbd 8e6d 2dbc
00000320: 9d63 64bd a167 fdbd e54a c6bd 1986 fb3d
00000330: c5c1 adbd 5cbb 2ebd f918 1cbd b424 b0bd
00000340: bf3a fc3d 8811 9b3d 3c13 0dbd 2785 0f3e
00000350: 45c7 83bc 14ea b9bd cfda 7abd e0af 033e
00000360: 2ebe b1bd db07 7d3d 8655 70bb ef4b a83d
00000370: 47bc 9ebd d0e8 0c3e a687 6c3d b53c 073e
00000380: 6dd3 20be fb9d 4e3c 30f0 e33b 25d7 8cbb
00000390: b1ea b53c 8b20 0a3e b5ab 003d 6434 5dbd
000003a0: 15aa db3d 3922 dd3d 2d41 063e 7398 bebd
000003b0: f85b 943d 5c94 2abd a5f5 fc3d e620 46bd
000003c0: a702 acbd 30f2 c33d a92f aebd 940c 05bd
000003d0: 6434 8f3d a0cf d5bd 338e 6e3d 3e02 363d
000003e0: 5bd3 96bd 378c 09be e75e c93c 96a7 353d
000003f0: 91a7 2e3d ff4b 8fbd 1b98 ccbc 67e9 af3c
0.059580244 -0.13221811 -0.13662617 0.0037822146 -0.14260708 0.0002949461 -0.086099386 0.0927081
0.03740001 0.09733537 -0.12986149 -0.16101868 0.12110811 0.14361978 0.01425529 0.036724962
0.106948815 -0.11217038 -0.09430445 -0.0945696 -0.09498534 -0.061505586 -0.0010236554 0.042746212
-0.12574929 0.033077516 0.0048133577 0.0923914 0.0035925305 -0.003959158 -0.14052789 0.05216629
0.012781877 -0.0476572 0.029957717 -0.15922803 0.094891734 -0.0783068 -0.010859675 -0.05298856
0.1378451 -0.11817193 0.07567454 0.012699036 0.043114018 0.09179504 0.047254633 -0.11205116
-0.0029085083 0.035554335 -0.008614415 0.04402091 -0.11375405 -0.13872087 -0.10387708 0.08214776
-0.021616796 -0.1220974 -0.119181536 0.006835938 -0.06859861 -0.13171206 -0.16219164 0.123591535
-0.08399713 -0.049293745 -0.08962991 0.11575804 0.021490568 0.009472791 -0.14351283 -0.037092775
-0.030770738 0.0903969 0.06928872 -0.13866626 0.12593833 -0.021796878 0.08113789 -0.020735754
0.08543316 0.10010139 0.1364037 -0.104262516 0.04479309 -0.077643156 0.13913417 -0.11982223
-0.007718484 0.01530219 0.03722385 -0.084490076 0.011643152 0.097462595 0.12114878 0.042741697
-0.030935073 0.090271406 -0.009879396 0.036029115 0.0843389 -0.15034513 0.015546975 -0.04167655
-0.08869887 0.01879561 0.02766301 -0.055943806 -0.0147655895 0.09459781 0.037395816 -0.118844256
0.036558732 -0.033207007 0.106159575 0.026641354 -0.0021597294 -0.121984914 0.015723012 -0.0870767
0.08254735 -0.024145639 -0.019819254 -0.04294828 -0.07134033 -0.08677747 -0.009500435 0.05595932
-0.03538933 -0.032528706 -0.018405642 0.1159406 0.120034404 -0.069048874 0.10985276 0.120045885
0.13104102 -0.06634541 -0.04881442 -0.00015203742 0.047215216 0.11032578 0.009821919 -0.08489872
0.13103957 0.13294064 0.042157687 0.122801326 0.10415893 0.01195468 -0.13466832 -0.030691825
-0.12593059 0.071675465 -0.050029203 0.12722138 -0.04157013 0.055481553 -0.06932254 -0.006118898
-0.059123456 0.039448943 0.012686053 0.12577973 -0.058873836 0.052941836 0.015524533 0.13492827
-0.047062047 -0.057195812 0.031990208 0.091651544 0.15211497 -0.005099648 -0.029015778 0.088447474
-0.07967548 0.11098878 -0.10437771 0.019224308 0.044278145 0.00316207 0.008369368 0.03588743
0.10368893 0.023161205 -0.097345546 0.03507237 -0.044021603 0.1281256 0.061008133 -0.006475843
-0.044865437 0.10697695 -0.009363772 -0.034682635 -0.15316683 0.06953317 -0.11490917 -0.010585202
-0.05575906 -0.12373281 -0.09682254 0.122814365 -0.08484224 -0.04265915 -0.038109753 -0.086007506
0.123158924 0.07571703 -0.03444217 0.14015637 -0.01608623 -0.0907785 -0.06124383 0.1286006
-0.08678852 0.06177507 -0.003667207 0.08217608 -0.07750755 0.13760686 0.057746552 0.13206752
-0.15705653 0.012610908 0.006956123 -0.004298108 0.022206636 0.13488977 0.031413753 -0.05400504
0.107258 0.10797543 0.131108 -0.09306421 0.07244104 -0.041645393 0.123515405 -0.04837122
-0.083989434 0.09567678 -0.08505184 -0.0324827 0.069924146 -0.10439992 0.05824108 0.044435732
-0.073645316 -0.13432394 0.024581386 0.044349276 0.042640273 -0.06996917 -0.024974873 0.0214736
