pretrained_gnns/german_gae_gcn.pth (torch, 56744 bytes, 4 tensors)

conv1.bias f4 [256]
0	0x3ce2c3bd	0.027681226
1	0x3d971e11	0.073787816
2	0x3cd233da	0.02565949
3	0x3d107e25	0.03527655
4	0x3d15e539	0.036595557
5	0x3d1739f9	0.03692052
6	0x3d1a9080	0.037735462
7	0x3caa5817	0.020793958
8	0x3ce4dcec	0.027937375
9	0x3d22036b	0.03955404
10	0x3d22bdbe	0.039731734
11	0x3d423b40	0.047419786
12	0x3ced7a35	0.028988937
13	0x3d58e42a	0.05295197
14	0x3d36610e	0.044526152
15	0x3d51aab9	0.051188204
16	0x3cce7957	0.025204344
17	0x3d3d9e4b	0.046293538
18	0x3ca3b797	0.019985003
19	0x3d483de9	0.048887167
20	0x3b01f88f	0.001983199
21	0x3d2eb0f6	0.04264923
22	0x3d33e474	0.04391904
23	0x3d4a349f	0.04936659
24	0x3cc42fc3	0.023948556
25	0x3c2dc074	0.010604966
26	0x3d234c23	0.03986753
27	0x3d208923	0.039193284
28	0x3c878709	0.016543882
29	0x3d32ed0b	0.043683093
30	0x3d745645	0.059652586
31	0x3d0cf37e	0.0344119
32	0x3d06ce1d	0.03291141
33	0xbbcf94e5	-0.0063348883
34	0x3d47a1af	0.048738178
35	0x3caeefc3	0.021354562
36	0x3cbdc6b1	0.023166033
37	0x3d56d3f4	0.052448228
38	0x3d746f62	0.059676535
39	0x3d27bf6c	0.04095404
40	0x3d01ecec	0.031720087
41	0x3d1f3c6a	0.038875975
42	0x3d340cc1	0.043957476
43	0x3c3e9b19	0.011633658
44	0x3ccfb0e8	0.02535291
45	0x3d34b48d	0.0441175
46	0x3d25c9dd	0.040475715
47	0x3c6dfd28	0.014525689
48	0x3d414357	0.04718336
49	0x3d13d978	0.036096066
50	0x3cd1c65d	0.025607282
51	0x3d3ed89e	0.0465933
52	0x3cf20a6a	0.029545981
53	0x3cba2a0b	0.022725126
54	0x3d820fa1	0.06350637
55	0x3ce5b3ec	0.028039895
56	0x3d66d5f0	0.05635637
57	0x3d0ea9c4	0.03482987
58	0x3d01d251	0.031694714
59	0x3d3a9b0e	0.045558028
60	0x3c556320	0.0130241215
61	0x3d215201	0.039384846
62	0x3d58b54f	0.052907284
63	0x3d301905	0.04299261
64	0x3d8c1e8a	0.06841762
65	0x3d8d6da3	0.06905677
66	0x3d3c2e80	0.045942783
67	0x3cf17274	0.02947352
68	0x3d4815a8	0.048848778
69	0x3d57a607	0.05264857
70	0x3cdc7455	0.02691094
71	0x3ca74a31	0.02042112
72	0x3c186c0a	0.009303102
73	0x3d4fc39d	0.05072366
74	0x3d2acf5d	0.041701663
75	0x3d1ce2c5	0.0383022
76	0x3d238bb5	0.039928157
77	0x3d82c9be	0.063861355
78	0x3d055523	0.032551896
79	0x3d19af77	0.037520852
80	0x3d189087	0.037247207
81	0x3cbd11e4	0.02307982
82	0x3d0f889b	0.035042387
83	0x3d60c71b	0.05487738
84	0x3d0a9337	0.0338318
85	0x3d50d0e6	0.05098047
86	0x3d318126	0.043336056
87	0x3d4d1669	0.0500702
88	0x3d293be4	0.04131688
89	0x3be9a0cd	0.0071297647
90	0x3d90d2ab	0.07071432
91	0x3d1b0911	0.037850443
92	0x3d1c62a9	0.038180027
93	0x3d529899	0.05141506
94	0x3c58bc4e	0.013228489
95	0x3d1c351f	0.038136598
96	0x3d3c26de	0.045935504
97	0x3d05cb3b	0.03266452
98	0x3d110769	0.035407458
99	0x3d30a237	0.04312345
100	0x3d26ae94	0.040693834
101	0x3cd1acc7	0.025595082
102	0x3cbfcf16	0.023414176
103	0x3d57d321	0.052691583
104	0x3ce0ead8	0.027455732
105	0x3cf8f66d	0.030390942
106	0x3b9bfdf1	0.004760497
107	0x3cc7d5cf	0.024393944
108	0x3d4529fd	0.048135746
109	0x3d72e355	0.059298832
110	0x3d408ae6	0.047007464
111	0x3d2e341c	0.042530164
112	0x3d053cc8	0.03252867
113	0x3d1b9994	0.03798826
114	0x3d1af74e	0.037833504
115	0x3ca18446	0.019716393
116	0x3d30edaa	0.043195404
117	0x3d6cd8fd	0.057824124
118	0x3d17bf4e	0.037047677
119	0x3d2f5dfb	0.042814236
120	0x3d3dcbc0	0.04633689
121	0x3d4f3677	0.05058905
122	0x3ce9ee41	0.028555991
123	0x3d2257a1	0.03963435
124	0x3d187c7e	0.0372281
125	0x3d235f46	0.03988578
126	0x3d45ea24	0.048318997
127	0x3d630776	0.055427037
128	0x3c4ebcb4	0.0126182325
129	0x3d0f4015	0.034973223
130	0x3c80090f	0.01562932
131	0x3d3532ef	0.044238027
132	0x3d4d0a13	0.050058436
133	0x3d281c1b	0.04104243
134	0x3d676163	0.05648936
135	0x3d42dc88	0.047573596
136	0x3c498da9	0.012301841
137	0x3cf48a21	0.029851021
138	0x3d2e4d44	0.042554155
139	0x3d50aca0	0.050945878
140	0x3d1aefe3	0.03782643
141	0x3c86fdd8	0.016478464
142	0x3d24b332	0.040209956
143	0x3cf88be1	0.030340137
144	0x3d0d5ff3	0.034515332
145	0x3d03abcf	0.03214627
146	0x3d1f6861	0.038917903
147	0x3d5578bf	0.052117106
148	0x3d19573e	0.037436716
149	0x3d32f8a5	0.043694157
150	0x3ca1777a	0.019710291
151	0x3ceb9e4f	0.02876201
152	0x3d2bf73b	0.041983824
153	0x3cad330c	0.021142505
154	0x3cf4104d	0.029792929
155	0x3d112db3	0.035443973
156	0x3d097b6a	0.033564962
157	0x3d2e6c38	0.042583674
158	0x3d1dc4f2	0.0385179
159	0x3d2cad08	0.042157203
160	0xbb16f545	-0.0023034376
161	0x3cc63b58	0.02419822
162	0x3d7fa771	0.062415544
163	0x3d06908a	0.032852687
164	0x3d41f4a1	0.047352437
165	0x3d4647b6	0.048408233
166	0x3d1bc354	0.038028076
167	0x3d4842c7	0.04889181
168	0x3d03f33d	0.032214392
169	0x3d14e226	0.036348484
170	0x3ca79b8b	0.02045991
171	0x3d3c2886	0.045937084
172	0x3da2403b	0.07922407
173	0x3d2f0e3b	0.04273818
174	0x3d3eed7d	0.046613205
175	0x3d018d7b	0.031629067
176	0x3d6352f7	0.055499043
177	0x3d583c19	0.05279169
178	0x3d3db3f0	0.04631418
179	0x3d6ae05d	0.057342876
180	0x3d22603c	0.039642558
181	0x3d2cae32	0.042158313
182	0x3d17eb80	0.037089825
183	0x3d3080a4	0.04309143
184	0x3d5473c8	0.05186823
185	0x3d64dc7d	0.055874337
186	0x3d437f1e	0.04772865
187	0x3d3c96b0	0.046042144
188	0x3db4902e	0.088165626
189	0x3cfcfbb2	0.030881736
190	0x3d0f56e8	0.03499499
191	0x3d79cfbd	0.06098913
192	0x3d3983d2	0.04529173
193	0x3d5351e3	0.051591765
194	0x3cdf3eb1	0.027251573
195	0x3d0a1c13	0.03371818
196	0x3d45b83c	0.048271403
197	0x3d16f8da	0.036858417
198	0x3cfd1558	0.030893967
199	0x3d457310	0.048205435
200	0x3d2addab	0.041715305
201	0x3d01f4a5	0.03172745
202	0x3d67f5d2	0.056630917
203	0x3d4bdc78	0.049770802
204	0x3ce5107c	0.027961962
205	0x3c7e8f05	0.015537028
206	0x3d36a78e	0.044593386
207	0x3cedd374	0.029031493
208	0x3c91abef	0.01778218
209	0x3d0f9a58	0.035059303
210	0x3d0718e1	0.03298271
211	0x3d7ce01a	0.061737157
212	0x3b383dd2	0.002811302
213	0x3d6af2cc	0.057360455
214	0x3ce06a0f	0.027394323
215	0x3c225b9d	0.009909538
216	0x3d1f238b	0.038852256
217	0x3d241395	0.040057737
218	0x3d09e295	0.03366335
219	0x3d6e143a	0.05812476
220	0x3d4bd2a9	0.049761448
221	0x3d154055	0.036438305
222	0x3d1c98fc	0.038231835
223	0x3cdf9467	0.027292443
224	0x3d1c9e79	0.03823707
225	0x3cc2b2bb	0.023766866
226	0x3d790203	0.060792934
227	0x3ce63dd1	0.028105648
228	0x3d0a4035	0.03375264
229	0x3d472905	0.048623104
230	0x3b9b2938	0.0047351383
231	0x3d8ed455	0.06974093
232	0x3d29b7b8	0.041434973
233	0x3d2bceea	0.041945376
234	0x3d35d2e2	0.044390567
235	0x3d0720d7	0.032990303
236	0x3d459ae7	0.04824343
237	0x3da45481	0.0802393
238	0x3c41140e	0.011784567
239	0x3bf5c11f	0.0074998285
240	0x3c977cb9	0.01849209
241	0x3d58e2a6	0.052950524
242	0x3cdea789	0.027179496
243	0x3cf88a97	0.030339522
244	0x3d85faa3	0.06541946
245	0x3d50c582	0.050969608
246	0x3d4b8720	0.049689412
247	0x3cdb840e	0.026796367
248	0x3ccf9cd0	0.025343329
249	0x3c7d42cc	0.01545782
250	0x3d1cae2b	0.038252037
251	0x3d1848e7	0.0371789
252	0x3d431cea	0.047634996
253	0x3d631a0c	0.055444762
254	0x3d252943	0.040322553
255	0x3d44a853	0.04801209

conv1.lin.weight f4 [256, 20]
0	0xbd9642bf	-0.073369496
1	0xbdf681f1	-0.12036503
2	0x3c57ee2a	0.013179341
3	0xbddd97fc	-0.10820004
4	0x3d3a659f	0.04550707
5	0x3c6cb979	0.014448517
6	0x3da23b08	0.079214156
7	0xbe260048	-0.16211045
8	0x3d3ce733	0.046118926
9	0x3d98d6d8	0.07462853
10	0xbe06b4c2	-0.13154891
11	0x3dc4851b	0.095957
12	0xbe00eca7	-0.12590276
13	0xbd72668d	-0.05917983
14	0x3c6ff682	0.014646174
15	0x3ccb6716	0.024829429
16	0x3ca6ee8b	0.020377418
17	0xbe0e513f	-0.1389818
18	0x3dc45045	0.09585623
19	0xbde823c5	-0.113349475
20	0x3d8ed645	0.069744624
21	0xbd204d74	-0.039136365
22	0xbd410557	-0.047124233
23	0x3e523fd0	0.20532155
24	0xbe79407f	-0.2434101
25	0x3e1c6263	0.15271907
26	0x3ddbbbde	0.10729192
27	0x3e4f1892	0.20224217
28	0xbdebd542	-0.11515285
29	0x3e3852b4	0.18000299
30	0x3d070786	0.03296616
31	0x3d33c398	0.043887705
32	0xbdcf8911	-0.10133565
33	0x3da314a9	0.07962925
34	0x3d5c0187	0.053712394
35	0x3e628f4a	0.22124973
36	0xbe548749	-0.20754732
37	0x3e7006ce	0.23440096
38	0x3d773545	0.060353536
39	0x3d3ab3f8	0.045581788
40	0xbc8f627a	-0.017503012
41	0xbd1fab79	-0.03898189
42	0xbd940afa	-0.07228656
43	0x3d91fade	0.07127927
44	0x3e41f381	0.18940546
45	0x3e1daa44	0.15396982
46	0x3ce9c023	0.028534
47	0x3db5a04c	0.08868465
48	0xbe376a88	-0.17911732
49	0x3d1b3353	0.037890743
50	0x3db265bd	0.08710811
51	0x3db396df	0.08769011
52	0x3d68df6b	0.056853693
53	0xbd8e2c71	-0.0694207
54	0xbe23564e	-0.15950891
55	0xbc2511e4	-0.010075066
56	0x3e3ef37e	0.18647572
57	0xbd0acbbd	-0.033885706
58	0x3d4e9470	0.05043453
59	0x3d78252f	0.060582336
60	0x3e19ec37	0.15031515
61	0x3e44d172	0.19220522
62	0xbd32cd7d	-0.043653
63	0x3bf565f0	0.0074889585
64	0xbc7420a2	-0.014900358
65	0xbe1e3af6	-0.1545218
66	0x3d46342c	0.0483896
67	0xbdfc1260	-0.12308192
68	0x3e215c62	0.15757897
69	0xbdf579c1	-0.11986113
70	0x3d83d9f5	0.064380564
71	0x3d479196	0.048722826
72	0x3e4eaebd	0.20183845
73	0x3e34831b	0.17628138
74	0x3d76d6d0	0.060263455
75	0x3de385bb	0.111094914
76	0x3e2dace3	0.16960482
77	0xbd1ad49e	-0.037800424
78	0x3c8ef0d6	0.017448824
79	0x3e2d0926	0.16898021
80	0x3e21a04a	0.15783802
81	0xbd2b126d	-0.04176562
82	0x3e38c67f	0.1804447
83	0xbd79d819	-0.060997102
84	0x3e260dd8	0.16216218
85	0x3d18f681	0.03734446
86	0xbd8632f4	-0.06552687
87	0xbd87d46a	-0.06632312
88	0x3d5a7f05	0.05334379
89	0xbd34bb50	-0.044123948
90	0x3ce4e6db	0.027942112
91	0xbd8206e9	-0.06348974
92	0x3e1aa341	0.15101339
93	0x3cb7e24c	0.022446774
94	0x3db94215	0.09045807
95	0xbd8d514a	-0.0690027
96	0x3c3fd534	0.011708546
97	0x3bdee7fa	0.006802556
98	0x3cb7cf64	0.022437759
99	0x3d6f2b18	0.058390707
100	0x3ce3d35b	0.027810743
101	0x3e241ea3	0.16027312
102	0xbd64ead5	-0.055888016
103	0xbe310147	-0.17285644
104	0xbd6fa7fa	-0.058509804
105	0xbd9b9938	-0.075975835
106	0x3ba36c88	0.004987303
107	0x3cf9eac2	0.030507449
108	0xbd4cb2a1	-0.04997504
109	0x3e43ecaf	0.19133256
110	0x3d5132fe	0.05107402
111	0xbb02f512	-0.00199825
112	0x3dfd8398	0.12378615
113	0x3e8079db	0.25092968
114	0xbd85aa84	-0.06526664
115	0xbc747603	-0.014920714
116	0x3e055111	0.13019206
117	0x3db6595f	0.08903765
118	0xbe0e0a33	-0.13871078
119	0x3d7b3d69	0.061337862
120	0xbd6cccf9	-0.057812665
121	0x3d10b66a	0.035330214
122	0xbdfae75d	-0.1225116
123	0x3d6304e4	0.055424586
124	0xbca3d642	-0.019999627
125	0xbe15379a	-0.14571992
126	0xbe2d5099	-0.16925277
127	0x3e14c55e	0.14528415
128	0x3da07b5d	0.0783603
129	0xbd5b29c2	-0.05350662
130	0xbe496487	-0.19667254
131	0xbd6bb61b	-0.057546716
132	0xbd6a6aa9	-0.057230625
133	0xbdd0074b	-0.10157641
134	0x3bbdb31b	0.0057891733
135	0x3e294202	0.16529086
136	0xbd7be289	-0.061495338
137	0x3cb7111f	0.022347031
138	0x3cc82a5c	0.024434261
139	0xbd99280a	-0.0747834
140	0x3d71a5e0	0.05899608
141	0x3df137bd	0.11778209
142	0xbdbef212	-0.09323515
143	0xbd4d1adc	-0.050074443
144	0xbd87bd99	-0.0662796
145	0x3d0b6ea0	0.034041047
146	0xbd936b76	-0.07198231
147	0x3e16bcf5	0.14720519
148	0x3e1f9dd9	0.15587558
149	0xbbe33a6e	-0.0069344556
150	0xbdb4718d	-0.088107206
151	0xbd8c7cb9	-0.068597265
152	0x3de2d86f	0.11076438
153	0x3d8aa792	0.06770243
154	0x3e277808	0.16354382
155	0x3d88d23c	0.06680724
156	0x3e20e5ad	0.15712614
157	0xbd73100d	-0.05934148
158	0xbd0d190d	-0.03444772
159	0xbd40e746	-0.04709556
160	0x3dccb4d9	0.099954315
161	0x3dd4f7b5	0.10398809
162	0x3e1544ed	0.14577074
163	0x3dc184b4	0.09449139
164	0xbd8acd7c	-0.06777474
165	0x3d33e738	0.04392168
166	0xbc5a4b0d	-0.013323558
167	0xbd2b42ab	-0.041811626
168	0xbd9b2693	-0.07575717
169	0xbd207942	-0.03917814
170	0x3da03477	0.07822507
171	0x3d941de7	0.07232266
172	0x3e2a0607	0.16603862
173	0xbd1f7d27	-0.038937714
174	0x3e07e74f	0.13271831
175	0xbcddeeb0	-0.027091354
176	0xbd8c9f3c	-0.06866309
177	0xbc84e828	-0.016223982
178	0x3d2f6346	0.042819284
179	0x3e22ff5f	0.15917729
180	0xbe08253b	-0.13295452
181	0x3b19dd32	0.002347779
182	0xbc8f7bc9	-0.01751508
183	0x3e07dcf4	0.1326788
184	0x3e43867a	0.19094267
185	0xbdd1308f	-0.1021434
186	0x3c0d7b55	0.008635362
187	0xbdd07a35	-0.10179559
188	0xbd9e3aad	-0.07726035
189	0xbd7e1d30	-0.062039554
190	0x3d605d3a	0.054776408
191	0xbdbb884c	-0.09156856
192	0xbd6f0a6d	-0.058359552
193	0xbdc39c65	-0.09551314
194	0xbe29c8ed	-0.16580553
195	0x3e2c94ce	0.1685364
196	0xbcce8e4a	-0.025214333
197	0x3dad448d	0.08460341
198	0x3dd8c702	0.10584833
199	0x3d07834d	0.033084203
200	0xbd76a75e	-0.060218208
201	0x3dfa309a	0.12216301
202	0x3e081929	0.13290848
203	0xbd25a579	-0.04044101
204	0xbb7a514e	-0.0038195434
205	0xbdcfca44	-0.10146001
206	0xbd245b4c	-0.04012613
207	0xbdbbcee8	-0.091703236
208	0xbdf74ad1	-0.12074817
209	0x3cbeea8a	0.023305196
210	0xbd19bc2e	-0.037532978
211	0xbce19452	-0.027536545
212	0x3e0c1726	0.13680705
213	0x3d4f626d	0.050630976
214	0x3df719db	0.120654784
215	0xbdd56354	-0.10419336
216	0x3ddf3607	0.10898977
217	0xbd1eeee5	-0.038802046
218	0xbe37ea0c	-0.17960376
219	0x3e33720e	0.17523977
220	0xbcf65ccd	-0.030073548
221	0x3a4b2a92	0.0007750179
222	0xbd7b4ecb	-0.06135444
223	0x3e06f011	0.13177516
224	0x3e2a8e25	0.16655786
225	0xbdae1a80	-0.08501148
226	0x3e206162	0.15662149
227	0xbe410838	-0.18850791
228	0x3e01cdc6	0.12676153
229	0xbe4fb004	-0.20281988
230	0x3d229fae	0.039703064
231	0x3cd7f4e3	0.026361888
232	0xbd871f9a	-0.065978244
233	0x3d7b66b1	0.06137723
234	0x3e0119d7	0.12607513
235	0x3cabdb88	0.020978704
236	0xbd2f607f	-0.042816635
237	0x3cfd7271	0.030938359
238	0x3e07c565	0.13258894
239	0x3e4ec999	0.20194091
240	0x3cbdeef0	0.023185223
241	0x3cdd21e7	0.026993705
242	0xbe2d6f6e	-0.16937038
243	0xbdfbc290	-0.12292969
244	0xbe4e6d22	-0.20158818
245	0xbc190aec	-0.009340983
246	0xbe04b10c	-0.12958163
247	0x3e12ddc1	0.14342405
248	0xbd23f5dd	-0.040029395
249	0x3db2c6e1	0.087293394
250	0xbb162008	-0.0022907276
251	0x3dd56f67	0.10421639
252	0x3db7bee5	0.08971957
253	0xbcbd3e35	-0.023100952
254	0x3d636be1	0.055522803
255	0x3d9986ff	0.074964516

conv2.bias f4 [32]
0	0x3d2b5005	0.04182436
1	0x3d259c16	0.04043206
2	0x3d2a2e20	0.041547894
3	0x3d163e84	0.036680713
4	0xbd09f386	-0.033679508
5	0x3cdd27d3	0.026996529
6	0xbcf80df8	-0.030280098
7	0xbd24cff1	-0.04023737
8	0xbd17fbf6	-0.037105523
9	0x3d2d6371	0.042331163
10	0xbcc1d6a1	-0.023661913
11	0x3d0ec3c1	0.034854654
12	0x3d152602	0.0364132
13	0xbd0467f5	-0.032325704
14	0x3d050782	0.032477863
15	0x3cab1c00	0.020887375
16	0x3c740952	0.0148948
17	0x3d2930d1	0.04130632
18	0xbd17f6e3	-0.037100684
19	0xbc9b5468	-0.018961146
20	0x3d1c10c2	0.03810192
21	0xbcb575d8	-0.022150919
22	0x3d276d96	0.040875994
23	0xbd2248e4	-0.039620295
24	0x3d4001dc	0.046876773
25	0x3d24a2d1	0.040194336
26	0x3d1e4452	0.038639374
27	0x3d3c1487	0.045918014
28	0xbd2f3f7f	-0.042785164
29	0xbd6d2059	-0.057892177
30	0x3d1ba7e7	0.03800192
31	0xbd40e7a9	-0.04709593

conv2.lin.weight f4 [32, 256]
0	0xbdfb25eb	-0.12263092
1	0x3dff4ce5	0.12465838
2	0x3dc72ca8	0.097253144
3	0xbd4475de	-0.04796397
4	0x3d8b6a68	0.06807405
5	0x3bca1265	0.0061667436
6	0x3d829480	0.063759804
7	0xbdb4540f	-0.088050954
8	0xbe020d8c	-0.1270048
9	0xbd4e0649	-0.050298963
10	0x3c1f38a3	0.009718093
11	0xbdec21ec	-0.115299076
12	0x3d04ad4b	0.032391828
13	0xbe06fe6a	-0.13182989
14	0xbd7b468a	-0.06134657
15	0x3ddb8289	0.10718257
16	0x3ddbb30c	0.1072751
17	0xbd3ea2c2	-0.046541937
18	0xbd66b6e4	-0.05632676
19	0xbd489af4	-0.0489759
20	0xbda78dac	-0.08181319
21	0x3cc6941e	0.02424055
22	0xbe1a1392	-0.15046528
23	0x3d7658c6	0.060143255
24	0x3db4b953	0.0882441
25	0xbce1121c	-0.027474456
26	0x3da2ee3a	0.07955594
27	0xbc024ae9	-0.00795243
28	0x3e34a27f	0.17640112
29	0x3e023919	0.12717094
30	0xbd388eb1	-0.045057956
31	0xbdd668dd	-0.1046922
32	0xbd9c60f6	-0.07635681
33	0x3c23039c	0.009949591
34	0xbd9cdb4a	-0.076590136
35	0x3d5930d8	0.053025097
36	0x3ccdc2a4	0.025117226
37	0x3de1a7db	0.11018344
38	0x3ddafa52	0.10692276
39	0xbd8aa156	-0.06769054
40	0xbe2a926d	-0.1665742
41	0xbcfc9112	-0.030830894
42	0x3e38ee90	0.18059754
43	0xbc31199b	-0.0108093275
44	0x3d8d4c0c	0.068992704
45	0xbe25bb36	-0.16184697
46	0xbd1c8695	-0.038214285
47	0x3c9b8b7d	0.018987412
48	0xbda6facb	-0.08153304
49	0xbda25a0b	-0.079273306
50	0x3de238cc	0.110459894
51	0x3de05911	0.10954488
52	0xbdff33e4	-0.12461069
53	0xbddc724c	-0.10763988
54	0x3e293ab8	0.16526306
55	0xbe32cdbe	-0.17461297
56	0xbb5799ba	-0.0032898025
57	0xbc9ce653	-0.019152796
58	0xbc6a6858	-0.014307104
59	0xbe1501db	-0.14551489
60	0x3c0625e1	0.008187742
61	0xbd8d34b7	-0.0689482
62	0xbe429d16	-0.19005236
63	0xbbaae15e	-0.005214854
64	0x3e433813	0.1906436
65	0xbe257367	-0.16157304
66	0xbd8dca18	-0.06923312
67	0xbc54978a	-0.012975583
68	0xbd9783ba	-0.07398172
69	0xbe2210d2	-0.15826729
70	0xbdc6efd9	-0.09713716
71	0x3dcda2ef	0.10040843
72	0x3d4106df	0.047125693
73	0xbd6d974e	-0.058005624
74	0xbd74e390	-0.059787333
75	0xbc6baa82	-0.014383914
76	0xbe03f7ea	-0.1288754
77	0x3e3b9160	0.18317175
78	0x3dc74a82	0.09731008
79	0xbcb956aa	-0.022624332
80	0xbba81c5e	-0.0051303348
81	0xbde1d481	-0.1102686
82	0xbce63bc7	-0.028104676
83	0x3d3c637e	0.04599332
84	0x3d94dd02	0.072687164
85	0x3e20dfb5	0.15710337
86	0xbde2923a	-0.11063047
87	0xbdd825d6	-0.10554092
88	0x3cafd95c	0.02146595
89	0xbd26f7dd	-0.040763725
90	0xbd0a43c9	-0.03375605
91	0x3de06121	0.10956026
92	0x3da7117f	0.08157634
93	0xbd37c72b	-0.044867676
94	0xbe0892bd	-0.13337226
95	0x3d6f79c7	0.058465745
96	0xbd82a337	-0.06378787
97	0xbd65cfbc	-0.056106314
98	0x3d5ef585	0.054433364
99	0x3c0ce103	0.008598569
100	0xbd56f83e	-0.052482836
101	0xbd67fa07	-0.05663493
102	0xbd82d687	-0.06388574
103	0x3d4eed58	0.050519317
104	0xbe26e6fb	-0.1629905
105	0xbd7fa19e	-0.06240999
106	0xbe3eb3b6	-0.18623242
107	0xbe380cc5	-0.17973621
108	0x3d624966	0.05524578
109	0x3d0949b7	0.033517566
110	0x3e1bd791	0.15218951
111	0x3da389a4	0.07985237
112	0x3e0a6dda	0.13518468
113	0xbd800584	-0.06251052
114	0xbe0fc930	-0.1404159
115	0xbcbfcf16	-0.023414176
116	0xbd857a7e	-0.06517504
117	0xbe187079	-0.14886655
118	0x3cbae4cc	0.022814177
119	0x3d816751	0.06318534
120	0xbd905777	-0.070479326
121	0x3e042159	0.12903346
122	0xbe19479f	-0.14968728
123	0x3b8b8880	0.0042582154
124	0x3d8332ca	0.064061716
125	0xbd3f7f62	-0.04675234
126	0x3db12405	0.08649448
127	0x3db323b7	0.087470464
128	0xbddd0351	-0.10791648
129	0x3d7f2eed	0.06230061
130	0x3d88581d	0.06657431
131	0x3e27d371	0.16389252
132	0xbe199e25	-0.15001734
133	0x3e0c6c25	0.13713129
134	0x3d87e612	0.06635679
135	0xbddc556b	-0.1075848
136	0x3da30e18	0.079616725
137	0xbe17e157	-0.14832054
138	0xbdd4be2b	-0.10387834
139	0xbe0c7334	-0.13715822
140	0xbe079197	-0.13239132
141	0xbdaed543	-0.0853677
142	0x3e182d81	0.14861108
143	0x3e18b65b	0.14913313
144	0xbde05807	-0.1095429
145	0x3e076925	0.13223703
146	0xbdc7105b	-0.097199164
147	0x3dd39621	0.10331369
148	0x3d16423a	0.036684252
149	0x3e2f70d2	0.17132881
150	0x3d9ee6f0	0.077588916
151	0x3d3bbf48	0.045836717
152	0x3d939e29	0.07207901
153	0x3d95dde3	0.07317712
154	0x3e3e1ec5	0.18566425
155	0xbd6f5d16	-0.058438383
156	0xbd31e09c	-0.043427095
157	0x3cded91a	0.027203131
158	0xbc20d4f0	-0.009816393
159	0x3dc3bb6e	0.09557234
160	0x3e268689	0.16262259
161	0x3d21ae5c	0.039472923
162	0x3e38ce38	0.18047416
163	0xbd7f21fd	-0.062288273
164	0xbd62c776	-0.055366002
165	0xbdc3b829	-0.0955661
166	0x3e2e20c0	0.1700468
167	0x3d0c3998	0.034234613
168	0x3e1af2c9	0.15131678
169	0xbdd0f304	-0.102026016
170	0xbd7fe27c	-0.06247185
171	0x3e2706fe	0.16311261
172	0x3e183b2a	0.1486632
173	0xbd79bfd4	-0.060973957
174	0xbe2543ea	-0.16139188
175	0xbd88269e	-0.06647991
176	0xbd9714bb	-0.07377001
177	0xbcc44382	-0.023957971
178	0xbde2dcaf	-0.11077248
179	0x3dadb104	0.08481029
180	0x3c238eed	0.009982807
181	0xbe2c2451	-0.16810729
182	0x3dfa7f8e	0.122313604
183	0xbdf36b37	-0.11885684
184	0xbda38b77	-0.07985585
185	0xbe1685bb	-0.14699452
186	0xbd86f85f	-0.06590342
187	0x3ce05093	0.02738217
188	0x3ce092a2	0.02741367
189	0x3cbc9b3b	0.023023238
190	0xbdb8cb3f	-0.09023141
191	0xbd195b12	-0.037440367
192	0xbe3ac8b6	-0.18240628
193	0x3ddac49e	0.10682033
194	0x3b468a89	0.0030294976
195	0xbdb50136	-0.088381216
196	0x3d62214e	0.055207543
197	0xbe0d1777	-0.13778482
198	0x3ac9ab66	0.0015386164
199	0xbcdb50a1	-0.026771845
200	0x3de9a29b	0.11407968
201	0x3a86aabe	0.0010274274
202	0xbd9c7099	-0.07638664
203	0x3dcbcc32	0.099510565
204	0xbd3e83fc	-0.04651259
205	0xbb3056cf	-0.002690721
206	0xbdcf28f8	-0.10115236
207	0xbdf9da0f	-0.121997945
208	0xbd8f2654	-0.069897324
209	0xbd83460e	-0.06409846
210	0x3db01870	0.08598411
211	0xbd698f68	-0.05702153
212	0x3de6e948	0.112749636
213	0x3de12b6d	0.10994611
214	0xbd3012e4	-0.042986766
215	0xbe015762	-0.1263099
216	0x3dc43119	0.09579677
217	0xbd9675e7	-0.07346707
218	0xbe249fa9	-0.1607653
219	0xbddbc535	-0.10730974
220	0xbdd38971	-0.10328949
221	0xbe2045ed	-0.15651675
222	0xbd62f1de	-0.055406444
223	0x3dd459e7	0.1036871
224	0x3d2f26a6	0.042761467
225	0x3da43e38	0.0801968
226	0xbdb2ab19	-0.087240405
227	0x3d90040e	0.07032023
228	0x3e10b9c4	0.14133364
229	0xbd8f1604	-0.06986621
230	0x3d1eb329	0.03874508
231	0xbdb9b988	-0.090685904
232	0x3e09aa75	0.1344393
233	0xbd173e4a	-0.036924638
234	0xbd4913fc	-0.049091324
235	0x3d529658	0.05141291
236	0x3d83729d	0.06418345
237	0xbdc679b9	-0.096911855
238	0x3d04b02f	0.032394584
239	0xbe1b4810	-0.15164208
240	0x3d31b5a0	0.0433861
241	0x3e031e07	0.12804423
242	0x3e16bbc5	0.14720066
243	0x3bcb4512	0.006203302
244	0x3dd1c1fc	0.10242078
245	0xbdb2235c	-0.086981505
246	0xbdeaa7ba	-0.114577726
247	0xbe2f5f59	-0.17126216
248	0x3e3b9845	0.18319805
249	0x3dca66c9	0.09882886
250	0xbd21d59b	-0.03951035
251	0xbdb05f3f	-0.08611917
252	0x3e06c147	0.13159667
253	0xbd742522	-0.059605725
254	0xbdd18ef3	-0.102323435
255	0x3dc36367	0.09540444
