pretrained_gnns/Pokecn_gae_gcn.pth (torch, 318544 bytes, 4 tensors)

conv1.bias f4 [256]
-0.007474252 0.00011950522 0.016591886 -0.013478626 0.004074691 -0.0015514882 -0.0075317333 0.0036147472
0.0023011276 0.00058520347 0.015970089 -0.0067035076 0.000306366 0.0033509252 -0.00057022995 0.021685937
-0.012196053 0.0061450386 0.02722339 -0.0053297817 -0.022029638 0.022523373 -0.007981648 0.01982913
0.015221555 -0.0109563 0.0021343585 0.019417495 -0.002403855 -0.0075296164 0.0056620846 -0.006706981
0.016009478 0.03636905 0.018923273 -0.0017851215 -0.018125024 -0.01601152 -0.016580649 0.004718282
0.0036872784 -0.0010845466 0.0056319465 -0.00093089347 0.004615068 -0.0037962627 -0.0037890298 0.0089297965
0.0046003717 -0.005327173 -0.022983672 0.023864593 -0.005754162 -0.005854936 0.004452901 0.009621236
0.008675344 -0.010958593 -0.00045228607 -0.004595872 -0.021297274 0.012937001 -0.003950192 -0.009061927
0.013196484 -0.0068209814 -0.0045128916 -0.00939371 0.0025622211 0.006772299 -0.001296596 0.0030540759
0.0056167664 0.0019901593 0.009708781 0.008086186 0.01761033 0.018267311 0.007755137 -0.005560486
-0.016230296 0.01581078 -0.020089569 -0.0013635557 0.005043329 0.001309935 0.0018316819 -0.00010316759
-0.012469726 0.0041487683 0.0024206003 0.0069487523 0.016619261 -0.008882921 0.018429644 -0.008126426
-0.008461052 -0.01099617 0.0018602307 -0.008006 0.002860086 -0.012713335 0.014687652 0.014378228
0.009291642 -0.005987317 -0.004495983 0.023186151 0.012183778 0.009648024 -0.00083928485 0.02962399
-0.00053296366 -0.01652771 0.010476682 0.015119362 0.0070922207 -0.0017783314 0.016995994 0.029413523
0.022214895 0.01890394 -0.014540955 -0.005160591 -0.007966017 -0.0046886746 -0.0013026269 0.02497118
0.01647305 -0.0035587552 0.007762463 -0.00029612475 -0.014182959 -0.002711594 0.001872341 0.02429425
-0.0044506704 0.0107191745 -0.006939048 0.0030465918 0.007966411 0.0008994268 -0.00086086773 0.0017519821
-0.0112028625 0.018631622 0.01243716 0.013316776 -0.013010952 -0.001215484 0.021843966 0.017340751
-0.0033034512 0.022351338 0.031259466 0.0026960853 -0.012573407 0.009564492 0.00020116995 -0.014126534
-0.0053878357 -0.013961566 -0.0007455711 0.0017396978 0.010064894 -0.0058067576 0.0044434667 -0.007114436
0.01560756 0.026181221 -0.00573673 0.007823917 -0.009333813 -0.002661433 -0.0024502568 0.002657136
0.010077733 0.00978557 0.011759401 0.0058488077 -0.00081702205 -0.0045760046 0.0044630608 -0.004766529
0.0001627735 0.003975391 -0.01013339 -0.013853507 0.0054520234 0.011627546 -0.0014124032 -0.007868921
-0.009208863 -0.013750926 0.023461405 -0.00086575106 0.008223644 0.013898078 -0.0038302105 0.0094376085
-0.00411743 0.004003204 -0.0026846183 0.015199356 -0.009483574 -0.009530228 -0.010574749 -0.011395907
-0.003973526 -0.006995697 0.005444807 0.022195365 0.011102725 -0.006470899 0.0011557203 -0.0029011406
-0.001254594 -0.0005175679 0.021604668 0.010457228 -0.008907876 -0.00086041633 0.005927493 -0.01351484
-0.0035084626 -0.015907919 -0.0011833941 -0.00065190386 -0.00064314675 0.004678425 0.01241047 0.026815938
-0.0069018356 0.008772334 -0.00041985602 -0.007084317 0.004062353 0.012653531 -0.001719311 0.0047243573
0.015167054 -0.00075141 -0.0037615595 0.024063963 -0.0034287495 -0.018781196 0.0097588925 -0.008556395
0.0054418137 -0.02279087 0.0021712326 0.015716335 -0.00045384068 -0.009311776 0.004394871 0.002048712
00000000: 92ea f4bb e09e fa38 b5eb 873c 74d5 5cbc
00000010: fc84 853b 4e5b cbba c2cc f6bb 65e5 6c3b
00000020: 84ce 163b 5768 193a b4d3 823c 19a9 dbbb
00000030: c09f a039 329b 5b3b 7c7b 15ba b5a6 b13c
00000040: f4d1 47bc 525c c93b 9603 df3c 73a5 aebb
00000050: 8077 b4bc f082 b83c 75c5 02bc b370 a23c
00000060: d463 793c 0e82 33bc 98e0 0b3b 7011 9f3c
00000070: ff89 1dbb 00bb f6bb 0289 b93b 3cc6 dbbb
00000080: 4f26 833c b7f7 143d fb04 9b3c bdfa e9ba
00000090: ee7a 94bc 972a 83bc 24d4 87bc d19b 9a3b
000000a0: 44a6 713b 5827 8eba 318c b83b 3407 74ba
000000b0: ff39 973b b8ca 78bb 5f51 78bb 484e 123c
000000c0: b7be 963b 918f aebb 4148 bcbc ae7f c33c
000000d0: 698d bcbb c3da bfbb a4e9 913b 63a2 1d3c
000000e0: 0823 0e3c ac8b 33bc cf20 edb9 f898 96bb
000000f0: 9f77 aebc b7f5 533c 9d70 81bb 7a78 14bc
00000100: 1136 583c 8a82 dfbb e1e0 93bb 13e8 19bc
00000110: f0ea 273b 29ea dd3b 8bf2 a9ba e426 483b
00000120: da0c b83b 556d 023b 9411 1f3c ec7b 043c
00000130: 8a43 903c 54a5 953c ce1e fe3b bd34 b6bb
00000140: 66f5 84bc 9c85 813c e192 a4bc 56b9 b2ba
00000150: 8342 a53b 20b2 ab3a 0c15 f03a ae5b d8b8
00000160: d24d 4cbc 64f2 873b efa2 1e3b 5cb2 e33b
00000170: 1e25 883c ac89 11bc c4f9 963c b324 05bc
00000180: 39a0 0abc 4829 34bc fcd2 f33a 992b 03bc
00000190: 4870 3b3b 984b 50bc 7aa4 703c a992 6b3c
000001a0: f93b 183c 4131 c4bb 0a53 93bb e2f0 bd3c
000001b0: 789e 473c bf12 1e3c 7403 5cba 03ae f23c
000001c0: 96b6 0bba 1f65 87bc 64a6 2b3c 33b7 773c
000001d0: dc65 e83b e616 e9ba 2f3b 8b3c a1f4 f03c
000001e0: 03fc b53c 70dc 9a3c 303d 6ebc 2d1a a9bb
000001f0: e683 02bc 74a3 99bb e8bc aaba 5c90 cc3c
00000200: 7df2 863c 013a 69bb 425c fe3b 3141 9bb9
00000210: a45f 68bc 00b5 31bb 5769 f53a bc04 c73c
00000220: eed6 91bb 7a9f 2f3c f460 e3bb 54a9 473b
00000230: 8d85 023c 83c7 6b3a dbab 61ba c4a2 e53a
00000240: 368c 37bc 58a1 983c 3bc5 4b3c 9b2e 5a3c
00000250: e32b 55bc e050 9fba 1ef2 b23c 310e 8e3c
00000260: b77e 58bb 271a b73c ed09 003d ceb0 303b
00000270: b100 4ebc 63b4 1c3c 26f1 5239 fa72 67bc
00000280: 718c b0bb 0dbf 64bc 6e72 43ba 9206 e43a
00000290: 3ae7 243c 9d46 bebb 809a 913b 3720 e9bb
000002a0: dab6 7f3c 007a d63c 2efb bbbb e32f 003c
000002b0: d9ec 18bc 706b 2ebb 7d94 20bb 5823 2e3b
000002c0: 131d 253c a853 203c 81aa 403c 5ba7 bf3b
000002d0: 6c2d 56ba 4ff2 95bb de3e 923b 8b30 9cbb
000002e0: 2eae 2a39 ff43 823b 8506 26bc d2f9 62bc
000002f0: e3a6 b23b 7681 3e3c 6320 b9ba a6ec 00bc
00000300: c5e0 16bc 904b 61bc 2232 c03c 92f3 62ba
00000310: 77bc 063c c4b4 633c 4504 7bbb 33a0 1a3c
00000320: 82eb 86bb 4f2d 833b 6cf0 2fbb b806 793c
00000330: fe60 1bbc ac24 1cbc b641 2dbc e6b5 3abc
00000340: 5a34 82bb 293c e5bb 5a6a b23b 0ed3 b53c
00000350: 34e8 353c d609 d4bb 8a7b 973a 1021 3ebb
00000360: 3071 a4ba 65ad 07ba 46fc b03c cb54 2b3c
00000370: 57f2 11bc 908d 61ba 6a3b c23b 596d 5dbc
00000380: 3cee 65bb 5351 82bc 1e1c 9bba 87e4 2aba
00000390: d998 28ba 794d 993b 4955 4b3c 19ad db3c
000003a0: cb28 e2bb d6b9 0f3c 1f20 dcb9 8f23 e8bb
000003b0: 7d1d 853b c150 4f3c 815a e1ba c8ce 9a3b
000003c0: 3c7f 783c 46fa 44ba 7f84 76bb ca21 c53c
000003d0: dfb4 60bb 06db 99bc c3e3 1f3c 1f30 0cbc
000003e0: 3e51 b23b ebb3 babc 3d4b 0e3b 8bbf 803c
000003f0: 77f1 edb9 6b90 18bc da02 903b af43 063b

conv1.lin.weight f4 [256, 276]
0.14004993 0.038629133 -0.069252454 -0.08706213 0.076948956 0.04434863 0.06893948 0.09654995
0.0929928 0.076250516 0.052120067 0.023544233 0.036920857 0.035421222 0.041384365 0.014822127
0.070104636 0.06134878 0.01707891 0.088225104 -0.10986085 0.022072963 0.09683919 0.05219799
-0.04306621 -0.07057098 0.021912325 0.08927741 -0.0047735227 -0.026475612 0.06283375 -0.03970282
0.056779057 -0.0074926037 0.007404831 0.029003669 -0.0077013406 -0.008098452 -0.05587934 -0.078120865
-0.09559282 0.08899008 0.0918206 0.062921 0.030931309 -0.012288295 -0.022466497 -0.0062836497
-0.014731833 -0.0061395857 -0.055652216 0.089722425 -0.036942657 0.050118152 -0.06378768 0.051566873
-0.09638403 -0.06740664 0.036448456 0.07613942 0.03287643 -0.083785206 0.047578894 -0.07385261
-0.07349288 -0.06526912 0.07669125 -0.08963021 -0.030598905 -0.021439472 -0.0875318 -0.11738155
-0.071334675 -0.0077738687 -0.11446233 0.009424917 -0.063931055 0.082578376 -0.082452804 0.0018070738
-0.0739399 0.08549196 -0.09528312 -0.05263299 0.031408545 -0.0091545675 -0.07122233 -0.09380942
-0.07230374 -0.07037737 -0.08830449 0.0086620785 0.031425763 0.020716043 -0.05054563 -0.036052227
0.09261423 -0.09308785 0.07852086 0.05384311 -0.09712276 0.024344329 0.076697975 -0.041902106
-0.06966248 -0.034635577 0.03909202 -0.060635675 -0.066129334 0.04695266 0.06646149 -0.0007009969
0.014609691 0.008899174 -0.01881689 -0.05105729 -0.08532043 -0.027799468 -0.03001314 0.08629373
0.004469979 -0.10886517 0.10052347 -0.09522721 -0.013631931 -6.0991068e-05 0.07965897 -0.106333956
0.07656531 0.029125312 -0.018877948 -0.0004616353 -0.013774107 0.09273273 -0.027068015 0.06043506
-0.107012 -0.01985899 0.028050318 -0.0090293 -0.054816503 0.045029446 0.09053433 0.09665364
-0.048286736 0.02993416 -0.0069767954 -0.08260241 0.07612448 0.05997201 0.058960903 0.00090966094
-0.08251261 0.026004057 0.067878544 -0.021859169 0.07727259 -0.104071245 -0.06863021 0.08274942
-0.07172584 -0.07332984 0.083041504 -0.010978946 0.08613909 0.064501494 0.09951256 0.07470449
-0.052029233 -0.03414398 -0.04961448 -0.034730524 0.025482463 -0.057059065 -0.061569273 -0.06733853
0.012619545 -0.048392277 -0.038339317 -0.019772006 -0.058765806 -0.05664167 -0.078816734 -0.06171469
-0.10999912 -0.08368213 0.079550445 0.050777227 -0.020505952 0.054597516 -0.061771344 -0.06939888
0.06948732 -0.09085008 0.02440765 -0.07668141 0.035186682 -0.0046826587 -0.0027362083 0.00306432
-0.05110529 -0.08218865 -0.0757389 0.017535042 -0.025818778 0.001321226 -0.022634028 -0.010021096
0.062890075 -0.060559455 0.019379195 0.0286589 -0.08547912 0.02092728 -0.043632217 0.050528433
0.06379667 0.07103104 0.05086019 0.103000276 0.024873938 0.06439767 -0.070368536 0.0670753
0.09941245 0.03910339 -0.023661172 -0.012063054 0.028492382 0.07863793 0.06489479 -0.045097277
0.07731188 0.024962706 -0.08599026 -0.036460392 -0.043339446 0.011032786 0.057068296 0.02844151
0.047490902 0.051702313 0.0130026955 -0.09703038 -0.020298665 -0.07571929 0.094632156 -0.106636785
-0.0034467762 -0.0007632044 -0.0900205 0.028509235 -0.07710996 0.10201858 -0.090883 0.061249405
00000000: 4069 0f3e 9539 1e3d 3bd4 8dbd a14d b2bd
00000010: 6a97 9d3d e9a6 353d 2430 8d3d fbbb c53d
00000020: 0273 be3d 3b29 9c3d da7b 553d d6df c03c
00000030: 533a 173d d815 113d a782 293d 82d8 723c
00000040: 0593 8f3d dc48 7b3d 12e9 8b3c 5daf b43d
00000050: bafe e0bd 5cd2 b43c a053 c63d 8fcd 553d
00000060: 3266 30bd 8587 90bd 7a81 b33c 13d7 b63d
00000070: 366b 9cbb 62e3 d8bc fbae 803d 6d9f 22bd
00000080: 2891 683d 8484 f5bb 39a4 f23b 1a99 ed3c
00000090: 875b fcbb 5faf 04bc bce1 64bd d5fd 9fbd
000000a0: 2bc6 c3bd 6e40 b63d 700c bc3d badc 803d
000000b0: a863 fd3c d854 49bc a90b b8bc 13e7 cdbb
000000c0: c95d 71bc 942e c9bb 94f3 63bd 64c0 b73d
000000d0: 2f51 17bd b148 4d3d 1da3 82bd c937 533d
000000e0: fe64 c5bd 7e0c 8abd fa4a 153d fcee 9b3d
000000f0: 6fa9 063d 9497 abbd 16e2 423d 0a40 97bd
00000100: 6f83 96bd d1ab 85bd 4d10 9d3d 0b90 b7bd
00000110: 8eaa fabc d5a1 afbc df43 b3bd bd65 f0bd
00000120: ea17 92bd f0bb febb 3a6b eabd f86a 1a3c
00000130: 49ee 82bd da1e a93d 04dd a8bd 56db ec3a
00000140: cd6d 97bd 6916 af3d cc23 c3bd b195 57bd
00000150: 3fa6 003d 0afd 15bc 03dd 91bd 271f c0bd
00000160: fc13 94bd 0322 90bd fcd8 b4bd 64eb 0d3c
00000170: 4db8 003d b1b4 a93c ef08 4fbd 80ab 13bd
00000180: 88ac bd3d d8a4 bebd 8bcf a03d 988a 5c3d
00000190: 4ce8 c6bd c26d c73c d413 9d3d 8ba1 2bbd
000001a0: 34ab 8ebd 09de 0dbd f41e 203d 1d5d 78bd
000001b0: d16e 87bd 6f51 403d f61c 883d 1bc3 37ba
000001c0: 7c5d 6f3c d7cd 113c e125 9abc 7321 51bd
000001d0: 7abc aebd b6bb e3bc 1ede f5bc c4ba b03d
000001e0: e778 923b b4f4 debd 40df cd3d 7c06 c3bd
000001f0: 7658 5fbc a9d0 7fb8 3e24 a33d 9ec5 d9bd
00000200: 46ce 9c3d 3598 ee3c eda5 9abc a407 f2b9
00000210: cbac 61bc a8ea bd3d bebd ddbc c18a 773d
00000220: 1c29 dbbd 52af a2bc c8c9 e53c a1ef 13bc
00000230: 4587 60bd cc70 383d 106a b93d 58f2 c53d
00000240: 50c8 45bd 7c38 f53c 9a9d e4bb 742b a9bd
00000250: 27e7 9b3d 36a5 753d fd80 713d 5076 6e3a
00000260: 5ffc a8bd 7606 d53c e803 8b3d 0012 b3bc
00000270: 1741 9e3d 4e23 d5bd ff8d 8cbd 8778 a93d
00000280: ffe4 92bd f52d 96bd aa11 aa3d 0ae1 33bc
00000290: b169 b03d 5c19 843d 3ecd cb3d abfe 983d
000002a0: 9b1c 55bd 8fda 0bbd 8e38 4bbd 9841 0ebd
000002b0: 99c0 d03c c4b6 69bd 1030 7cbd c9e8 89bd
000002c0: 35c2 4e3c fb36 46bd b009 1dbd e7f8 a1bc
000002d0: 6ab4 70bd 1901 68bd ab6a a1bd 8bc8 7cbd
000002e0: 3847 e1bd 8961 abbd 58eb a23d c8fb 4f3d
000002f0: 19fc a7bc a5a1 5f3d f303 7dbd 0021 8ebd
00000300: 5e4f 8e3d 9b0f babd 8df2 c73c 250b 9dbd
00000310: e91f 103d fd70 99bb f551 33bb c2d2 483b
00000320: c853 51bd 8652 a8bd ff1c 9bbd a6a5 8f3c
00000330: e781 d3bc fd2c ad3a ff6a b9bc 862f 24bc
00000340: 83cc 803d 310d 78bd 1ec1 9e3c 12c6 ea3c
00000350: ad0f afbd b06f ab3c b2b7 32bd e7f6 4e3d
00000360: d4a7 823d b978 913d c652 503d cff1 d23d
00000370: 6ec4 cb3c ede2 833d 611d 90bd c65e 893d
00000380: c198 cb3d e02a 203d 13d5 c1bc 1ea4 45bc
00000390: db68 e93c ec0c a13d 8fe7 843d ecb7 38bd
000003a0: b155 9e3d 977e cc3c a91b b0bd 7e57 15bd
000003b0: b484 31bd dcc2 343c 72c0 693d 2bfe e83c
000003c0: d285 423d cec5 533d 4209 553c ddb7 c6bd
000003d0: 6349 a6bc b712 9bbd 81ce c13d 6364 dabd
000003e0: 4fe3 61bb c811 48ba ab5c b8bd 338c e93c
000003f0: d4eb 9dbd 1eef d03d de20 babd a8e0 7a3d

conv2.bias f4 [32]
0.022123458 0.003984484 -0.024153959 -0.025556063 -0.018185202 0.035262696 0.018811148 -0.023964554
-0.021869587 -0.0044015935 0.01518803 0.0011552346 0.017381324 -0.008038785 0.015294472 -0.011663657
-0.010701403 0.009337554 -0.03216121 0.020565033 0.020534303 -0.037719905 -0.016865773 0.0039678966
-0.027567407 -0.020067653 0.012174929 -0.016066646 -0.008758518 -0.023327136 0.0019428803 0.029650966
00000000: 413c b53c 4690 823b 86de c5bc f35a d1bc
00000010: 22f9 94bc 9e6f 103d d619 9a3c 5051 c4bc
00000020: d927 b3bc 3e3b 90bb 37d7 783c 3e6b 973a
00000030: 4763 8e3c 1cb5 03bc aa95 7a3c ec18 3fbc
00000040: f054 2fbc 8afc 183c 79bb 03bd 0078 a83c
00000050: 8e37 a83c 3080 1abd 172a 8abc 2105 823b
00000060: 0bd5 e1bc eb64 a4bc 5a79 473c 339e 83bc
00000070: e37f 0fbc 8d18 bfbc 3fa8 fe3a 95e6 f23c

conv2.lin.weight f4 [32, 256]
-0.07784239 -0.040433504 0.124063775 -0.12412514 0.023371248 0.10168114 0.037064172 0.10688782
0.007957228 -0.09139459 0.070201755 0.016527172 -0.10725661 -0.1054136 -0.10757841 -0.047592986
0.13826708 -0.022329384 -0.0577454 0.023959806 0.025462404 -0.07880487 0.0060926476 -0.035970945
0.11933802 -0.09824432 0.11013078 0.06030164 -0.023713015 -0.13884175 0.0959956 -0.118167855
0.07104036 0.011138442 0.105889484 0.11755596 -0.07412747 0.06341431 0.15862392 0.013797282
-0.141542 0.008849125 0.008554345 -0.13845237 0.0043214737 -0.037832275 0.060040556 -0.04044029
0.1665563 -0.09364933 -0.118496165 0.12136297 -0.08730737 -0.13892959 -0.094290726 -0.034657083
-0.05703031 0.11377789 -0.13658796 -0.096453264 -0.07272803 -0.103899956 -0.03041585 0.009815906
0.13619946 -0.054417145 0.04923303 0.103594564 0.014475125 0.09065504 -0.063348085 0.056453057
0.10804299 0.08376253 0.090947814 -0.03705736 0.058751155 0.020335488 -0.10709141 -0.021620445
-0.13124877 0.12192499 -0.07351364 0.0465141 -0.014596463 0.007946671 -0.04224428 -0.0064502642
-0.07529806 0.10066995 -0.15157317 0.07988996 0.11774234 0.0071062767 0.16429016 -0.089119956
0.002130097 0.06910333 0.107877836 0.138956 -0.054904185 0.078216664 0.06477086 0.12197068
-0.037784945 -0.009006901 0.12880924 0.09159836 -0.063269444 0.010671405 0.09397865 0.15732703
-0.11994537 -0.054016158 0.13711803 0.12291969 0.11420332 0.03268197 -0.03498634 0.06255656
0.12809381 0.1831625 -0.13054097 -0.117653094 -0.057515897 0.113484055 -0.07860219 0.075467736
-0.11801534 -0.08790777 -0.012332498 -0.095530316 0.09353082 -0.020954728 0.03583241 0.0076506697
0.11350541 0.14490749 0.16734605 -0.012468714 -0.06878896 -0.0718762 0.093652 0.05850282
0.08647033 0.036398888 0.14079478 0.0057515986 -0.02715481 0.054699797 0.07638379 -0.027902974
-0.09073361 -0.020765292 0.073214784 -0.054907445 -0.057795722 0.04552479 -0.049623113 -0.101890415
0.12870693 -0.081012316 -0.024892101 -0.035230525 -0.053090893 -0.09390264 0.056249358 0.03152093
-0.013362957 0.15469037 -0.04445353 0.10721827 -0.10561407 0.020631857 -0.006894992 0.06670088
-0.09271814 -0.12841126 -0.05994332 -0.10180158 -0.010684296 -0.032419134 0.14166373 0.031134885
0.023348697 -0.030481836 -0.11237597 -0.06621043 -0.01570842 0.107919045 0.107627146 0.10868192
0.0255865 -0.11600664 -0.09608717 0.07666533 0.068008706 0.05848805 0.1265936 0.14905305
0.027399564 0.13252205 0.10605271 0.13911204 -0.010303629 -0.083479695 -0.084727935 0.095547736
-0.10843662 -0.08992964 -0.02470547 -0.005719116 -0.0690662 0.03648029 0.069412224 -0.12748334
-0.05096387 0.13322791 0.035539076 0.15039687 -0.06363574 0.10384901 0.033908393 0.082463674
-0.092238635 0.0036514662 -0.055949368 0.030246248 -0.07762975 0.124318175 -0.08778071 0.14391667
0.10174671 -0.109871574 0.10240003 -0.12565835 0.0018904202 0.14476112 -0.10733588 -0.07345771
-0.033754777 -0.075057834 -0.04917186 0.1334659 -0.09185365 0.07020418 0.041179147 -0.114800826
-0.0034611507 0.059571527 -0.007848984 -0.10663797 0.052425418 0.031637147 0.049298804 0.06587397
00000000: d56b 9fbd 9a9d 25bd 2615 fe3d 5235 febd
00000010: 0f75 bf3c 343e d03d 9ad0 173d 00e8 da3d
00000020: 095f 023c 162d bbbd f0c5 8f3d fe63 873c
00000030: 5ba9 dbbd 16e3 d7bd 1252 dcbd ddf0 42bd
00000040: e395 0d3e 1dec b6bc 7186 6cbd 5b47 c43c
00000050: 8896 d03c 7364 a1bd d5a4 c73b 4556 13bd
00000060: 7e67 f43d 5134 c9bd 3f8c e13d dafe 763d
00000070: cc41 c2bc 882c 0ebe 5799 c43d fd01 f2bd
00000080: 9c7d 913d 037e 363c 96dc d83d 2ec1 f03d
00000090: 25d0 97bd 5ddf 813d 4f6e 223e ff0d 623c
000000a0: 63f0 10be ecfb 103c 8627 0c3c 75c6 0dbe
000000b0: 269b 8d3b 04f6 1abd 16ed 753d b8a4 25bd
000000c0: bc8d 2a3e 38cb bfbd 1eae f2bd 268d f83d
000000d0: 35ce b2bd 8f43 0ebe 7f1b c1bd 96f4 0dbd
000000e0: 9d98 69bd 6204 e93d b7dd 0bbe 4a89 c5bd
000000f0: 6ff2 94bd 80c9 d4bd a92a f9bc e5d2 203c
00000100: df77 0b3e 83e4 5ebd 93a8 493d 6329 d43d
00000110: 1329 6d3c 5aa9 b93d a4bc 81bd 523b 673d
00000120: a545 dd3d b08b ab3d d942 ba3d 75c9 17bd
00000130: 0da5 703d 9c96 a63c be52 dbbd 5c1d b1bc
00000140: 1466 06be cfb3 f93d 528e 96bd 9285 3e3d
00000150: 0126 6fbc c132 023c 5708 2dbd bd5c d3bb
00000160: df35 9abd 0c2c ce3d ff35 1bbe 599d a33d
00000170: e522 f13d c5db e83b ae3b 283e 8684 b6bd
00000180: 1999 0b3b 0c86 8d3d 0eef dc3d 7b4a 0e3e
00000190: 36e3 60bd 0f30 a03d 96a6 843d c4cb f93d
000001a0: 63c4 1abd ae91 13bc 92e6 033e ec97 bb3d
000001b0: 6993 81bd 1ed7 2e3c e177 c03d 561a 213e
000001c0: eba5 f5bd 0c40 5dbd ab68 0c3e 52bd fb3d
000001d0: 6ee3 e93d 88dd 053d d64d 0fbd a71d 803d
000001e0: 062b 033e f38e 3b3e 88ac 05be 1bf4 f0bd
000001f0: ca95 6bbd 546a e83d 2ffa a0bd d48e 9a3d
00000200: 07b2 f1bd fd08 b4bd 3f0e 4abc 66a5 c3bd
00000210: 168d bf3d 40a9 abbc 01c5 123d 78b2 fa3b
00000220: 8675 e83d a162 143e c35c 2b3e 9449 4cbc
00000230: 3ae1 8cbd d433 93bd 9fcc bf3d a7a0 6f3d
00000240: 5b17 b13d 0017 153d 822c 103e e877 bc3b
00000250: c473 debc e50c 603d 1b6f 9c3d c794 e4bc
00000260: 8bd2 b9bd f91b aabc a2f1 953d a1e6 60bd
00000270: 35bb 6cbd 3478 3a3d 9b41 4bbd ecab d0bd
00000280: c0cb 033e c9e9 a5bd 85ea cbbc e24d 10bd
00000290: d675 59bd 0750 c0bd ba65 663d 171c 013d
000002a0: 4ef0 5abc 2767 1e3e e814 36bd 4195 db3d
000002b0: 314c d8bd 2404 a93c 63ef e1bb 799a 883d
000002c0: 02e3 bdbd 3e7e 03be 2087 75bd 597d d0bd
000002d0: 2f0d 2fbc edc9 04bd 4c10 113e 960e ff3c
000002e0: c445 bf3c 0bb5 f9bc 5f25 e6bd 5599 87bd
000002f0: f2ae 80bc a904 dd3d 9f6b dc3d a094 de3d
00000300: c89a d13c e494 edbd 5ac9 c4bd b602 9d3d
00000310: 2648 8b3d 2a91 6f3d c1a1 013e 5da1 183e
00000320: 0d75 e03c dcb3 073e 2a32 d93d 6373 0e3e
00000330: 8dd0 28bc 67f7 aabd d785 adbd 88ae c33d
00000340: 0514 debd 082d b8bd 2063 cabc 6c67 bbbb
00000350: 9472 8dbd 5b6c 153d ff27 8e3d fe8a 02be
00000360: 7ebf 50bd e66c 083e 6c91 113d a301 1a3e
00000370: 7453 82bd caae d43d 87e3 0a3d b7e2 a83d
00000380: 9ce7 bcbd 704d 6f3b 2a2b 65bd fbc6 f73c
00000390: 59fc 9ebd 879a fe3d 5fc6 b3bd e45e 133e
000003a0: 9460 d03d 5904 e1bd 1bb7 d13d 95ac 00be
000003b0: fac7 f73a 423c 143e ead2 dbbd ff70 96bd
000003c0: 7342 0abd ecb7 99bd 6f68 49bd 49ab 083e
000003d0: c41d bcbd 36c7 8f3d 77ab 283d b21c ebbd
000003e0: 79d4 62bb 4601 743d 0699 00bc 0265 dabd
000003f0: 09bc 563d f495 013d 8bed 493d efe8 863d
