pretrained_gnns/Pokecn_graphcl_gcn.pth (torch, 318888 bytes, 4 tensors)

conv1.bias f4 [256]
00000000: d161 083d c13a 953d b8e3 edb9 8370 053d
00000010: b83b 4e3c 9a62 55bc 8b3e 623d a9e0 863d
00000020: 4bd4 a6bb bb79 533c 1409 ad3b decd b03d
00000030: 60fd 67bc efc9 e33c 2f01 013d e26c 7cbc
00000040: 4b8b 403b 01d8 01bb 4701 b23d 3e11 e53c
00000050: 271a 37bc e17f 813d f2bf 183d a505 7abc
00000060: 48b5 0ebd ba9a 9d3d 6b6b 2a3d 9abc 743d
00000070: 2a2c 54bc 80d6 97bc f37a 773d e2b1 993c
00000080: 69f1 063d 989f e43a 0c3b b23b a6b5 ec3c
00000090: 9861 bfbb 009c babb 7c6a bf3c d8ef 4abd
000000a0: 2e06 ac3c 5e98 bf3b 026a c53c e6c4 2dbd
000000b0: 9e73 183d b488 523a d634 83bc 7496 0dbb
000000c0: b132 6e3d 1f4a 843c 4b15 dbbc 7f6b a03c
000000d0: 7a72 85ba d970 213c b27a cb3c 35e5 fe3c
000000e0: 68a6 893d ae21 73ba d28b 5f3d 3756 29bd
000000f0: ec21 8f3d 356d 1d3d 8622 9a3d 665a cebb
00000100: 3ba4 ab3c 3a6d 843c af3d a03c e8c9 79bc
00000110: 704d 193d f93a 7b3d 76a9 87ba 499c 813d
00000120: 72fc 29bd f9df 13bb 1a59 043c 73a7 ae3d
00000130: b817 70bc e125 d33a f33e d4bc f95a 053c
00000140: 43bd 303d f93d 823c 4b49 57bc 4091 963c
00000150: 7bbf 7b3d 9c8d b53c ab28 723c 7ed6 003d
00000160: 8e19 b4bc 0510 713d 16b3 d03c 0696 093d
00000170: ec3a bbbb 1e24 ba3c 38f8 563d 74b9 903c
00000180: 5ebf 863b ff55 22bd 6098 bb3c 1c5f 593c
00000190: ff9f 913c 3a18 083d c5c1 393c 32fe e83c
000001a0: 9ade c138 a3ba 64bc 0ef9 f83c 571d 903c
000001b0: e86f 0c3d 5c20 1b3d ad08 963d 73cf 763c
000001c0: f11b 6d3c 6c02 d1bb be1f 3a3b 5792 64ba
000001d0: f019 14bd 3a38 973d 0048 103c 5850 173d
000001e0: a349 7c3c 9198 863d 0d61 163d 0e91 8b3d
000001f0: d77c b0bb f89c 8dbb 95d5 763c c9e2 1bbd
00000200: 8f0d d73c 98d5 783c ed97 87bb caca 003c
00000210: 334f 763c 03e6 8c3d b0c4 0ebd 0637 be3b
00000220: b4d1 8d3d fcbb 22bb 769b db3c 8513 863b
00000230: 44c4 883c d614 0cbb 91b9 bcbc 3d27 0b3d
00000240: ea01 7a3c 9183 273d a6bd 09bd edc2 b1bc
00000250: 67bf 1b3d eedd e23c bda6 6fbb 98df 063c
00000260: 8e4b b53c 421d 6c3c 90eb 0a3d 8a29 453c
00000270: ff8a c2bb 7f6a 353d 52d2 b63b 1bb8 303d
00000280: 79f5 8e3c 228f 10ba 2e34 a73c 1ed8 b3bc
00000290: f27e 8b3c ed84 333d 3b2b 5abc 9e91 25bb
000002a0: 2f9d f53c 6436 853c edad d33c e402 a3bc
000002b0: 2d82 443d 41bf 8a3d 74ae 9f3d f329 4e3c
000002c0: 6f36 a73c 4a06 db3c a21c 773d 88b6 d13c
000002d0: 18bd 44bb 3133 ba3c a16f 443b 8dc1 4abc
000002e0: dbf8 bebc 3e0b 4c39 5f47 4a3d be41 823c
000002f0: c6b0 c2bc 28be 893c 3ff9 aa3c aa7a 4fbb
00000300: e6a3 c4bc 79a4 163d 935e ff3b ce5b 69bc
00000310: c209 c5bc 92b6 833c 2b9e 8f3c e0bb 1fbd
00000320: 5c18 773d 0b89 9b3d f946 833c ddfe 363c
00000330: 0215 f4bc 11f2 6abb 3802 a73d 3992 b83d
00000340: 0858 4f3d 7b70 163c 6896 a0bb e18f 8a3c
00000350: c3a1 383c ba11 5e3c 486e 723b 392c 3c3c
00000360: 940c 243c 9f46 7a3d c497 a53d a568 553d
00000370: ec33 113d db21 8a3d 10c4 143d 8032 fa3c
00000380: 8e9b 2d3d 016f 1ebc bb96 b93c 9964 2a3d
00000390: 9ecc bb3c a60c 963d 0081 3d3d bdda 053d
000003a0: 32fd c83c b486 013d 5d9a bf3c 6cf9 393d
000003b0: 4ff9 27bc 5237 ca3c f6ba 8c3d 19f4 a23b
000003c0: 2973 27bd b015 03bd af8d a73c 4259 793c
000003d0: aa6b 9e3c dfb4 693d a59b 45bc 9e1c f43c
000003e0: 51fe cfba 67e8 c6bb 279a 433d 737a 863b
000003f0: 0b50 023c d4fb 603a 4785 a43c a009 a13c
0.03329641 0.07286597 -0.00045373826 0.032578003 0.01258748 -0.013023997 0.055235427 0.06585819
-0.0050912253 0.012907441 0.005280623 0.08633016 -0.01415953 0.02780625 0.03149527 -0.015406819
0.00293799 -0.0019812586 0.0869165 0.027962323 -0.011175669 0.06323219 0.03729243 -0.015260135
-0.034840852 0.076955274 0.041606348 0.059750177 -0.012949983 -0.018534899 0.060419988 0.018761579
0.03294507 0.0017442582 0.005439168 0.02889521 -0.0058404915 -0.005694866 0.023366205 -0.04954514
0.02099904 0.005847021 0.0240984 -0.042424105 0.037219636 0.00080312346 -0.016016405 -0.002160457
0.05815381 0.016148625 -0.026743552 0.019582508 -0.0010181211 0.009853565 0.02483878 0.031115154
0.067211926 -0.0009274733 0.054576702 -0.041341987 0.06988892 0.038434226 0.07526116 -0.0062973974
0.020952335 0.016165365 0.019560663 -0.015245892 0.037427366 0.061335538 -0.0010350186 0.06328637
-0.041500516 -0.0022563918 0.008077884 0.08528032 -0.0146540925 0.0016109311 -0.025908923 0.008139365
0.043149244 0.015898691 -0.013140033 0.018379807 0.061461907 0.022162251 0.014780204 0.031454556
-0.021984842 0.058853168 0.02547602 0.03359034 -0.005713811 0.0227223 0.052482814 0.017666556
0.004112168 -0.039632794 0.022899806 0.013267305 0.017776487 0.03322623 0.011337702 0.028441522
9.24442e-05 -0.013960513 0.030392196 0.017592115 0.03428641 0.037872657 0.073258735 0.015064108
0.014471994 -0.0063784625 0.0028400267 -0.0008719316 -0.03615755 0.07383771 0.008806229 0.036941856
0.015398416 0.065720685 0.03671365 0.06814776 -0.005385976 -0.0043216906 0.01506557 -0.038058076
0.026251582 0.0151876435 -0.004137984 0.007860849 0.015033531 0.06879809 -0.034855545 0.005804899
0.06924763 -0.0024831286 0.026807528 0.0040916824 0.01669515 -0.0021374724 -0.023037704 0.033972967
0.015259245 0.040896956 -0.03362813 -0.021699393 0.038024332 0.027693715 -0.003656789 0.00823202
0.022130754 0.0144112725 0.033916056 0.012033829 -0.00593698 0.044291016 0.0055792714 0.043144327
0.017451035 -0.00055144925 0.020410623 -0.021953639 0.017028306 0.04382794 -0.013315971 -0.0025263797
0.029982178 0.016261287 0.02583977 -0.01989884 0.047975708 0.0677476 0.07796946 0.012583244
0.020411698 0.026736397 0.06033004 0.025599733 -0.0030019935 0.022729488 0.0029973763 -0.012375248
-0.023312023 0.00019459144 0.04938447 0.015900489 -0.023765933 0.016814306 0.020870803 -0.0031658807
-0.024003934 0.036777947 0.0077932565 -0.014243079 -0.024052504 0.016078267 0.017531475 -0.03899753
0.060325965 0.07594498 0.016025053 0.011169163 -0.029795174 -0.003584985 0.0815472 0.09012265
0.050621063 0.009182091 -0.0049007423 0.01691431 0.011269036 0.013554031 0.0036992002 0.011485153
0.0100127645 0.061102506 0.080855876 0.05210175 0.035449907 0.06744739 0.036319792 0.030541658
0.042384677 -0.00967002 0.022654882 0.041599844 0.022924718 0.07326631 0.046265602 0.03267931
0.024534795 0.031622604 0.023389036 0.045403883 -0.010252311 0.024684582 0.068715975 0.0049729464
-0.04088131 -0.032003105 0.020453302 0.015219035 0.019338448 0.057057258 -0.012061034 0.029798802
-0.0015868639 -0.006070185 0.047754433 0.0041039526 0.007953654 0.0008582447 0.020083083 0.01965791

conv1.lin.weight f4 [256, 276]
00000000: f365 8bbc 8899 823c a093 803d c96a 3639
00000010: fe34 3ebd 0c9c 27bd abff e1bd 3b84 8a3d
00000020: 8676 d4bd d4b4 e8bc 998c 393c 9825 2ebd
00000030: d7ad 32bd 6841 943a 2966 893d e9fa f13c
00000040: a6e4 07bc d6c4 86bd 9b12 fabb 07d6 c03d
00000050: 1e01 9f3d 00a2 d13d 3d52 08bd 04e7 9fbc
00000060: dd48 55bd de9c 9a3d 66b4 33bd 4ab6 a63b
00000070: ce6d 00bd db50 46bd 0fbb b23d d176 953d
00000080: 03ef b33c ff31 9cbc 1ace 88b9 df5d 98bc
00000090: ba6c e9bd 0ca4 23bd c5b0 743d ba26 0cbe
000000a0: 25e7 00bc 6052 5d3d 62cd 9b3d f30d c03d
000000b0: ac51 9ebd ae7e 643d 5541 793d a868 a03d
000000c0: fa0a 8a3d 8a43 b93a 909c d43a a518 673a
000000d0: f5ae 5d3d d9d2 763d 9fc3 3ebd 6688 fa3c
000000e0: 0fa4 cd3a 6036 1cbe 82a3 16bd f9cd e53d
000000f0: e704 75bd fb9c c5bc fd64 afbd 6e20 b43d
00000100: e69d 6f3b 0903 f93c a7af ddbc 3332 49bd
00000110: dc89 8fbd 6fb6 22bd cd1e 1c3d 8b52 5cbd
00000120: 3f3f 953d d2f5 5fbb 4d05 643d 3c34 6bbd
00000130: cf58 9abd 72cb b9bd 9325 dfbd 65d3 9b3c
00000140: 6fd1 60bc c00e 2b3d 1c2c 003e 6226 16bd
00000150: a33e 9e3d 59fb 863d 0c7d aa3d 2053 0d3d
00000160: 6c51 efb8 8dd7 d63d ef1d 473d 8b7a 533d
00000170: a4d3 8c3d 4a87 85bc deca 9cbd 1b26 013d
00000180: 844b 85bd 60fc 443d abd8 873d 5e2c febb
00000190: cafc ca3d ddc5 a7bd 8a5b 7e3c 7957 5bbd
000001a0: cb32 3b3d 250c 57bc 14ef 83bb 47e6 90bd
000001b0: cd42 c4bc 26f9 79bd 0cf0 d0bd 4fe3 f93c
000001c0: f927 62bd ef47 8b3c 288c 1f3d d02e 83bd
000001d0: f50a 1ebd fb84 ce3d ef6e c53c f6ae 423d
000001e0: b6cd 5ebd 754c 82bd 0168 a2bd 6d3a 423d
000001f0: 184a a8bd c0c2 95bc 1a30 5dbd 525b bfbd
00000200: 75ec 253d c92b 0a3e 3cfc b6bd 36c4 073e
00000210: 0e1b c33c d6eb 22bd cbcb 183d b487 273d
00000220: 84b7 363d b4dc d7bb 78a6 373b a073 b1bd
00000230: f773 e03d 6297 28bd ce97 eb3d 1282 b33d
00000240: c2a8 0cbe 983b 7dbd 4cda a93d be8d 383d
00000250: 3332 d93d 4f04 dc3d a8f8 3d3d 5076 80bd
00000260: ea3e e13d d4b4 8cbc 66f6 e0bd 90e7 493d
00000270: 1593 aabd c9b8 ed3c 6d51 6f3d a943 993d
00000280: 98e0 563c 82d1 80bd d23c a93d dcb1 a4bd
00000290: 8ded a13d 1d8a c8bd 3263 8dbb 13ab 45bd
000002a0: 8362 25bd 1298 203d 7c24 02be 0808 8d3d
000002b0: 1654 b3bd fb23 ac3d e8fd 5ebb 0700 cfbd
000002c0: 03db adbd 9020 deba 2697 b03c 4aae d5bc
000002d0: 2aa1 14bd cbeb 503c 28ed 50bd 6d29 0cbd
000002e0: d408 f0bd 4e4c c8bd 9cc0 bf3d e6b1 06bd
000002f0: 9483 d23c 21e3 aabd ca58 e03d 06e6 91bd
00000300: 4a82 903a 70ba edbc 2346 82bd 4b1d f8bd
00000310: e30f 99bd 45e5 29bd e6ac 143d dedb edbd
00000320: 96e4 163d 9a83 723b 9b1e 933d 6509 163d
00000330: de90 e23c e155 3bbd 7148 f53c 10af aebd
00000340: 688c b63d 013f 42bd 1f1e 65bd dad8 813d
00000350: 2902 a73c 989d 5fbc d388 713c 4398 12be
00000360: 3d75 42bd d362 80bd 959a 03bc 1ff0 f93c
00000370: db39 c0bd 009e 42bd cbe1 e9bc 8abc 8b3d
00000380: 7e25 adbd 952e 4b3c f77f 983d 208b 043d
00000390: 1cae 733d 0fa6 413d f1c6 0f3d 449f f2bc
000003a0: 73b3 e53c 65ab b93d 712f 13be c0a3 993d
000003b0: fa5e 9ebd 11d5 763d 58be 963d 0ece 553d
000003c0: 8948 a8bc ac7f 68bc 2905 8c3c 48c5 a93d
000003d0: 42eb ffbc 166b 85bb 5e28 bc3c aa82 263d
000003e0: 77bb f0bd e108 44bd aa28 443d eba6 9e3d
000003f0: 3ed6 c73d 5f29 9fbd 4ff6 cebd 753c 16bd
-0.017016387 0.01594235 0.06278157 0.00017396653 -0.046437256 -0.040920302 -0.11035093 0.06763502
-0.10374169 -0.028406538 0.011325025 -0.04251632 -0.043622818 0.0011310996 0.06708939 0.029538589
-0.00829426 -0.06580512 -0.0076316125 0.094158225 0.07763885 0.10235977 -0.033281554 -0.019519337
-0.05207144 0.07549451 -0.043873213 0.0050876485 -0.031354718 -0.048416954 0.08727085 0.07298053
0.021964556 -0.019066809 -0.000260935 -0.018599449 -0.11397691 -0.03995137 0.059738893 -0.13686648
-0.007867609 0.054033637 0.07607533 0.093776606 -0.077304214 0.055784874 0.06085332 0.078324616
0.06740375 0.0014134508 0.0016220976 0.0008815623 0.05412193 0.060259674 -0.046573278 0.030582618
0.0015689152 -0.15255117 -0.036777027 0.11220927 -0.05981913 -0.024122706 -0.08564184 0.08795248
0.003656262 0.030396955 -0.027061297 -0.04912014 -0.070087165 -0.039724763 0.03811531 -0.053789657
0.07287454 -0.003417362 0.055669118 -0.05742286 -0.0753647 -0.09072007 -0.108958386 0.0190217
-0.013721808 0.041762114 0.12516826 -0.0366577 0.07726791 0.065909095 0.08324632 0.034503102
-0.00011411574 0.10490332 0.04861253 0.051630538 0.06876305 -0.016299862 -0.07655881 0.03153048
-0.06508544 0.048092246 0.06633123 -0.007756754 0.09911497 -0.08192036 0.015524754 -0.053550217
0.045702737 -0.013125454 -0.004026303 -0.07075172 -0.023957634 -0.061028622 -0.10202035 0.030503897
-0.055213902 0.017002074 0.038952023 -0.06405413 -0.03858467 0.10083958 0.024100749 0.047530137
-0.0543954 -0.06362239 -0.079299934 0.047419 -0.08217257 -0.01828134 -0.05400095 -0.0934359
0.040508706 0.13493265 -0.08934829 0.13258442 0.023816612 -0.039775692 0.037303727 0.0409009
0.044608608 -0.006587589 0.0028022807 -0.08664632 0.109596185 -0.041159995 0.11503564 0.08765043
-0.13736251 -0.06182441 0.0829359 0.04505705 0.10605278 0.10743009 0.046379715 -0.06272566
0.10998328 -0.01717607 -0.10984497 0.0492931 -0.08328835 0.029018776 0.058427263 0.07483608
0.013115071 -0.062899604 0.08263554 -0.080417365 0.07906637 -0.09791968 -0.0043148035 -0.048258852
-0.04037715 0.039207526 -0.1270923 0.068862975 -0.087562725 0.084053 -0.0034025852 -0.10107427
-0.08489039 -0.001694696 0.021556448 -0.026084084 -0.03628651 0.01275153 -0.05100742 -0.034219194
-0.11720434 -0.09780179 0.09362909 -0.0328845 0.025697507 -0.08344103 0.10954435 -0.071239516
0.0011025157 -0.029019564 -0.06361034 -0.12114962 -0.07473733 -0.041478414 0.0362977 -0.11614202
0.03683909 0.003700471 0.07183572 0.036630053 0.027656969 -0.045736197 0.02994177 -0.08529484
0.08913499 -0.047423366 -0.05593693 0.06340189 0.020386772 -0.013648413 0.014742094 -0.14315896
-0.04747509 -0.06268849 -0.008032461 0.030510006 -0.09386035 -0.04751396 -0.02855005 0.0682307
-0.08454417 0.012401243 0.07446282 0.032359242 0.059492216 0.047277506 0.035101835 -0.02961696
0.02803967 0.09065894 -0.14373566 0.07501936 -0.07732959 0.06026179 0.07360524 0.052198462
-0.0205424 -0.014190596 0.017092304 0.082895815 -0.03124011 -0.0040716035 0.022968467 0.040651955
-0.11754506 -0.04786003 0.047890343 0.07746681 0.0975766 -0.07771563 -0.101055734 -0.03667875

conv2.bias f4 [32]
00000000: 3116 303c 2a56 b73c be99 df3c 8ecc 883b
00000010: f67a b4b9 3ab1 97bc eeee 613c 0a67 403c
00000020: c0bb 6ebc b13e 2a3c 5db2 44bc 74ba 543c
00000030: 6012 483c b343 963c 9d30 2cbc 3469 353c
00000040: a215 92bc b502 07bb 6cc5 30bc 4ed3 473c
00000050: 6feb d1bc c531 00bc 385e 9fbc 6a85 aa3c
00000060: a9c3 d3bc e2ab afbb b7bd 18bc 9433 f53b
00000070: 0fc9 353c 9667 ab3c 1d7d a2bc 55ee dc3b
0.010747478 0.022379953 0.02729499 0.0041747754 -0.00034423888 -0.018517125 0.013789875 0.011743316
-0.01457113 0.010390923 -0.012005416 0.012983907 0.012211412 0.018342828 -0.010509637 0.011072446
-0.017832581 -0.0020600979 -0.010789257 0.012196375 -0.025624959 -0.007824366 -0.019454107 0.02081557
-0.025850134 -0.005361066 -0.009322575 0.007482955 0.011095299 0.020923417 -0.01983505 0.0067422786

conv2.lin.weight f4 [32, 256]
00000000: 8fbc 54bd 2f42 973d 29de 9dbc 3f36 e8bd
00000010: 97d4 a9bd 13c8 abbd 33ab 063e 498f b33c
00000020: 1b0e d23d 0f89 fe3d cc1e 0a3e f4c3 c5bb
00000030: 9763 8dbc 9e47 363e bb32 a23b c6b7 023e
00000040: a45f c93d a828 88bd f27a e83d c1e3 25be
00000050: 4b61 04be fd74 a8ba a997 043e 5d18 353d
00000060: 1688 01bd af65 f3bc 48ee 3fbd 3d03 993d
00000070: c369 29be 8bfb 15bd e55b ec3d 8d51 e53d
00000080: d591 3cbd 3c9f 12bd a570 09be 0e67 a63c
00000090: 6d64 13be 7ae1 eabd 0b1f b2bd a889 9b3d
000000a0: 11cd 6bbd 33b8 82bd ace8 c23c f18f a23c
000000b0: ec47 073d 0bf2 eb3d 987b c63d 72b0 9a3d
000000c0: 7bbe 4f3e 923b 9e3d 71d4 88bd 0a34 323d
000000d0: 0459 04bc f136 eebd edec 02be 78d5 1ebe
000000e0: b9df 273e 154e e9bd 383a 883d c29b 173e
000000f0: 763d b03d 9388 babd e541 a2bc 7ffe 0c3e
00000100: ad01 ca3c 7927 a93c ff57 07be 8ee8 b43d
00000110: 0a85 2abd 0266 57bd 1d50 b0bc 0127 76bd
00000120: 4625 d3bd ac42 b83d 17f7 44be 23ec 4e3e
00000130: e7ba 3abe a95f b5bb f67d 9abd aec4 16be
00000140: caab b83d 7943 10bc b7c4 e23d af89 2bbe
00000150: 5df1 e1bb 6c78 b1bc 4fcf f03d 51a3 e43d
00000160: 090d 083e f0e0 183e 6122 113d 768e a5bd
00000170: 3b1b df3d 1b6f aebd 2a76 173d 725c ccbd
00000180: 1e11 d5bd 131d aabd f096 d5bc b283 23bc
00000190: 9a40 503c 4920 b83d 1bfb 39bd f9c1 8e3d
000001a0: 5144 37be 5089 30bc e4ac 41be 9500 0cbe
000001b0: cb54 913d dfa1 a3bd c086 4abd a20a ca3c
000001c0: c65d a3bd 36af a23c 0d8e 9c3d a9b3 35bc
000001d0: cf90 c83d cdda 04bd 94a5 b8bc 3809 533d
000001e0: 9aaf 18be 1edb cd3d 656d c93d b7dc 8c3c
000001f0: c797 a33d 6ff9 cc3d 55cf 10be 868b f33d
00000200: 531a ccbd b24f 1e3d 1279 0abe 6796 d5bd
00000210: b517 57be 46ee c43d 7193 1f3e d33e bf3d
00000220: cfcb 2cbd 4be5 2c3d b9df 1fbc fa6b 04be
00000230: d607 c0bd 9535 81bd f7de 4ebe 19f2 0cbe
00000240: a0ce da3d c17a 073e d26a 0e3e 2c9f 9ebc
00000250: beb9 35be ae5b ee3d 68be d33b 4708 083d
00000260: 7d84 54bd 9907 dc3d b8cd e7bd 3468 8d3d
00000270: aaf5 fe3d 8244 d0bb cc68 893d 1fb9 a03d
00000280: c2c9 52bc d088 b33c 1ebe df3d 8e16 3cbd
00000290: fe42 d0bd 695b 213e 8214 0ebe a46d 93bd
000002a0: 79ca f4bc 4dfd 8a3d 40b0 e3bd c299 c03d
000002b0: e846 183e 5b9c afbd d621 e2bd 0146 87bd
000002c0: 6306 a5bd 9330 fa3d 852b 0c3e 517e a1bd
000002d0: 4762 ef3b 1e41 a5bc 4ab3 8fbc ce99 21bd
000002e0: 5eb7 fabd 1b15 16be 6c52 473c 1f46 8a3b
000002f0: 0b5c c53d bc01 d0bd 2d54 fb3d 8132 c93b
00000300: e48a 5dbd 4ce6 c0bd f979 1f3d 753b debd
00000310: 7c2d fdbb bec2 3dbd 84aa 89bd d090 623d
00000320: 3077 303e b57f f1bc 666e 0f3e 5025 c6bd
00000330: 26fa 74bd a0e7 85bd 8568 5f3e 885f 4c3e
00000340: c090 bd3d aa24 21be 1bd1 bcbd b0f6 15bd
00000350: 1848 43bd a101 1abd ca97 713c f31d e7bc
00000360: 4922 9d3c 5937 023e 2d56 0dbd 8c14 443e
00000370: d32c b23d 0d71 6cbc 0215 43bd 691d 943d
00000380: a0b3 8f3d 38d2 c63d d819 873b 98d3 b7bd
00000390: a648 93bd 0c95 a53d fa15 86bb 62d8 b0b9
000003a0: 0a6f 8ebd 4809 67bd d5d9 be3d 78ca 4d3d
000003b0: 9dfb 8cbd 8903 0d3d 96cf bcbc f629 2a3d
000003c0: 0bad 1f3e 7317 ee3d 7655 6abd 7885 493d
000003d0: 43c6 e03d 856d c0bd c275 913c 3979 793d
000003e0: a297 163d d464 813d 1e89 1a3e dbef a6bd
000003f0: 1119 89ba 461a b9bd a8ff 033d 8516 12bd
-0.051937636 0.073856704 -0.019270973 -0.113384716 -0.082925014 -0.083877705 0.13151245 0.02191891
0.10256597 0.124284856 0.1348831 -0.0060353223 -0.017259402 0.17800757 0.004949895 0.12765417
0.09832695 -0.066483796 0.11351575 -0.16200162 -0.1292774 -0.0012852248 0.12948479 0.044212688
-0.031623922 -0.029711572 -0.046858102 0.07471321 -0.16544251 -0.036616843 0.11540965 0.11197195
-0.046037514 -0.03579639 -0.13421877 0.020312812 -0.14393778 -0.114687875 -0.08697327 0.07594615
-0.057568613 -0.063827895 0.023792587 0.019844027 0.033027574 0.115207754 0.096915424 0.075531855
0.20287506 0.07726206 -0.06681145 0.04350666 -0.008077864 -0.11631573 -0.12785693 -0.1551112
0.16393937 -0.11391846 0.06651729 0.1480551 0.08605473 -0.09108081 -0.019806812 0.13768958
0.024659002 0.020648705 -0.13217162 0.08833419 -0.041630782 -0.052587517 -0.021522576 -0.06009579
-0.10309844 0.08997092 -0.19234882 0.20207267 -0.1823536 -0.005535085 -0.075435564 -0.14723465
0.09017141 -0.008805149 0.11072677 -0.16751741 -0.006895228 -0.021663867 0.11758291 0.11163963
0.13286223 0.14929557 0.035433177 -0.08083813 0.10893866 -0.085172854 0.036977924 -0.0997857
-0.104036555 -0.08306327 -0.02607295 -0.009980129 0.012710715 0.08990533 -0.04540549 0.06970591
-0.17897154 -0.010774925 -0.18913609 -0.13672097 0.07096251 -0.07989859 -0.049444914 0.024663273
-0.0797687 0.019858938 0.076442815 -0.011090198 0.09793245 -0.032435227 -0.022539891 0.051522464
-0.14910737 0.10051559 0.098353185 0.017195089 0.079879336 0.10008513 -0.14141591 0.11891846
-0.099659584 0.038650222 -0.13522747 -0.104290776 -0.21005137 0.096157596 0.15583588 0.09338155
-0.042186555 0.04221086 -0.0097579295 -0.12931815 -0.093764946 -0.06309048 -0.20202242 -0.13764228
0.10683942 0.1323042 0.13907936 -0.019363008 -0.17746636 0.1163858 0.006461907 0.03321102
-0.051884163 0.10743637 -0.113185346 0.06904641 0.124492005 -0.006355823 0.067094415 0.07847809
-0.012865486 0.021915823 0.10924934 -0.045919947 -0.10169028 0.15757526 -0.1387501 -0.07198647
-0.029881703 0.067865945 -0.111176014 0.09404327 0.14870799 -0.08574744 -0.1104161 -0.06605149
-0.08057859 0.12216296 0.13688476 -0.07885421 0.0073054167 -0.020172652 -0.017541546 -0.03945332
-0.12242006 -0.14656489 0.012165647 0.004219785 0.096366964 -0.10156581 0.12271915 0.0061400537
-0.054087535 -0.09418926 0.03893468 -0.10851184 -0.0077263694 -0.0463283 -0.067219764 0.055313885
0.17232966 -0.02947984 0.14006957 -0.096750855 -0.059808873 -0.065383196 0.21817215 0.19958317
0.092561245 -0.15736642 -0.09219571 -0.036612213 -0.047676176 -0.03759921 0.014745662 -0.028212523
0.019181387 0.12716426 -0.03450601 0.19148463 0.08699956 -0.01443125 -0.047627456 0.07232172
0.070166826 0.09708065 0.004122954 -0.08975905 -0.07191591 0.08085069 -0.0040919753 -0.00033730554
-0.06954773 -0.056405336 0.09318892 0.050241917 -0.06883929 0.0344272 -0.023048203 0.041543923
0.15593354 0.11625566 -0.05721041 0.04919955 0.109753154 -0.09395889 0.017756347 0.060906623
0.036765702 0.063180596 0.15091369 -0.081512176 -0.0010459741 -0.090382144 0.032226235 -0.035666008
