pretrained_gnns/Pokecz_gae.pth (torch, 307720 bytes, 4 tensors)

conv1.bias f4 [256]
0.031231979 -0.015241473 -0.017918078 -0.012045758 0.017021777 0.00046457714 0.03131338 -0.008349164
-0.011815758 0.0074772723 -0.01172777 -0.0057813367 -0.025717324 0.00063307426 0.008349647 -0.0065877032
-0.003880575 -0.0073892027 0.024738446 0.027678542 -0.0150744375 0.00029313986 0.012377246 0.008911178
-0.012055467 -0.00906485 -0.012396337 0.019256745 -0.009013491 -0.010473722 0.012155823 0.011173269
0.027479017 0.032637425 -0.0041834763 -0.0050229803 -0.02144044 0.0009774473 -0.011068639 0.00034868624
0.020770695 -0.010006742 -0.00042952044 -0.011734056 -0.011630478 0.048925884 -0.000561188 -0.008271286
0.03761747 -0.007373924 0.003002707 -0.015345139 -0.01565664 0.047760542 0.02504332 -0.012095765
0.008789846 0.0069210553 1.2283418e-05 0.013050975 0.015130458 0.028931 -0.016677696 0.022208977
0.018930066 0.019394161 -0.012733864 0.0044583557 0.025643919 -0.0014540572 0.021280318 0.0007674577
-0.013531767 -0.017853146 0.010785822 0.014516119 0.007718361 0.008382622 -0.0031043005 -0.0068832664
-0.008284173 -0.0033831948 0.029037416 -0.017193167 -0.0017294352 0.026038049 -0.011902844 0.00845268
0.018992566 0.03206618 -0.005074923 0.002989908 -0.0038469527 -0.0118579585 -0.015658896 -0.0014449502
0.040516566 -0.0031141527 0.0015460686 0.020029806 0.017463258 0.008247305 -0.0197406 -0.0046349224
-0.00859605 -0.0021362312 -0.0061333505 0.01355801 -0.015830435 -0.012761185 -0.02135096 0.026560944
-0.0023139052 -0.015609483 -0.0010482364 -0.012584926 -0.014997415 -0.020741189 0.0010420973 0.0011912936
0.0013544058 0.0008194396 -0.008467379 -0.016509118 0.011108899 -0.00088618527 0.054004017 -0.0073461924
-0.014582292 -0.015984148 -0.010736595 -0.016855972 0.010048358 0.019863764 -0.003175088 0.003063016
0.025751745 0.020842144 -0.014201883 0.0071423273 0.02141791 -0.00257152 0.004103697 -0.009405172
0.016008927 -0.004571201 -0.018640619 0.0021089576 -0.013987781 -0.009179748 0.017576894 -0.01086635
-0.0021502848 -0.0027334807 0.041492272 -0.00053339195 0.028200526 -0.005955862 -0.002001806 0.021459838
0.0015661031 0.01939949 0.010718489 -0.01030057 0.0022376345 -0.024879469 -0.020075656 -0.01404964
0.0022495645 0.009972897 0.0289782 0.0016525437 0.018845823 -0.0160446 -0.027256161 0.016120398
0.0016576439 -0.02319733 0.005253324 -0.016783813 -0.016722294 0.030977244 -0.015945071 0.013655847
-0.0036817945 0.024620568 -0.01710184 0.0065088975 -0.008786343 0.032451738 -0.0119019775 -0.008652309
0.014783485 0.0011345481 -0.0045419866 -0.0035677422 0.0039531356 0.014959673 -0.0032735544 -0.018781114
-0.009450451 -0.0026670175 0.008401898 0.015730541 -0.01686287 0.021986963 0.005344035 0.036951978
-0.023150763 -0.011423067 0.024527501 0.008652706 0.036705934 -0.005560816 0.01950268 0.014963374
-0.0064215357 -0.003112689 0.025210269 0.00042418347 0.015447442 -0.0050207824 0.00048632946 0.0021652386
0.008867117 0.0110566 -0.007452067 0.017139921 0.015341204 -0.0126578305 0.011080667 -0.009807514
0.0160859 -0.011147477 -0.025484378 0.023212142 0.018247055 0.016871963 0.015679555 -0.0049632117
0.011669551 -0.013238673 0.0031073291 -0.004237528 -0.0085007185 -0.008593405 -0.01799952 -0.015197072
-0.012279844 0.022358153 0.0060569895 0.010591587 0.0051601683 -0.022837391 0.0042231986 0.0114387255
00000000: 35da ff3c 5fb7 79bc efc8 92bc 925b 45bc
00000010: 4171 8b3c 7d92 f339 7542 003d efca 08bc
00000020: e296 41bc e803 f53b d525 40bc 5e71 bdbb
00000030: 23ad d2bc e5f4 253a f5cc 083c a9dd d7bb
00000040: 3f51 7ebb 2021 f2bb 48a8 ca3c 1cbe e23c
00000050: c6fa 76bc 91b0 9939 efc9 4a3c 3100 123c
00000060: 4b84 45bc bd84 14bc 021a 4bbc 52c0 9d3c
00000070: 52ad 13bc f999 2bbc 3829 473c 1610 373c
00000080: ad1b e13c d2ae 053d 8b15 89bb d097 a4bb
00000090: dda3 afbc b01d 803a 3d59 35bc e0cf b639
000000a0: 4e27 aa3c 51f3 23bc 4231 e1b9 3340 40bc
000000b0: c38d 3ebc 8266 483d b01c 13ba 4a84 07bc
000000c0: c714 1a3d f5a0 f1bb 10c9 443b 2e6a 7bbc
000000d0: 5b42 80bc 8fa0 433d a627 cd3c 512d 46bc
000000e0: 4903 103c 05ca e23b e114 4e37 c2d3 553c
000000f0: bee5 773c b400 ed3c aa9f 88bc 9aef b53c
00000100: 3a13 9b3c 81e0 9e3c b2a1 50bc 6617 923b
00000110: 3213 d23c 1096 beba 1054 ae3c 372f 493a
00000120: 58b4 5dbc c340 92bc 04b7 303c 04d5 6d3c
00000130: 4eea fc3b 4457 093c 8571 4bbb 068d e1bb
00000140: 57ba 07bc 97b8 5dbb e0df ed3c afd8 8cbc
00000150: 37ae e2ba bf4d d53c 2504 43bc 1c7d 0a3c
00000160: 4c96 9b3c d457 033d 8a4b a6bb 55f2 433b
00000170: 281d 7cbb e247 42bc 1647 80bc 7c64 bdba
00000180: b3f4 253d d016 4cbb 74a5 ca3a 8c15 a43c
00000190: 1b0f 8f3c b41f 073c 0ab7 a1bc 8ce0 97bb
000001a0: 72d6 0cbc 0300 0cbb 46fa c8bb 6a22 5e3c
000001b0: d4ae 81bc 4a14 51bc 35e8 aebc 5696 d93c
000001c0: e3a4 17bb ebbe 7fbc fa64 89ba 0131 4ebc
000001d0: b8b7 75bc 6de9 a9bc fc96 883a 2e25 9c3a
000001e0: 5186 b13a a9cf 563a c3ba 0abc 213e 87bc
000001f0: 1902 363c e34e 68ba 5133 5d3d 54b8 f0bb
00000200: 91ea 6ebc 30f1 82bc 8be8 2fbc 8915 8abc
00000210: dea1 243c 55b9 a23c 2315 50bb e2bc 483b
00000220: 53f5 d23c 25bd aa3c 04af 68bc 2f0a ea3b
00000230: 9d74 af3c f286 28bb 4e78 863b 2718 1abc
00000240: 2725 833c 03ca 95bb 36b4 98bc 7036 0a3b
00000250: 012d 65bc a766 16bc 6bfd 8f3c c608 32bc
00000260: cbeb 0cbb 3224 33bb cdf3 293d 54d3 0bba
00000270: ca04 e73c 6429 c3bb bb30 03bb 8bcc af3c
00000280: b345 cd3a aeeb 9e3c 9a9c 2f3c b9c3 28bc
00000290: 47a5 123b 07d0 cbbc b475 a4bc 7630 66bc
000002a0: 6e6d 133b 5d65 233c b163 ed3c 2a9a d83a
000002b0: 8e62 9a3c f76f 83bc 5048 dfbc ed0e 843c
000002c0: 4d45 d93a 5408 bebc 1324 ac3b 357e 89bc
000002d0: 31fd 88bc fdc3 fd3c 3d9f 82bc c6bc 5f3c
000002e0: 434a 71bb 13b1 c93c 2819 8cbc 9748 d53b
000002f0: 98f4 0fbc 1dec 043d 8300 43bc 6ac2 0dbc
00000300: 6e36 723c 1eb5 943a f2d4 94bb c8d0 69bb
00000310: 4e89 813b 6b19 753c 2189 56bb dada 99bc
00000320: 10d6 1abc 21c9 2ebb 1da8 093c 56dd 803c
00000330: 0024 8abc 011e b43c 041d af3b f55a 173d
00000340: aba6 bdbc d127 3bbc e6ed c83c 14c4 0d3c
00000350: f658 163d 8137 b6bb 16c4 9f3c f028 753c
00000360: bf6b d2bb 41fe 4bbb c485 ce3c f164 de39
00000370: 4517 7d3c 6085 a4bb 09fa fe39 ade6 0d3b
00000380: 6247 113c be26 353c 7830 f4bb 0569 8c3c
00000390: ac59 7b3c ca62 4fbc b08b 353c b2af 20bc
000003a0: 94c6 833c e8a3 36bc 9dc4 d0bc 6427 be3c
000003b0: d97a 953c 1237 8a3c 6972 803c 70a2 a2bb
000003c0: a531 3f3c 05e7 58bc 55a4 4b3b f6da 8abb
000003d0: 9946 0bbc 5acb 0cbc bb73 93bc 24fd 78bc
000003e0: 6631 49bc 7228 b73c b679 c63b 5688 2d3c
000003f0: a116 a93b 7b15 bbbc c262 8a3b 7e69 3b3c

conv1.lin.weight f4 [256, 265]
0.038745902 0.021548346 0.04589419 -0.06996069 0.047012214 0.00072110584 -0.031002864 0.06911774
-0.068881914 0.01363108 0.01336648 0.08685896 0.057396088 -0.036134284 -0.032937687 0.019719506
0.100611135 -0.01768393 -0.07701889 0.06282882 -0.074916966 -0.08398517 0.10224864 -0.022119334
-0.06714067 0.0690259 -0.15087292 -0.062051952 -0.050415758 -0.025656126 -0.06430678 -0.06454801
0.020084176 -0.052345403 -0.0907326 -0.10433473 -0.04907441 -0.057409864 -0.06899115 -0.018304465
0.011488918 0.08310034 0.06489414 -0.07248448 0.039086662 -0.09276953 -0.035620354 -0.060514145
-0.06299684 -0.08063079 -0.096388526 -0.013111537 -0.08741422 -0.11380043 0.11058098 -0.09713478
0.019240277 -0.123444915 -0.041934 -0.0190595 0.05066651 -0.041845538 0.11422203 -0.05277512
-0.035354774 -0.030823635 0.049322627 0.023136377 -0.0889943 0.072254114 -0.0429056 -0.025176754
0.101796806 -0.050017152 0.08318173 -0.044527 -0.027201615 0.0813604 -0.03289964 0.008929635
0.019469723 0.045808773 0.004000974 0.020663166 0.02807492 0.11973032 -0.086068235 -0.074214265
0.12892924 -0.03697138 -0.020060848 0.074408226 0.115472265 0.060500376 0.0077729058 -0.042140532
-0.052280445 0.12533739 -0.07090213 0.073807165 -0.102368 -0.019376539 0.113330364 -0.01912376
0.037807457 0.08848429 0.06596626 0.09299173 -0.0037583897 0.08988398 0.08149895 6.4321284e-05
0.071563914 0.16130881 0.04799841 0.0807998 -0.0022822316 0.11087331 0.103430055 0.09625672
0.04893064 0.10164699 0.1328865 0.029324835 0.013615137 0.08760118 0.12358073 0.079108655
0.06749582 0.024771761 0.07709723 0.033485625 -0.06568181 0.014631435 0.089660354 -0.02082473
-0.021900453 -0.019437991 0.030610023 0.1459814 0.046192918 -0.02184477 -0.07567415 0.021907263
0.058048226 0.0017059698 -0.041409872 0.086284555 -0.0074339765 -0.0852375 -0.0392693 0.09476275
0.014446069 -0.030805286 -0.0032843468 -0.08710235 0.036641315 -0.008958519 -0.11984874 0.05079905
0.026572581 0.040730696 -0.03216056 -0.098930016 0.003960995 -0.078978285 0.04331024 -0.08084917
-0.054724704 -0.08674648 -0.015348954 0.15199913 0.054634694 -0.11124288 -0.059899904 0.057676844
0.050454848 0.007892432 0.13318995 -0.032508582 0.04897042 -0.13849007 -0.13288957 0.06171315
0.018888239 0.037314016 0.09087935 -0.041877758 -0.041139897 -0.025329089 0.00047770742 0.0073476397
0.03360559 0.029208962 0.0040109623 -0.001753585 -0.032489005 0.044460874 0.047581553 -0.059983525
0.08411875 -0.0030138928 0.0060966993 0.018809011 0.07090852 0.048630845 -0.09559027 -0.124471866
0.023425883 -0.024366764 0.035107337 0.12779093 -0.009286771 0.017244514 -0.03232809 -0.05118289
0.09834185 -0.051942952 -0.04139489 0.032918423 0.04568738 -0.013779228 0.025934724 0.08127792
0.0061280723 0.07300462 0.078461565 -0.002342775 0.04490062 -0.11693136 0.03806148 0.04861068
0.008672625 -0.04529083 -0.059867762 0.06483795 -0.07991344 -0.13021672 -0.04236842 -0.06348021
-0.108766235 -0.047609877 -0.060736712 -0.10412587 -0.058711465 0.058109883 -0.047488943 0.019297685
-0.033787686 -0.081264995 0.048599366 -0.010171835 0.044854462 -0.07145233 0.014558027 0.07573458
00000000: 06b4 1e3d 2886 b03c 8cfb 3b3d 8d47 8fbd
00000010: e18f 403d 9808 3d3a b8f9 fdbc 9a8d 8d3d
00000020: f611 8dbd e554 5f3c 15ff 5a3c 1ce3 b13d
00000030: 2918 6b3d 8b01 14bd abe9 06bd cd8a a13c
00000040: 360d ce3d e4dd 90bc 14bc 9dbd 65ac 803d
00000050: 116e 99bd 6b00 acbd bc67 d13d 9b33 b5bc
00000060: 0c81 89bd 735d 8d3d 6e7e 1abe 302a 7ebd
00000070: c180 4ebd cc2c d2bc 46b3 83bd bf31 84bd
00000080: 9287 a43c 2268 56bd 03d2 b9bd 72ad d5bd
00000090: 4002 49bd 9b26 6bbd 3b4b 8dbd 3ff3 95bc
000000a0: 043c 3c3c 8330 aa3d 38e7 843d be72 94bd
000000b0: 5619 203d f4fd bdbd a6e6 11bd aedd 77bd
000000c0: 7d04 81bd c121 a5bd 5967 c5bd c6d1 56bc
000000d0: 3a06 b3bd 3310 e9bd 4878 e23d 99ee c6bd
000000e0: c99d 9d3c b0d0 fcbd fcc2 2bbd ab22 9cbc
000000f0: b087 4f3d 3a66 2bbd 3ded e93d b92a 58bd
00000100: 2bd0 10bd d981 fcbc 8606 4a3d 8088 bd3c
00000110: a542 b6bd f7f9 933d c8bd 2fbd 7b3f cebc
00000120: d87a d03d c9de 4cbd 2f5b aa3d f261 36bd
00000130: ecd5 debc 48a0 a63d c6c1 06bd 9b4d 123c
00000140: f87e 9f3c fba1 3b3d 9a1a 833b cd45 a93c
00000150: 60fd e53c 2c35 f53d 8b44 b0bd a6fd 97bd
00000160: 0706 043e 4d6f 17bd a656 a4bc 5763 983d
00000170: b97c ec3d 3ecf 773d dcb3 fe3b 8d9b 2cbd
00000180: 0524 56bd 7258 003e 2335 91bd 3628 973d
00000190: 50a6 d1bd 8cbb 9ebc c019 e83d 6ea9 9cbc
000001a0: fedb 1a3d 4037 b53d 5219 873d 7372 be3d
000001b0: 514f 76bb 1815 b83d ece8 a63d 3ae4 8638
000001c0: 1a90 923d 232e 253e fb99 443d 5e7a a53d
000001d0: 7e91 15bb 8c11 e33d 23d3 d33d 3e22 c53d
000001e0: 7f6b 483d 4c2c d03d 6613 083e a33a f03c
000001f0: 0612 5f3c 3f68 b33d e517 fd3d b803 a23d
00000200: 403b 8a3d 26ee ca3c 27e5 9d3d 3928 093d
00000210: 2f84 86bd b0b8 6f3c d99f b73d a098 aabc
00000220: 9468 b3bc 6c3c 9fbc dfc1 fa3c 267c 153e
00000230: c934 3d3d cef3 b2bc 0cfb 9abd dc76 b33c
00000240: fac3 6d3d d99a df3a 669d 29bd f5b5 b03d
00000250: b798 f3bb 0091 aebd d8d8 20bd f912 c23d
00000260: 34af 6c3c 5e5b fcbc 323e 57bb b862 b2bd
00000270: 3415 163d c1c6 12bc 4273 f5bd aa12 503d
00000280: beae d93c 3bd5 263d cbba 03bd d29b cabd
00000290: 3ccb 813b 5ebf a1bd 1466 313d 4094 a5bd
000002a0: 0327 60bd 23a8 b1bd 2e7a 7bbc a9a5 1b3e
000002b0: a1c8 5f3d 4fd3 e3bd 9a59 75bd 8e3e 6c3d
000002c0: bea9 4e3d 424f 013c f262 083e b827 05bd
000002d0: 3595 483d 57d0 0dbe 3414 08be eec6 7c3d
000002e0: 82bb 9a3c 95d6 183d f41e ba3d 0388 2bbd
000002f0: 4f82 28bd f37e cfbc ce74 fa39 78c4 f03b
00000300: 04a6 093d a247 ef3c 646e 833b 8cd8 e5ba
00000310: 3113 05bd 9b1c 363d e0e4 423d 49b1 75bd
00000320: 7446 ac3d bb84 45bb d2c6 c73b 5b15 9a3c
00000330: 7c38 913d 2331 473d d5c4 c3bd 1beb febd
00000340: a3e7 bf3c cf9c c7bc b6cc 0f3d a0db 023e
00000350: 8a27 18bc 5e44 8d3c 766a 04bd 26a5 51bd
00000360: 7467 c93d 22c2 54bd b08d 29bd 78d5 063d
00000370: b122 3b3d 45c2 61bc 0f75 d43c 0a75 a63d
00000380: ffcd c83b 7283 953d 75b0 a03d 3e89 19bb
00000390: b6e9 373d b579 efbd 5be6 1b3d fe1b 473d
000003a0: a017 0e3c e182 39bd e637 75bd c2c9 843d
000003b0: a8a9 a3bd 8857 05be 828a 2dbd ea01 82bd
000003c0: d5c0 debd 9302 43bd 0fc7 78bd f23f d5bd
000003d0: 6f7b 70bd a104 6e3d c483 42bd 2e16 9e3c
000003e0: f564 0abd 436e a6bd 2110 473d c5a7 26bc
000003f0: 50b9 373d 9955 92bd ca84 6e3c bb1a 9b3d

conv2.bias f4 [32]
-0.01238438 0.008034915 0.0074395123 0.009808705 -0.01478129 0.0072544883 -0.00467757 0.018448012
-0.019439656 -0.01916854 0.0045287735 0.00027271407 -0.001579917 0.0145991435 0.01140911 -0.0001198754
-0.0014630009 0.014025409 -0.008965432 0.008875336 0.003947465 0.0020719678 0.003166761 0.009380461
-0.0017757966 0.00014648178 -0.021356205 -0.01930016 0.009242809 -0.00982537 -0.0036489805 0.0031607857
00000000: dbe7 4abc e0a4 033c 27c7 f33b b1b4 203c
00000010: 392d 72bc 0fb7 ed3b 4d46 99bb 4920 973c
00000020: ea3f 9fbc 5807 9dbc 1b66 943b 10fb 8e39
00000030: 3815 cfba 3f31 6f3c 47ed 3a3c 9e65 fbb8
00000040: 2ac2 bfba d4ca 653c bfe3 12bc db69 113c
00000050: bd59 813b dac9 073b 6f89 4f3b 81b0 193c
00000060: d9c1 e8ba e798 1939 35f3 aebc 5f1b 9ebc
00000070: 276f 173c 97fa 20bc bc23 6fbb 2f25 4f3b

conv2.lin.weight f4 [32, 256]
0.14427018 0.08058287 0.04513718 0.006777536 0.0324919 -0.11518889 0.088420495 -0.028343983
-0.09978126 0.012085159 -0.12677346 0.03620281 0.016704636 0.025575723 0.036117937 -0.15271203
0.08222587 -0.11766789 -0.10229557 -0.12020345 0.111552045 -0.046829596 0.066860035 0.06670581
0.045012042 0.08599949 -0.11403574 -0.047320716 -0.02651622 0.06799792 -0.017059982 -0.04267132
-0.09626227 -0.12154919 0.113901764 0.14250952 0.08814907 -0.11772671 0.008652265 0.11221551
-0.08168435 -0.020622589 -0.12082688 0.044726584 0.108290054 -0.08158003 0.12466938 0.014534193
-0.09985193 -0.11302113 0.10578312 0.049543995 -0.13249724 -0.047079705 -0.11093923 -0.1602756
-0.12579063 0.04574355 0.01673838 0.11753656 -0.019591901 -0.058406133 0.0899269 -0.059193674
-0.07233612 -0.04304883 0.11143543 -0.0015364047 -0.109744675 0.081685655 -0.111192584 -0.022856127
0.1385799 -0.01383632 -0.051968627 -0.16879429 0.11045666 -0.0124875605 0.05562107 -0.008246746
0.15650201 -0.046869155 -0.08574445 -0.104708284 0.065368906 -0.08504757 0.017601198 0.0005223519
-0.011208858 -0.11582548 0.14685097 -0.10754668 -0.07623866 0.044490095 -0.07618545 -0.015382852
-0.068084024 -0.047578704 0.003747171 -0.1134311 -0.02202433 -0.014166867 -0.040381532 0.10651809
-0.071009256 0.028767716 0.039398637 -0.101238936 0.016815357 0.07979417 0.10457073 -0.13033076
0.13532881 0.07612996 -0.007901405 0.09052675 0.033005398 -0.049561568 -0.101332374 -0.045240104
-0.06196111 0.08407809 0.15044989 -0.0036496297 0.019322123 0.11133073 -0.012763666 0.05719743
0.10312969 0.05299248 -0.046467986 0.035373602 -0.11693499 0.040091135 -0.011877661 0.02445791
-0.016447004 0.023411348 -0.018793099 -0.008157225 0.07039677 0.107115135 0.119610116 -0.1335802
0.096185565 0.11650841 0.116955824 -0.113081954 -0.07564822 0.13498878 -0.061819274 0.08433037
0.14251634 0.11038782 -0.14907797 0.019830681 0.12240384 -0.032827497 0.12545185 -0.12757245
-0.07112302 -0.14141822 0.12075278 -0.026499318 0.004399364 0.11288898 0.117289916 0.14732711
0.11121791 -0.031259686 -0.15056951 0.10017652 -0.098511055 0.041136157 0.043746803 0.06965037
0.041918315 0.11874102 -0.03793244 0.059734732 -0.12755013 -0.031024432 0.10527516 -0.13633123
-0.008932634 -0.05897655 0.063538164 0.01805565 0.11537417 -0.12440823 -0.020064237 -0.082601205
-0.1238777 0.009245305 -0.10989234 0.07072799 -0.0025470492 0.07959122 -0.12604101 0.13943376
0.032889955 -0.10009625 -0.018486664 -0.12960857 -0.01939425 -0.026520472 0.009634093 0.060518675
0.13761072 0.042657893 -0.027726812 0.025673565 -0.0926338 -0.016701039 -0.04172193 -0.071420275
-0.033989478 -0.07687875 -0.076808184 -0.06909542 0.063536376 0.038045216 -0.06489339 0.11872978
-0.051217 -0.09973104 0.10608175 -0.1343856 0.062232725 -0.04280827 0.11185124 0.13039388
-0.0119853 -0.04742364 -0.097922295 0.03218084 -0.14436084 -0.007759742 -0.009702086 0.06536002
-0.029377582 0.041943703 -0.13532017 0.025397748 0.0100534 -0.03240148 0.046932556 0.14869994
0.037292045 0.14490211 -0.075305484 -0.017829897 0.031007737 0.042231046 0.03873316 -0.03481536
00000000: 90bb 133e a208 a53d c3e1 383d 1816 de3b
00000010: 3a16 053d 27e8 ebbd ce15 b53d a431 e8bc
00000020: 1e5a ccbd d500 463c e7d0 01be 6649 143d
00000030: 29d8 883c 2e84 d13c 67f0 133d 8b60 1cbe
00000040: 0966 a83d ddfb f0bd 5780 d1bd 3a2d f6bd
00000050: 6675 e43d 64d0 3fbd eaed 883d 0e9d 883d
00000060: 8c5e 383d 8020 b03d 928b e9bd 5ed3 41bd
00000070: 8b38 d9bc 7e42 8b3d 60c1 8bbc 1fc8 2ebd
00000080: 2725 c5bd c8ee f8bd 5445 e93d 04ee 113e
00000090: 8087 b43d b41a f1bd 3bc2 0d3c 3fd1 e53d
000000a0: 204a a7bd b4f0 a8bc 1574 f7bd 3933 373d
000000b0: 2dc7 dd3d 6e13 a7bd a952 ff3d d320 6e3c
000000c0: 2b7f ccbd 9f77 e7bd d2a4 d83d a5ee 4a3d
000000d0: 5bad 07be a6d6 40bd 1b34 e3bd 491f 24be
000000e0: 42cf 00be 975d 3b3d ed1e 893c 02b7 f03d
000000f0: 327f a0bc 453b 6fbd 982b b83d 1175 72bd
00000100: f624 94bd f853 30bd 4238 e43d 3061 c9ba
00000110: d1c1 e0bd cf4a a73d f0b8 e3bd c63c bbbc
00000120: e4e7 0d3e bbb1 62bc 0edd 54bd 69d8 2cbe
00000130: 1a37 e23d a098 4cbc ebd2 633d 5c1d 07bc
00000140: 1042 203e dff9 3fbd c99a afbd 4c71 d6bd
00000150: 22e0 853d 6c2d aebd 6330 903c 71ee 083a
00000160: 5ca5 37bc e935 edbd 1a60 163e 6f41 dcbd
00000170: 0423 9cbd 3f3b 363d 1e07 9cbd 5c08 7cbc
00000180: a36f 8bbd e3e1 42bd 1993 753b 914e e8bd
00000190: 5e6c b4bc 261c 68bc 1b67 25bd 2826 da3d
000001a0: 4d6d 91bd 46aa eb3c 7760 213d 5c56 cfbd
000001b0: 5cc0 893c 206b a33d 2e29 d63d 6d75 05be
000001c0: a393 0a3e 06ea 9b3d e574 01bc 1766 b93d
000001d0: ab30 073d 1201 4bbd 5987 cfbd b04d 39bd
000001e0: efca 7dbd 2231 ac3d 890f 1a3e a02e 6fbb
000001f0: 6e49 9e3c 5e01 e43d b21e 51bc da47 6a3d
00000200: a935 d33d a50e 593d 3755 3ebd e9e3 103d
00000210: 9d7b efbd 9a36 243d 859a 42bc f45b c83c
00000220: debb 86bc 28c9 bf3c fcf3 99bc e2a5 05bc
00000230: 2f2c 903d 2e5f db3d 26f6 f43d 3fc9 08be
00000240: f0fc c43d f69b ee3d 8986 ef3d 8397 e7bd
00000250: 74ed 9abd 803a 0a3e 3536 7dbd 67b5 ac3d
00000260: ceef 113e 0213 e23d e5a7 18be f473 a23c
00000270: ddae fa3d 2076 06bd 7376 003e 5aa2 02be
00000280: f2a8 91bd f0cf 10be 3c4d f73d 1915 d9bc
00000290: 8a28 903b 5632 e73d b235 f03d ebdc 163e
000002a0: 37c6 e33d 280a 00bd e52e 1abe 5929 cd3d
000002b0: 2ac0 c9bd 637e 283d d92f 333d daa4 8e3d
000002c0: 8ab2 2b3d 7e2e f33d 0c5f 1bbd 68ac 743d
000002d0: 809c 02be f326 febc 819a d73d 6a9a 0bbe
000002e0: 2f5a 12bc 6591 71bd 4c20 823d 71e9 933c
000002f0: 4b49 ec3d bec9 febd c15d a4bc d22a a9bd
00000300: 97b3 fdbd 9f79 173c 3c0f e1bd d6d9 903d
00000310: 65ec 26bb b900 a33d e510 01be b9c7 0e3e
00000320: 9eb7 063d 43ff ccbd 5871 97bc 1cb8 04be
00000330: b1e0 9ebc 7641 d9bc 51d8 1d3c 6ee2 773d
00000340: d3e9 0c3e 0bba 2e3d 5723 e3bc 5e51 d23c
00000350: cab6 bdbd 9ed0 88bc 9de4 2abd cb44 92bd
00000360: 8d38 0bbd 9b72 9dbd 9c4d 9dbd e681 8dbd
00000370: 5c1f 823d 4dd5 1b3d d3e6 84bd 9928 f33d
00000380: ebc8 51bd ca3f ccbd 6341 d93d 619c 09be
00000390: bee7 7e3d b957 2fbd 4312 e53d f985 053e
000003a0: fe5d 44bc 4a3f 42bd 7c8b c8bd 0ed0 033d
000003b0: 54d3 13be 6f45 febb 80f5 1ebc 79db 853d
000003c0: 41a9 f0bc 29cd 2b3d 5f91 0abe f00e d03c
000003d0: 04b7 243c 6ab7 04bd 5a3c 403d cc44 183e
000003e0: 8bbf 183d 3861 143e c339 9abd 0110 92bc
000003f0: f003 fe3c 76fa 2c3d a9a6 1e3d 8d9a 0ebd
