pretrained_gnns/Pokecn_bgrl_gcn.pth (torch, 318832 bytes, 4 tensors)

0.bias f4 [256]
0	0xbc3b89b8	-0.011446409
1	0xbbe1d0d1	-0.006891348
2	0xbb6da483	-0.0036261387
3	0x3bd0a691	0.0063675125
4	0x3c676ebd	0.014125523
5	0xbba42222	-0.0050089518
6	0xbbf13731	-0.0073613157
7	0x3ba18aaa	0.00492986
8	0xbb195f9c	-0.0023402935
9	0x35a71040	1.2447199e-06
10	0xbc2d649e	-0.010583071
11	0xbba50ef7	-0.0050371843
12	0xbb066524	-0.0020507062
13	0xbbf4def1	-0.0074728657
14	0xbb0cd915	-0.0021491696
15	0x3b97ef73	0.004636699
16	0x3c88f140	0.0167166
17	0x3ce86829	0.02836998
18	0x3c04ffe1	0.008117647
19	0x3b1b18ef	0.0023665985
20	0xbc0ccfac	-0.008594435
21	0x3bd6515b	0.00654046
22	0xbc38cbda	-0.011279071
23	0xbba42d8a	-0.0050103115
24	0x3bdece6e	0.0067995107
25	0xbc427c5a	-0.011870468
26	0x3c1c67e3	0.009546253
27	0x3cac5a73	0.021039223
28	0xbc05940d	-0.008152974
29	0xbc8bd66a	-0.017070014
30	0xbb8c845d	-0.00428824
31	0x3d3e08c2	0.04639507
32	0xba5c0a11	-0.0008393834
33	0xb82ed3c6	-4.1682062e-05
34	0x3bad63b0	0.0052914247
35	0xbb64c747	-0.0034908818
36	0x3c1020e8	0.008796908
37	0xbba719e5	-0.0050995224
38	0xbc1b2b3f	-0.00947076
39	0x3bb37a35	0.0054772147
40	0x3c4c6746	0.012475794
41	0x3bbcfaec	0.005767217
42	0xbb765c31	-0.0037591571
43	0xbc4192f0	-0.011814818
44	0xbbf80911	-0.00756944
45	0xbb356729	-0.0027679896
46	0xbc22033a	-0.009888465
47	0x3cb33d2b	0.021879753
48	0xbbdfc509	-0.0068289083
49	0x3a8bf597	0.001067805
50	0xbb758b46	-0.0037467047
51	0xbc401327	-0.011723316
52	0xbb6db7a5	-0.003627279
53	0x3d4a2617	0.04935273
54	0xbbfddb58	-0.007747095
55	0xbc4e6ed6	-0.0125996675
56	0xbcbc60c9	-0.02299537
57	0x3bc0e7fc	0.0058870297
58	0x3aa18b7a	0.0012324892
59	0xbc8efe3c	-0.017455213
60	0xbba7da7b	-0.0051224804
61	0xbb8944ca	-0.0041891085
62	0xbbea21f7	-0.007145162
63	0xbaec5368	-0.0018030228
64	0x3c92bdb1	0.017912718
65	0x3b8d3041	0.004308731
66	0x3c0bb840	0.008527815
67	0x3bd0565b	0.0063579506
68	0xbb9880e6	-0.0046540378
69	0xbbd19bc4	-0.0063967425
70	0x39863dd3	0.00025604534
71	0x3c2af8b6	0.010435274
72	0xbb864fb0	-0.004098855
73	0x3bae5c7d	0.005321084
74	0x3bdeb3d3	0.006796339
75	0x3b9d9275	0.004808719
76	0x3b3e2bb8	0.0029017758
77	0x3bc0a38c	0.0058788713
78	0xbbe9ccfc	-0.0071350317
79	0x3c2da114	0.010597486
80	0xbc3e9f85	-0.011634712
81	0x3ad7fd50	0.0016478691
82	0x3ae96265	0.0017805813
83	0x3c04e098	0.008110188
84	0x3ad2cd82	0.0016082975
85	0x39809bde	0.00024530193
86	0xbbcae9e7	-0.006192434
87	0xbc28ce44	-0.010303084
88	0xbba5974e	-0.0050534373
89	0xbc8046de	-0.015658792
90	0x3a9e2cf8	0.0012067845
91	0x39b5973c	0.0003463569
92	0xb94dd0be	-0.00019628086
93	0x3a759814	0.00093686697
94	0x3b254dc6	0.0025223359
95	0xbbc19062	-0.0059071044
96	0xbc32c2eb	-0.01091073
97	0x3c87d897	0.01658277
98	0x3b6c3bf7	0.0036046484
99	0xbb1083a4	-0.002205112
100	0xbc6e3d46	-0.014540976
101	0x3c1d601f	0.009605437
102	0xbc80a216	-0.015702289
103	0xbbe9bdc4	-0.0071332175
104	0xbb2ac4a5	-0.002605715
105	0x3a3d39ab	0.0007218371
106	0xbc53dcdf	-0.012931078
107	0xbbfb4cfc	-0.0076690894
108	0xbc31470b	-0.010820161
109	0xbb8551c7	-0.0040685865
110	0xbc071e7f	-0.008247017
111	0xbc977f9f	-0.018493472
112	0xbbb042fc	-0.005379079
113	0x3a0dce4a	0.00054094626
114	0xba3afc2b	-0.0007132913
115	0xbc75f5ae	-0.015012188
116	0xbb394aff	-0.002827346
117	0xbbd5f1ac	-0.0065290537
118	0xbb554783	-0.0032543845
119	0xba4d93bd	-0.0007842144
120	0xb9cd0c38	-0.0003910975
121	0x3b805361	0.0039161895
122	0x3c3be281	0.011467577
123	0xbbe5c1c2	-0.007011623
124	0x3b6bbfe9	0.0035972542
125	0x3befe48f	0.0073209475
126	0xbbd1f594	-0.006407449
127	0xbc200908	-0.009767778
128	0xbbf22be1	-0.0073904847
129	0x3b81fd44	0.003966959
130	0xbb62c1d2	-0.003460039
131	0xbc28fda7	-0.010314382
132	0xbc81029d	-0.015748316
133	0x3ac4b9db	0.0015009003
134	0x39e8dea1	0.0004441636
135	0xbb9deb72	-0.004819327
136	0x3b4ebbc3	0.003154502
137	0x3923e1c4	0.00015628996
138	0xbbf8883e	-0.0075846007
139	0x3af27439	0.0018497772
140	0xbb8bef21	-0.0042704497
141	0x3bb4295e	0.0054980954
142	0xbbb5290e	-0.0055285757
143	0x38cf8198	9.894668e-05
144	0xbbff6560	-0.0077940673
145	0x3bdf082c	0.006806394
146	0xbbd19506	-0.006395939
147	0xbbb997b6	-0.0056638373
148	0xbc1e7f8c	-0.009673964
149	0xbb555461	-0.0032551514
150	0xbc52b7ac	-0.012861174
151	0x3af7acd8	0.0018896116
152	0xb9a4d2a1	-0.00031437448
153	0xbabee205	-0.0014563209
154	0x3bfa7cdd	0.0076442794
155	0xbc535bde	-0.012900321
156	0x3b9697bf	0.0045957263
157	0x3a289eff	0.00064323837
158	0xbbcf35a1	-0.0063235317
159	0xbbd85551	-0.0066019674
160	0x3da6ab78	0.08138174
161	0x3c7a5e3e	0.015281258
162	0x3bed1584	0.007235231
163	0x3c29de0d	0.010367882
164	0xbb09da5f	-0.00210347
165	0x3c979dc1	0.01850784
166	0xbb10bc51	-0.0022084902
167	0xbbf24e60	-0.007394597
168	0xbaa3dff0	-0.0012502652
169	0x3b54ee9d	0.0032490857
170	0x3b86bbe5	0.0041117542
171	0xba91c924	-0.0011122567
172	0xbc87cf39	-0.016578304
173	0xbbdf0e8b	-0.0068071536
174	0x3810e101	3.4541827e-05
175	0x3bc03e7b	0.0058668233
176	0x3bc0df99	0.00588603
177	0xbcb25c81	-0.021772625
178	0xba40991f	-0.00073470356
179	0x3bde34c4	0.0067811925
180	0x3b7b8bcd	0.0038382888
181	0xbbe86ea7	-0.007093269
182	0xbb95ed36	-0.004575397
183	0xbb0e8cdb	-0.0021751437
184	0xbc29c871	-0.01036273
185	0xbc182668	-0.0092865005
186	0xbd08a03a	-0.03335593
187	0x3bd14ba0	0.006387189
188	0xbbb1337d	-0.005407749
189	0xbb876636	-0.0041320575
190	0xbb850647	-0.004059586
191	0xbb419198	-0.0029536244
192	0xbb9add59	-0.0047260937
193	0xbc252841	-0.010080398
194	0xbc2acb81	-0.010424496
195	0xba64f4ff	-0.0008734017
196	0xbb2546f1	-0.0025219286
197	0xbc0ed99b	-0.008718873
198	0xbbbb1ad4	-0.0057099853
199	0x3bde5425	0.006784933
200	0xbbe0e5e7	-0.006863344
201	0x3b8ac535	0.0042349347
202	0x3c24b8c3	0.010053816
203	0xbbf064c6	-0.007336232
204	0x3bb5d681	0.0055492525
205	0xbb79924c	-0.0038081584
206	0xbc39f98e	-0.011351002
207	0xba4c1d36	-0.0007786335
208	0x3b48b120	0.0030623153
209	0xb6cfda38	-6.1944847e-06
210	0xbc8f0a50	-0.017460972
211	0xbb1355c3	-0.0022481538
212	0x3ceea3f1	0.029130908
213	0x3bd593f4	0.0065178815
214	0xbc568ecc	-0.013095569
215	0xba912d95	-0.0011076207
216	0xbc021961	-0.007940621
217	0x3bae1955	0.0053130784
218	0xbbe8e41f	-0.0071072723
219	0xbbf12425	-0.007359045
220	0xbc148688	-0.009065278
221	0xbaef7f53	-0.0018272199
222	0xbb40e4ed	-0.0029433325
223	0xbbdcc256	-0.006737034
224	0x382e621f	4.1576215e-05
225	0xbcc12a8b	-0.023579856
226	0xbd026eaa	-0.03184382
227	0x3b9fb74b	0.004874145
228	0xbccbdbcd	-0.024885083
229	0x3aacde28	0.0013188766
230	0xb9daef35	-0.00041758423
231	0xbc84f44f	-0.016229777
232	0xba815d59	-0.0009869739
233	0x3bf6b384	0.007528724
234	0xbc025312	-0.007954376
235	0x3b6d0ce6	0.0036171018
236	0xbb011c4a	-0.00197007
237	0xbb4cbcf0	-0.0031240545
238	0x3b1cfaa1	0.0023953097
239	0x3a67da10	0.00088444445
240	0x3ba93721	0.0051640426
241	0x3bbb6999	0.0057193753
242	0xbc97db7d	-0.018537277
243	0x3bb6d886	0.005580011
244	0x3baa26e5	0.005192625
245	0xbc6c7900	-0.0144331455
246	0xbbdd05f7	-0.006745096
247	0xb9364fb7	-0.00017386569
248	0xbb127c5c	-0.0022351956
249	0x3c817700	0.015803814
250	0xbc636426	-0.013878858
251	0xbbca874b	-0.006180679
252	0x3c815234	0.015786268
253	0x3c8e232b	0.017350754
254	0xbc5acc89	-0.013354429
255	0x3a192bb3	0.00058429985

0.lin.weight f4 [256, 276]
0	0xbb29a08f	-0.0025883054
1	0xbc1a7538	-0.009427361
2	0xbd629e3e	-0.055326693
3	0xbc6f3c44	-0.014601771
4	0xbc05f2a1	-0.008175523
5	0xbcf665a0	-0.030077755
6	0x3d26196e	0.040551595
7	0x3d7c918b	0.061662238
8	0x3db61be3	0.08892038
9	0x3c868117	0.016418977
10	0xbd0edc2e	-0.03487795
11	0xbdacabb2	-0.08431186
12	0x3c6e1d31	0.014533327
13	0x3c0b9204	0.0085187
14	0xbcb3e66d	-0.021960462
15	0x3c22b3d1	0.009930567
16	0x3cc6c96e	0.024265971
17	0xbcb9f0ce	-0.022697832
18	0xbd5f73d0	-0.054553807
19	0xbd8aafd1	-0.067718156
20	0xbdc0eaa0	-0.09419751
21	0xbd0ef798	-0.034904093
22	0xbb98a717	-0.0046585905
23	0x3d4cc4c8	0.049992353
24	0x3d5b8ee7	0.05360308
25	0x3d8be8ab	0.06831487
26	0x3cafba28	0.02145107
27	0x3d61afe5	0.055099387
28	0xbc86ff6e	-0.01647922
29	0xbdedceec	-0.11611733
30	0xbd742173	-0.059602212
31	0xbd6663a9	-0.056247387
32	0xbc42e91c	-0.011896398
33	0xbcb76bc5	-0.022390256
34	0x3cd66911	0.026173146
35	0xbcd8d17d	-0.02646708
36	0x3d9f3b97	0.07775038
37	0xbddceecd	-0.10787735
38	0x3d6a4e18	0.057203382
39	0xbda0ae2a	-0.07845719
40	0x3d0ead70	0.03483337
41	0x3dd16651	0.102245934
42	0x3da42727	0.0801528
43	0xbdb4b843	-0.08824208
44	0xbd7a06e0	-0.061041713
45	0xbcb16bdc	-0.021657877
46	0xbd704919	-0.05866346
47	0xbd53e909	-0.05173591
48	0x3c21e494	0.009881157
49	0xbd9c00fa	-0.07617374
50	0x3dc0081d	0.093765475
51	0x3d8574fc	0.065164536
52	0xbd6a96a7	-0.05727258
53	0x3d82009a	0.06347771
54	0x3d980ef3	0.07424726
55	0xbcada841	-0.021198394
56	0xbdaeb572	-0.08530702
57	0x3d701b27	0.058619644
58	0x3dba6f04	0.09103206
59	0xbd8c6325	-0.06854848
60	0xbdd982e9	-0.10620672
61	0x3d69bf9c	0.0570675
62	0xbbea8721	-0.007157222
63	0x3db12205	0.08649067
64	0xbdae37d0	-0.08506739
65	0x3c8cf726	0.017207693
66	0x3dba9aa1	0.091115244
67	0xbbedbd50	-0.007255234
68	0x3d3d19bd	0.046167124
69	0x3d384c94	0.044994906
70	0xbdd1a144	-0.10235837
71	0x3d8e1d4e	0.06939183
72	0x3da8e82a	0.08247407
73	0xbdb5b5a2	-0.08872534
74	0x3da091de	0.07840322
75	0x3db03d50	0.086054444
76	0x3cd4e0b9	0.025986062
77	0xbd6429d2	-0.055703945
78	0xbdb066f4	-0.08613387
79	0x3ca42caa	0.020040829
80	0x3d9e6647	0.077343516
81	0xbcfb5229	-0.030678825
82	0xbdb97d6d	-0.09057126
83	0xbd6d55fb	-0.057943325
84	0x3d84dba5	0.06487206
85	0x3c2ce183	0.010551813
86	0xbbeb86f1	-0.007187717
87	0x3c712cda	0.014720166
88	0xbd3d8fb2	-0.046279617
89	0xba84d5fa	-0.0010134571
90	0xbc997ea1	-0.01873714
91	0x3d920068	0.07128984
92	0xbdde6f6a	-0.10861094
93	0x3dc556d2	0.096357
94	0xbda87502	-0.082254425
95	0x3cbcb815	0.023036996
96	0xbca22f7f	-0.019798039
97	0x3c69731b	0.014248635
98	0xbda36b37	-0.07979434
99	0xbdd0bdfe	-0.10192488
100	0x3d68c22b	0.056825798
101	0x3d0948c0	0.033516645
102	0x3db8c34b	0.09021624
103	0xbda703f0	-0.08155048
104	0xbdb9ea23	-0.09077861
105	0x3d8980a0	0.067139864
106	0x3cdaca79	0.026707875
107	0x3a6faf77	0.0009143273
108	0x3d3daa97	0.046305265
109	0xbc0a4c7b	-0.008441086
110	0x38dd3708	0.000105483516
111	0xbd54e280	-0.05197382
112	0x3d8d3909	0.06895644
113	0xbc921ef7	-0.01783703
114	0x3daf4811	0.085586675
115	0xbcd47447	-0.025934352
116	0x3d3c029b	0.045900922
117	0xbde1e1d2	-0.110294
118	0x3d82ce98	0.06387061
119	0xbd23d18d	-0.039994765
120	0x3d0e1a3b	0.034692984
121	0x3d410649	0.047125135
122	0x3db1f8e7	0.086900525
123	0x3d39b169	0.045335207
124	0x3daa84c5	0.08326105
125	0xbd9f2b4a	-0.077719286
126	0xbd8232f1	-0.063573726
127	0x3da9a8e8	0.082841694
128	0xbd92baf1	-0.071645625
129	0xbdc87be8	-0.09789258
130	0xbdd61ae8	-0.10454351
131	0xbbb5267a	-0.0055282684
132	0x3d51a8fe	0.051186554
133	0xbc40bf90	-0.011764422
134	0xbd9b75a3	-0.07590797
135	0xbd30638f	-0.043063696
136	0x3d31cdc7	0.043409135
137	0xbd94aa2d	-0.07259021
138	0xbc5553b8	-0.013020448
139	0x3dad61da	0.08465929
140	0x3d67b31f	0.056567308
141	0x3d60c101	0.054871563
142	0xbccb99bc	-0.02485358
143	0x3d1698ae	0.0367667
144	0xbd49c09a	-0.049255945
145	0xbd5e4093	-0.0542608
146	0x3daa469e	0.083142504
147	0x3db3db3e	0.087820515
148	0xbd9c6bc0	-0.07637739
149	0xbd900d12	-0.07033743
150	0x3da158ad	0.07878242
151	0xbc13d856	-0.0090237465
152	0xbdaffc24	-0.08593014
153	0x3dc3a9fb	0.095539056
154	0x3dc05625	0.09391431
155	0xbda736dd	-0.08164761
156	0x3ccdaece	0.025107767
157	0x3ce6b14f	0.02816072
158	0xbc6171c0	-0.01376003
159	0x3d36569c	0.04451619
160	0xbda03e44	-0.07824376
161	0xbd355620	-0.04427159
162	0x3cc1fd8a	0.023680467
163	0x3cd79dd3	0.026320374
164	0x3db51e67	0.088436894
165	0xbdd5c9d1	-0.10438884
166	0x3d175349	0.03694466
167	0xbd685400	-0.056720734
168	0x3ca6bf28	0.020354822
169	0xbcaadf77	-0.02085851
170	0xbd6824f2	-0.05667586
171	0xbb4cc2e7	-0.00312441
172	0x3dd9520a	0.10611351
173	0x3b98da90	0.0046647266
174	0xbdb8618b	-0.0900298
175	0xbd010c48	-0.031505853
176	0xbdda2499	-0.10651512
177	0x3db0d944	0.0863519
178	0x3d9688ba	0.07350297
179	0xba91cd7d	-0.0011123862
180	0x3d98730b	0.07443818
181	0xbd166197	-0.036714163
182	0xbc925a11	-0.017865213
183	0xbda46c1e	-0.08028434
184	0xbdaf4349	-0.085577555
185	0x3ccaca05	0.024754534
186	0xbce4e770	-0.02794239
187	0x3c745202	0.01491213
188	0x3cea6fae	0.028617706
189	0xbc9ea8c9	-0.019367592
190	0xbd45bf82	-0.04827834
191	0xbd02321e	-0.031786077
192	0x3d1c526f	0.038164552
193	0xbb73331a	-0.0037109316
194	0xbd56c508	-0.052433997
195	0x3cfd26d6	0.030902307
196	0xbd1fde63	-0.039030444
197	0x3d9494cd	0.07254944
198	0xbcb142ba	-0.021638263
199	0x3c91fd87	0.017821087
200	0x3d54baf4	0.051936105
201	0xbcff1d6c	-0.03114196
202	0xbc8b288a	-0.016987104
203	0xbdb93206	-0.09042744
204	0xbd0fd308	-0.035113364
205	0x3da11787	0.078658156
206	0xbb26483d	-0.0025372647
207	0x3d8a9186	0.06766038
208	0x3da77e89	0.081784315
209	0xbd9397f1	-0.07206715
210	0x3db5a91c	0.08870146
211	0x3db918af	0.09037911
212	0x3d7cba93	0.06170137
213	0xbd86cf82	-0.06582548
214	0x3d17fa0e	0.037103705
215	0x3be035b0	0.0068423375
216	0x3cee0ddc	0.029059343
217	0xbdad82cd	-0.08472214
218	0xbda3c4f5	-0.07996551
219	0x3c635187	0.013874418
220	0x3da1fec3	0.0790992
221	0xbb43db84	-0.002988548
222	0xbdc8e4b1	-0.098092444
223	0xbc2373c7	-0.009976334
224	0xbde02ee8	-0.10946447
225	0xbd86e075	-0.065857805
226	0x3d61becb	0.055113595
227	0xbc43f58d	-0.011960399
228	0xbc2ab34f	-0.010418727
229	0x3cbe4fe3	0.023231452
230	0xbd16790b	-0.03673653
231	0xbd98fe6b	-0.074704014
232	0xbdacecd6	-0.0844361
233	0x3dc3fdf8	0.09569925
234	0xbd0f5ade	-0.034998767
235	0xbda6b80b	-0.08140572
236	0xbc0b9ebc	-0.008521732
237	0xbd2562fa	-0.040377595
238	0xbdc766d5	-0.097364105
239	0x3d865873	0.06559839
240	0x3c75d2b9	0.0150038535
241	0xbce4df1c	-0.027938418
242	0xbdc9aaae	-0.09847008
243	0x3d9049bd	0.070453145
244	0xbd91943a	-0.0710835
245	0x3d3d52e6	0.046221636
246	0x3c67fe72	0.014159786
247	0xbd9f64ce	-0.07782899
248	0x3d4dbb1c	0.05022727
249	0x3c78bcaa	0.0151817
250	0x3dcbd58f	0.099528424
251	0xbdad4d2f	-0.08461987
252	0xbd82c7cf	-0.06385767
253	0xbd21db89	-0.039516006
254	0xbdaf0e89	-0.08547694
255	0x3bdf7837	0.0068197506

1.bias f4 [32]
0	0xbb1f39ef	-0.0024296006
1	0x3b8786db	0.004135949
2	0x3c2dbf14	0.010604639
3	0xbc6456fc	-0.013936754
4	0xbc4e8ee9	-0.012607315
5	0xbb7533c9	-0.00374149
6	0xbbfdde9d	-0.007747485
7	0xba8f674c	-0.0010940819
8	0xbc1c26f9	-0.009530776
9	0x3c4f247e	0.012642978
10	0x3bb6e2cc	0.0055812355
11	0xbbb50470	-0.0055242106
12	0x3ae2cf34	0.0017304183
13	0x3c3f412a	0.011673251
14	0x3bb2e0e3	0.0054589375
15	0xbc884537	-0.016634567
16	0xbc5970f4	-0.013271559
17	0xbc14abf0	-0.009074196
18	0x3cc3f8a9	0.023922281
19	0xbc8e40c4	-0.017364867
20	0xbc1234ae	-0.008923693
21	0x3b6fc35f	0.0036584956
22	0x3c4a0406	0.012330061
23	0xbbb3533e	-0.0054725697
24	0xbc8212e3	-0.015878147
25	0xbb85dfdf	-0.0040855254
26	0x3c560691	0.013063089
27	0x3c09f787	0.0084208315
28	0x3c8c5911	0.017132314
29	0xbb58594a	-0.0033012205
30	0xbaf144be	-0.0018407328
31	0x3ac7f33d	0.0015254986

1.lin.weight f4 [32, 256]
0	0xbd71f61f	-0.05907261
1	0xbe05818b	-0.13037698
2	0x3d2b2464	0.04178275
3	0x3d86f3a3	0.06589439
4	0x3d38c429	0.045108948
5	0xbdce592d	-0.10075603
6	0xbdc353a8	-0.095374405
7	0x3d839f43	0.06426861
8	0xbcf08032	-0.029358003
9	0xbd3c00a3	-0.045899045
10	0x3d3482ca	0.044070043
11	0x3bc1c40f	0.0059132646
12	0xbd334a85	-0.04377224
13	0x3d695ccb	0.05697326
14	0xbdb3fad4	-0.08788076
15	0xbdb84780	-0.089980125
16	0x3d91224f	0.07086622
17	0xbd2640e1	-0.040589217
18	0x3d141254	0.03615029
19	0xbd9a70d0	-0.075410485
20	0x3da9eb18	0.08296794
21	0x3d9c42f1	0.076299556
22	0xbc98890a	-0.018620033
23	0xbd2dbe25	-0.042417664
24	0xbdeb83e4	-0.114997655
25	0xbcee2ce6	-0.029074144
26	0xbda0116b	-0.07815822
27	0xbd8a0093	-0.06738391
28	0x3d47d0ed	0.04878323
29	0x3dc9f790	0.09861672
30	0x3c912703	0.017718798
31	0xbd602da3	-0.054731023
32	0xbd51aed9	-0.05119214
33	0xbce8e642	-0.028430108
34	0xbd849e90	-0.06475556
35	0xbde9f50b	-0.11423691
36	0xbde4d181	-0.11172772
37	0x3cfab030	0.03060159
38	0x3d935e2e	0.07195698
39	0x3d2eff20	0.042723775
40	0xbc5b5df7	-0.013389102
41	0x3df0a680	0.11750507
42	0x3df82308	0.12116057
43	0x3c1406c9	0.009034821
44	0x3d46401e	0.04840099
45	0x3d8998cc	0.06718597
46	0x3cf610b5	0.030037263
47	0x3d1352b0	0.03596753
48	0xbd7ba0cf	-0.061432656
49	0x3df06f49	0.11739976
50	0xbda2bf28	-0.079466164
51	0xbd527dbb	-0.051389437
52	0xbd16bdd1	-0.036802117
53	0xbdbac501	-0.09119607
54	0xbd6e8991	-0.058236662
55	0xbd6a3cdb	-0.057186943
56	0x3da41f7d	0.080138184
57	0xbd2be842	-0.041969545
58	0x3cde05f9	0.027102457
59	0xbdd238e1	-0.10264755
60	0x3d8af7c9	0.067855425
61	0xbe062a5d	-0.13102098
62	0xbd58799e	-0.05285036
63	0xbda2370f	-0.07920658
64	0x3d6341f3	0.055482816
65	0xbd0a6cfb	-0.033795338
66	0x3ce9c7ae	0.028537598
67	0x3cd93e52	0.026518974
68	0x3ddb9ae1	0.107229
69	0xbd04131c	-0.032244787
70	0xbdecda97	-0.1156513
71	0x3dfd3489	0.12363536
72	0x3df1fcc6	0.11815791
73	0x3b761ab4	0.0037552537
74	0xbd753033	-0.05986042
75	0x3d0e651a	0.034764387
76	0xbdc6abfb	-0.097007714
77	0xbdc8c4a4	-0.09803131
78	0xbd234b9a	-0.03986702
79	0xbe094fe4	-0.13409382
80	0xbdcc8e0b	-0.0998803
81	0x3d94a029	0.072571106
82	0xbe081565	-0.13289411
83	0x3dc6bfe7	0.09704571
84	0xbc6a5aee	-0.014303906
85	0xbdb12ebc	-0.08651492
86	0xbdf431f1	-0.11923588
87	0xbdc86e69	-0.09786684
88	0xbdfca4ce	-0.123361215
89	0xbdfc9705	-0.12333492
90	0xbdcd59e7	-0.10026913
91	0x3dd8d1e6	0.1058691
92	0xbc04575c	-0.008077469
93	0x3d88a4e4	0.066720754
94	0xbd1c122a	-0.03810326
95	0xbd803839	-0.062607236
96	0x3bbe199c	0.0058013927
97	0xbd943529	-0.07236702
98	0xbd8751b5	-0.06607381
99	0xbdbfcbca	-0.093650416
100	0x3dd14813	0.10218825
101	0x3dd8e80b	0.10591134
102	0xbc9f28e0	-0.01942867
103	0x3dc3752e	0.095438346
104	0x3ced52e4	0.02897019
105	0x3d7dd1e4	0.061967745
106	0x3de853a3	0.113440774
107	0x3dfc0472	0.123055354
108	0x3e0d5343	0.13801293
109	0xbd82e7b1	-0.06391848
110	0x3dee7c6f	0.116448276
111	0x3dea1006	0.114288375
112	0xbd93dd07	-0.07219892
113	0x3e05dff7	0.13073717
114	0xbdbd5f7b	-0.09246727
115	0xbdab958f	-0.083781354
116	0xbcf13ea1	-0.02944881
117	0xbde5c7dc	-0.11219761
118	0xbdf083d5	-0.11743895
119	0x3da03112	0.078218594
120	0x3d48cfcd	0.0490263
121	0x3d97aa5a	0.07405539
122	0x3de092f3	0.10965528
123	0xbbd87c3c	-0.0066066068
124	0x3caf3dd6	0.02139179
125	0x3cdfed3f	0.027334807
126	0xbdd3f633	-0.10349693
127	0x3d8496cb	0.06474074
128	0x3df1adc0	0.11800718
129	0xbdcf8f43	-0.10134747
130	0xbca428d9	-0.020039009
131	0x3d12850d	0.03577142
132	0xbbc44570	-0.005989723
133	0x3d8cff27	0.06884604
134	0xbdb58779	-0.0886373
135	0x3dbaf168	0.09128076
136	0xbc4e279d	-0.012582687
137	0xbd5e4ced	-0.05427258
138	0x3ddc7e3f	0.10766267
139	0x3cce681d	0.02519613
140	0x3db6cce1	0.08925796
141	0x3dc1e142	0.09466793
142	0xbd9f8a73	-0.07790079
143	0x3c6c133c	0.014408883
144	0x3d164634	0.036688045
145	0x3cb8cbf4	0.02255819
146	0xbdccf65f	-0.10007929
147	0x3cdead71	0.027182313
148	0xbdf68012	-0.12036146
149	0x3d2557e6	0.04036703
150	0x3dd7132d	0.10501704
151	0x3dc10b3b	0.0942597
152	0xbd0865bd	-0.03330015
153	0x3b5daa5b	0.0033823464
154	0xbd5023f4	-0.050815538
155	0xbb0b3311	-0.0021240155
156	0x3de2f908	0.11082655
157	0x3d9304c6	0.07178645
158	0x3ce02786	0.027362596
159	0xbceea23e	-0.029130097
160	0xbda0aa33	-0.07844963
161	0xbdaafca0	-0.08348966
162	0xbbab7edc	-0.0052336287
163	0xbc756ea0	-0.014979988
164	0x3da1f732	0.07908477
165	0x3c296242	0.010338368
166	0x3dd6ee42	0.10494663
167	0x3dfe8c14	0.124290615
168	0xbd212b10	-0.03934771
169	0xbca904d8	-0.020632192
170	0xbdebbe48	-0.11510903
171	0xbdec0b70	-0.11525619
172	0xbdbaffbf	-0.09130811
173	0x3de13477	0.10996335
174	0x3e02319b	0.12714235
175	0x3d8de70a	0.06928833
176	0x3ce1f988	0.027584806
177	0x3da58b1b	0.08083173
178	0x3dd4888c	0.10377607
179	0xbd3bc050	-0.0458377
180	0xbe03a47e	-0.12855718
181	0xbd627405	-0.055286426
182	0x3dc3a477	0.095528536
183	0x3c916956	0.017750423
184	0xbd710778	-0.058845013
185	0x3c8f93c7	0.01752652
186	0xbd3b5d84	-0.04574348
187	0xbdbffb00	-0.09374046
188	0x3ce1b85a	0.027553726
189	0x3d475593	0.048665594
190	0x3c46ce80	0.012134194
191	0xbcbf0571	-0.023318024
192	0xbd5f984f	-0.054588612
193	0x3df2a871	0.11848534
194	0xbdd68071	-0.10473717
195	0xbd78e120	-0.06076157
196	0x3dd8325f	0.105564825
197	0x3d365a0d	0.044519473
198	0x3d995734	0.07487336
199	0xbd01c0f9	-0.031678174
200	0x3c8e8691	0.01739815
201	0xbdfacdbd	-0.12246273
202	0x3d06dec1	0.03292728
203	0x3d4293ed	0.047504354
204	0xbd463274	-0.04838796
205	0x3c805aab	0.015668234
206	0x3d32ae55	0.043623287
207	0xbdff3f69	-0.124632664
208	0xbd271b1d	-0.04079734
209	0xbe0003ab	-0.12501399
210	0x3d9984ee	0.074960575
211	0xbdf18b09	-0.11794097
212	0xbd9bde36	-0.07610743
213	0xbdb13629	-0.08652908
214	0xbda0155a	-0.078165725
215	0x3d8d2b9e	0.06893085
216	0xbc028db5	-0.007968356
217	0xbde47a3f	-0.11156129
218	0x3da0600e	0.07830821
219	0xbda79511	-0.08182729
220	0x3a91fd2d	0.0011138074
221	0xbd93a59e	-0.07209323
222	0xbdf14fce	-0.117828
223	0x3d4ad5c8	0.049520284
224	0x3e0368eb	0.12832992
225	0xbc3d9685	-0.011571531
226	0x3d455e63	0.048185717
227	0xbce8f06c	-0.028434955
228	0x3d5b8b9f	0.05359995
229	0xbc43b288	-0.011944421
230	0xbd401bd7	-0.04690155
231	0x3d801546	0.062540576
232	0xbd443669	-0.047903452
233	0xbd0853a6	-0.0332829
234	0x3ccc9151	0.024971636
235	0x3d86a211	0.065738805
236	0x3de15307	0.11002164
237	0x3cc518af	0.024059622
238	0xbdfeef8c	-0.12448034
239	0x3c7db75d	0.015485612
240	0xbe01116e	-0.12604305
241	0x3ddf3420	0.10898614
242	0xbdaff479	-0.08591551
243	0x3d5cc673	0.053900193
244	0xbde87105	-0.11349682
245	0x3db7c163	0.089724325
246	0xbde09806	-0.10966496
247	0x3d762969	0.060098086
248	0x3da66490	0.081246495
249	0x3d954fb7	0.07290595
250	0xbdfdf989	-0.12401111
251	0x3de3b0b9	0.111176915
252	0xbc00b791	-0.007856266
253	0xbb8fadea	-0.004384746
254	0xbcbf1df8	-0.02332972
255	0xbd7264dc	-0.05917822
