pretrained_gnns/Pokecn_dgi_gcn.pth (torch, 307720 bytes, 4 tensors)

conv1.bias f4 [256]
-0.010766666 0.014601957 0.023070442 0.02148286 0.01344436 -0.028566392 -0.006735472 0.020644026
-0.019126628 0.021444686 -0.024138585 -0.014359651 -0.008481291 0.04343194 0.008641668 0.004412898
0.008665773 -0.005739346 0.009975808 -0.0073372507 0.021378793 0.0008836621 -0.00077905844 0.019402057
-0.011916749 -0.01847995 -0.008385676 -0.006912599 -0.00043049938 -0.010893397 0.0044301143 -0.005459041
-0.022566691 -0.0025663937 -0.0067779124 -0.0037286854 0.017829053 0.0053800466 0.001513459 -0.016378393
0.03131682 -0.026845897 0.042829037 -0.0052964403 -0.0007907584 -0.014105008 0.025778346 -0.0071217795
0.0010674539 0.00393463 0.0017826138 0.08756021 -0.018364448 -0.0116538415 -0.012403723 -0.012902059
-0.0011856679 0.016643925 0.028811097 0.022170585 -0.011291942 0.025168015 -0.009179815 0.010677223
0.004437511 -0.019222327 -0.0137744695 0.04018419 -0.0104355775 -0.0017464503 -0.00079751486 0.011025579
0.006340577 0.00496618 -0.007432546 -0.024946785 -0.017118555 -0.0057122977 0.033653393 -0.027599704
0.016819691 0.014190311 0.022313671 -0.005153318 -0.014654052 0.015495287 -0.013282848 -0.008669281
-0.003049683 -0.0016796502 0.009895007 -0.014339426 -0.015926614 0.023920802 0.001937982 -0.0069760974
-0.0046109995 -0.0069203153 -0.010193426 0.0016417098 -0.012618288 0.00778369 -0.012973603 -0.005716277
0.0022623944 0.0030392704 0.0022217962 0.047999088 0.006247346 -0.0043020314 -0.002334598 0.0023048196
0.0039599803 -0.022676311 0.004539667 -0.0006683757 -0.001225193 -0.00018170937 -0.021919964 -0.022178818
-0.0045145475 -0.0116654355 -0.01062037 0.010788248 0.003161781 0.004174962 0.014856932 0.0006475582
0.0003587337 -0.0013983343 -0.0054659685 0.038125508 0.010547846 -0.012023737 0.0032630248 -0.021435505
-0.0065684645 0.0147499945 0.049598277 0.009258534 -0.0018210938 0.017156027 -0.00799545 -0.0058982433
0.0062231054 0.006935278 -0.02684844 -0.005266546 -0.023194714 0.0034302715 -0.009495036 -0.005053263
-0.017778715 -0.014652905 0.0041464805 -0.00803233 0.008199255 -0.013487939 -0.008005341 0.00483875
0.014546711 -0.0075972322 0.0025633147 0.005489376 0.015920786 0.0033888665 -0.013064579 -0.015519203
-0.0015046503 -0.005104623 -0.0005330914 0.03025277 -0.00622315 0.01966227 0.0038963673 -0.005419562
-0.0006832388 -0.02093444 0.0020788112 -0.019942285 -0.021074368 0.0061760205 -0.020249974 -0.0055300226
0.025603198 0.051408954 -0.006532451 -0.016633527 -0.00026810268 0.0060947877 0.009764382 0.043255642
-0.008970769 0.005481756 0.024138447 0.0013499383 -0.016519044 -0.020502862 -0.011433845 0.00088525546
0.028545538 -0.018934978 0.0072107157 0.04735344 0.03992411 0.001487879 -0.023557149 0.01390046
0.002984979 0.035364386 0.051941015 0.01374733 -0.004698152 0.007947611 -0.00512202 0.022621462
-0.013682884 0.020486914 -0.013426311 0.0058743134 -0.0076814517 -0.020400943 0.0064083724 -0.0063670008
0.00658614 -0.008493429 -0.013246572 -0.0154360775 0.025016144 -0.005511788 -0.01723868 0.0012275559
-0.015824638 0.00025703432 0.006531607 0.0019693715 -0.001289154 -0.019589392 0.0008909311 -0.012939694
-0.027129175 0.0042492542 -0.0065702805 0.013675721 0.027865808 0.0053690486 0.008838689 -0.0031347813
-0.0116989575 -0.018383231 -0.0046007545 0.01797336 0.008130569 0.0015769656 0.037445165 0.0047315317
00000000: ac66 30bc 0c3d 6f3c 39fe bc3c d3fc af3c
00000010: bc45 5c3c 1104 eabc 3cb5 dcbb a91d a93c
00000020: 72af 9cbc c4ac af3c 48be c5bc be44 6bbc
00000030: 1df5 0abc b1e5 313d c895 0d3c 129a 903b
00000040: e3fa 0d3c 2011 bcbb 9271 233c 526d f0bb
00000050: 9422 af3c 8fa5 673a ba39 4cba 10f1 9e3c
00000060: 783e 43bc 4463 97bc 1364 09bc 1583 e2bb
00000070: a6b4 e1b9 387a 32bc 7e2a 913b c1e1 b2bb
00000080: c8dd b8bc f130 28bb 4019 debb f65c 74bb
00000090: 3c0e 923c 1a4b b03b 425f c63a fb2b 86bc
000000a0: 1146 003d edeb dbbc 806d 2f3d c38d adbb
000000b0: e64a 4fba b118 67bc 1c2d d33c d15d e9bb
000000c0: cfe9 8b3a 12ee 803b 98a6 e93a c452 b33d
000000d0: 0a71 96bc c1ef 3ebc fc38 4bbc 2863 53bc
000000e0: 6a68 9bba d758 883c 4005 ec3c 169f b53c
000000f0: d601 39bc 272d ce3c ef66 16bc 85ef 2e3c
00000100: 8a68 913b 2478 9dbc 50ae 61bc 2d98 243d
00000110: fcf9 2abc 26e9 e4ba 5110 51ba a1a4 343c
00000120: 9dc4 cf3b 56bb a23b b78c f3bb 335d ccbc
00000130: 363c 8cbc 3a2e bbbb 24d8 093d c618 e2bc
00000140: 73c9 893c 7a7e 683c 29cb b63c 2add a8bb
00000150: 8d17 70bc f2df 7d3c 4da0 59bc 9a09 0ebc
00000160: 31dd 47bb b527 dcba ab1e 223c e9ef 6abc
00000170: 8878 82bc 8ff5 c33c e303 fe3a bf97 e4bb
00000180: de17 97bb d0c3 e2bb 5402 27bc a42e d73a
00000190: f0bc 4ebc 530e ff3b 3c8f 54bc 9b4f bbbb
000001a0: ae44 143b 7f2e 473b 8e9b 113b b19a 443d
000001b0: 89b6 cc3b 0ef8 8cbb 0e00 19bb 750c 173b
000001c0: b9c2 813b acc3 b9bc 7dc1 943b ef35 2fba
000001d0: a896 a0ba 3d89 3eb9 7f91 b3bc 5ab0 b5bc
000001e0: c5ee 93bb 6220 3fbc 0f01 2ebc 31c1 303c
000001f0: e235 4f3b 1fce 883b 7d6a 733c e5c0 293a
00000200: 6c14 bc39 5048 b7ba de1b b3bb 7e29 1c3d
00000210: dfd0 2c3c 35ff 44bc 79d8 553b 8399 afbc
00000220: 463c d7bb f6a9 713c 9027 4b3d 1bb1 173c
00000230: c5b1 eeba cc8a 8c3c 59ff 02bc 0d46 c1bb
00000240: 31eb cb3b 5441 e33b 42f1 dbbc fd92 acbb
00000250: d702 bebc 68ce 603b 1191 1bbc d895 a5bb
00000260: aba4 91bc bd12 70bc 33df 873b 099a 03bc
00000270: 2b56 063c 84fc 5cbc d528 03bc 618e 9e3b
00000280: 5455 6e3c 34f2 f8bb 49fd 273b 39e0 b33b
00000290: 4f6c 823c bf17 5e3b d10c 56bc 4144 7ebc
000002a0: b037 c5ba ae44 a7bb 29bf 0bba a8d4 f73c
000002b0: 91eb cbbb c512 a13c 325a 7f3b 9596 b1bb
000002c0: 611b 33ba b47e abbc aa3c 083b 015e a3bc
000002d0: 27a4 acbc 3760 ca3b 46e3 a5bc 3135 b5bb
000002e0: ccbd d13c 3292 523d 2c0e d6bb 0943 88bc
000002f0: 2290 8cb9 c9b6 c73b c9fa 1f3c d42c 313d
00000300: 22fa 12bc 4da0 b33b febd c53c 6af0 b03a
00000310: f252 87bc 9ef5 a7bc 0655 3bbc 7d10 683a
00000320: 55d8 e93c 871d 9bbc de47 ec3b aef5 413d
00000330: 7787 233d ef04 c33a ecfa c0bc c1be 633c
00000340: a39f 433b 3fda 103d 1ac0 543d 7b3c 613c
00000350: f5f2 99bb b236 023c 9ed6 a7bb a550 b93c
00000360: 2d2e 60bc 2cd4 a73c 08fa 5bbc 507d c03b
00000370: b0b4 fbbb e11f a7bc 53fd d13b 46a2 d0bb
00000380: 8cd0 d73b 0628 0bbc 2608 59bc 9ae7 7cbc
00000390: a8ee cc3c 3b9c b4bb 2238 8dbc f1e5 a03a
000003a0: aca2 81bc 90c2 8639 1707 d63b 9210 013b
000003b0: d5f8 a8ba ef79 a0bc 608d 693a 0301 54bc
000003c0: 013e debc 543d 8b3b 824b d7bb 2210 603c
000003d0: d646 e43c d8ee af3b 26d0 103c e770 4dbb
000003e0: fcac 3fbc 6e98 96bc edc1 96bb de3c 933c
000003f0: 1436 053c 2fb2 ce3a 1a60 193d f70a 9b3b

conv1.lin.weight f4 [256, 265]
0.14947706 0.00027247265 -0.06249609 0.07486365 -0.06743355 0.009685235 -0.058468856 0.07264555
-0.108251914 0.054485265 -0.08981755 -0.07959603 0.06433117 0.06348111 -0.008085491 -0.004332797
-0.084431216 0.04417679 -0.038906857 0.028854715 0.00061331224 -0.07110256 0.0026034224 0.024238477
0.07251031 -0.020735284 -0.040232398 -0.08965241 -0.004137679 -0.04764333 0.028748987 0.09917087
-0.074963644 0.043216567 0.06710808 0.05553086 -0.057836805 0.01889297 -0.074280955 -0.09679711
-0.08245228 -0.044337813 -0.1129531 0.0815048 -0.044855166 -0.02666758 -0.07375916 -0.09986149
0.00739283 -0.012287793 0.0395357 -0.017136091 0.09205312 0.09641059 -0.036268182 0.034598317
-0.03226695 -0.020382026 -0.019253137 0.019586766 -0.03758818 -0.05182095 -0.005091837 0.09375268
0.10698345 -0.080086455 0.022718651 -0.045147255 0.06178032 0.074773915 -0.068725444 -0.030113498
-0.089936756 0.024509769 0.084908634 -0.098355584 0.05867668 -0.0929204 0.028108662 -0.058127742
0.03302857 -0.0869865 -0.00581462 -0.00225057 0.023028716 -0.013913008 0.014271278 -0.1086005
0.0041438113 -0.010090165 0.05444137 -0.088578016 -0.07371867 0.01017189 0.07540959 -0.04840949
-0.097305164 0.020322025 0.066026844 -0.055165436 -0.08629859 -0.06417321 0.0026615663 -0.0981575
0.026588539 0.083879516 -0.012540141 0.046641774 -0.02510086 -0.09425548 -0.030806895 -0.11305603
-0.08081589 -0.024843713 -0.108629294 0.059399065 -0.0362452 0.08701218 0.078742765 0.048958063
0.058705468 -0.06348744 -0.07380978 0.06294044 -0.0038555718 -0.06155673 0.01714551 -0.03322299
-0.05103373 0.05875288 0.040317725 0.08680251 0.039048333 0.039107222 0.031033479 -0.067843765
0.045535 -0.047445346 -0.04348085 -0.114396326 -0.061700527 -0.09636341 0.020681065 0.018827643
-0.018398771 -0.009338842 -0.0775541 0.051597763 0.031562284 0.03109729 -0.060116857 0.02860725
0.061633334 0.07251432 -0.095136076 0.055140406 -0.026960032 -0.040140867 -0.074874625 0.04280774
0.053760864 0.016360885 0.050030004 -0.0006272886 0.02392679 -0.031375963 0.0701617 -0.05972489
0.058759265 0.036893193 -0.0011537615 0.058861587 0.08259544 0.053865343 -0.06553061 0.0635066
-0.057281964 -0.004983145 -0.08718559 2.5032936e-05 -0.062055882 0.004786718 0.08168161 -0.056660257
-0.058283098 0.0014606796 -0.029644266 0.03711495 -0.046570808 -0.016334612 0.07498736 0.049415104
0.0649088 -0.046830032 0.06022836 0.062919 -0.114636794 -0.079254046 0.023194233 0.103820525
-0.11337135 -0.023887044 0.06527749 -0.032905273 -0.080807924 0.06938533 0.06477307 0.12123101
0.048875175 0.03725991 0.027569769 0.04814708 0.06735184 -0.07456911 0.08940129 -0.09724209
-0.044017855 0.072340034 -0.061687812 0.015889496 0.027080359 0.097779185 -0.060753852 0.03512222
0.03451465 -0.019751906 0.03552659 0.014583217 0.074577965 0.062105745 0.0965623 -0.011167135
-0.0026764283 -0.055236317 0.07839867 -0.031941105 -0.07096619 -0.03501222 -0.09513443 -0.018919325
-0.10653889 -0.02852662 0.014391828 0.040884648 0.0061981445 0.057207704 0.008181671 0.10325402
0.02099185 0.09890474 0.01357209 0.06477718 0.056000855 0.0074518123 0.03348677 0.007945055
00000000: 8410 193e a9da 8e39 e6fb 7fbd 1d52 993d
00000010: 9a1a 8abd d2ae 1e3c 0a7d 6fbd 31c7 943d
00000020: 2eb3 ddbd f12b 5f3d 43f2 b7bd 3e03 a3bd
00000030: 0fc0 833d 6202 823d 0279 04bc 23fa 8dbb
00000040: 46ea acbd b9f2 343d cc5c 1fbd b960 ec3c
00000050: b0c6 203a 389e 91bd 2e9e 2a3b c58f c63c
00000060: 4980 943d 0bdd a9bc baca 24bd af9b b7bd
00000070: 5e95 87bb a725 43bd ff82 eb3c 191a cb3d
00000080: 8a86 99bd db03 313d f66f 893d 5474 633d
00000090: 49e6 6cbd 6ec5 9a3c 9d20 98bd 903d c6bd
000000a0: bedc a8bd 919b 35bd f453 e7bd fdeb a63d
000000b0: 0dba 37bd f875 dabc 0b0f 97bd 2e84 ccbd
000000c0: 8e3f f23b bd52 49bc 30f0 213d fd60 8cbc
000000d0: 5986 bc3d ea72 c53d f28d 14bd f7b6 0d3d
000000e0: 592a 04bd 35f8 a6bc c1b8 9dbc 6d74 a03c
000000f0: 10f6 19bd 3442 54bd 6dd9 a6bb 6801 c03d
00000100: 241a db3d 5e04 a4bd 771c ba3c 54ec 38bd
00000110: 5c0d 7d3d 1123 993d edbf 8cbd 95b0 f6bc
00000120: c330 b8bd b6c8 c83c 94e4 ad3d a76e c9bd
00000130: f556 703d 0d4d bebd 2344 e63c 5b17 6ebd
00000140: f748 073d fa25 b2bd 9188 bebb 4d7e 13bb
00000150: b8a6 bc3c 63f3 63bc 14d2 693c f069 debd
00000160: cfc8 873b 3851 25bc eafd 5e3d 6468 b5bd
00000170: d0f9 96bd 00a8 263c 5870 9a3d 0849 46bd
00000180: ee47 c7bd 607a a63c 1539 873d 27f5 61bd
00000190: 51bd b0bd 3e6d 83bd ac6d 2e3b cd06 c9bd
000001a0: 35d0 d93c 06c9 ab3d 2a75 4dbc 720b 3f3d
000001b0: 52a0 cdbc 0409 c1bd be5e fcbc eb89 e7bd
000001c0: cd82 a5bd 0b85 cbbc 0979 debd 6f4c 733d
000001d0: d975 14bd 7133 b23d e343 a13d 4088 483d
000001e0: 2575 703d b405 82bd 9529 97bd ebe6 803d
000001f0: c3ad 7cbb e922 7cbd be74 8c3c d414 08bd
00000200: bf08 51bd dca6 703d 3324 253d 84c5 b13d
00000210: 25f1 1f3d e52e 203d ec39 fe3c acf1 8abd
00000220: e882 3a3d 0d56 42bd fa18 32bd 9f48 eabd
00000230: b1b9 7cbd 2e5a c5bd 566b a93c 6e3c 9a3c
00000240: 05b9 96bc f101 19bc afd4 9ebd 2d58 533d
00000250: 7447 013d bebf fe3c 183d 76bd c059 ea3c
00000260: 3c73 7c3d 6382 943d b4d6 c2bd e8da 613d
00000270: 49db dcbc c06a 24bd de57 99bd 2b57 2f3d
00000280: 5a34 5c3d 4307 863c 43ec 4c3d a070 24ba
00000290: 1e02 c43c 1584 00bd f0b0 8f3d 16a2 74bd
000002a0: 8ead 703d 511d 173d d039 97ba d918 713d
000002b0: cc27 a93d e8a1 5c3d ea34 86bd c00f 823d
000002c0: 7ea0 6abd a649 a3bb 5c8e b2bd d2fd d137
000002d0: 4f2e 7ebd e7d9 9c3b b048 a73d 9614 68bd
000002e0: 42ba 6ebd 4674 bf3a 88d8 f2bc d905 183d
000002f0: 08c1 3ebd 2ad0 85bc f992 993d 7e67 4a3d
00000300: e8ee 843d d9d0 3fbd 03b2 763d addb 803d
00000310: b2c6 eabd f24f a2bd d501 be3c db9f d43d
00000320: 3d2f e8bd c3ae c3bc 34b0 853d aec7 06bd
00000330: a07e a5bd e519 8e3d bea7 843d f747 f83d
00000340: 5631 483d d99d 183d ffd9 e13c df35 453d
00000350: c3ef 893d b1b7 98bd 0618 b73d dc26 c7bd
00000360: 114c 34bd 0327 943d 5cac 7cbd b02a 823c
00000370: a1d7 dd3c 7440 c83d 08d9 78bd 51dc 0f3d
00000380: 3c5f 0d3d c0ce a1bc 5484 113d 72ee 6e3c
00000390: 55bc 983d 9862 7e3d 75c2 c53d 5cf6 36bc
000003a0: 0467 2fbb 7a3f 62bd 7b8f a03d add4 02bd
000003b0: b956 91bd f968 0fbd d7d5 c2bd b3fc 9abc
000003c0: 1031 dabd a8b0 e9bc b4cb 6b3c a976 273d
000003d0: ce19 cb3b a052 6a3d 6a0c 063c d876 d33d
000003e0: 1af7 ab3c 918e ca3d 795d 5e3c e6a9 843d
000003f0: 2761 653d 552e f43b 6c29 093d fa2b 023c

conv2.bias f4 [32]
0.011186949 0.016178267 0.0012657477 -0.005624259 0.012607811 -0.023411786 0.005111278 0.0076795695
0.013428275 0.02083337 0.012105042 0.0006837101 -0.007993126 -0.0026238675 -0.014859291 0.004304131
-0.0006901834 0.010190799 0.0061074705 -0.023017729 -0.0028951236 0.014337246 -0.016120596 0.00683818
-0.0018480935 -0.008738325 0.018210031 0.0027523767 0.00907601 0.004817734 0.007655543 0.0021884427
00000000: 7749 373c 4988 843c 72e7 a53a b44b b8bb
00000010: fe90 4e3c 13ca bfbc 827c a73b e6a4 fb3b
00000020: 4402 5c3c beaa aa3c 3a54 463c 023b 333a
00000030: 9af5 02bc 31f5 2bbb 6274 73bc ab09 8d3b
00000040: 6ded 34ba 4ff7 263c 2d21 c83b ad8f bcbc
00000050: 1dbc 3dbb c5e6 6a3c 570f 84bc d012 e03b
00000060: ba3b f2ba 312b 0fbc 342d 953c 3861 343b
00000070: 8cb3 143c 15de 9d3b 59db fa3b fa6b 0f3b

conv2.lin.weight f4 [32, 256]
-0.12646855 -0.11773143 -0.048711665 0.020715944 0.13697757 -0.050066657 0.022045422 0.14919047
0.009123556 0.06832255 -0.10760659 -0.023243275 -0.06399051 -0.102977835 0.084098436 -0.11311733
0.11282119 -0.079840735 -0.114423335 -0.07532147 -0.044311687 0.0360728 -0.0935291 0.14599268
0.11500712 -0.07742979 0.030203206 0.0029164236 0.041063137 -0.13330841 0.081039235 0.027815675
0.016798463 0.03332452 -0.121845245 0.03606981 0.11182575 0.04166373 0.12775008 -0.022299051
0.09985732 0.081142284 -0.050229546 -0.082957104 0.04720928 -0.108337246 0.091484405 -0.009223163
-0.146846 0.009734449 -0.035421114 0.06996318 -0.102004245 0.093939 -0.0885841 0.06844743
0.09047275 -0.10231728 0.12814909 0.09644496 0.036337305 -0.10847657 -0.052118048 -0.035391435
-0.09555282 -0.040780816 -0.059472688 -0.06630066 -0.092994384 -0.04970991 -0.09566547 0.073067605
0.13211823 -0.07887269 0.02648211 -0.06582956 0.124642 0.11834706 0.06963901 -0.091854796
0.00022042732 -0.053892802 0.11267264 0.053948354 -0.12400102 0.1355392 0.11750526 0.008973356
0.10799457 0.08648686 -0.004335345 0.007775812 -0.08910522 0.02576051 0.03297118 0.1682848
0.111155316 -0.06830816 0.064104885 -0.12946355 -0.03874507 -0.11284746 0.03212587 -0.058253177
-0.07311977 -0.08959208 -0.12164723 0.15100232 0.035551064 -0.118608706 0.08076263 0.02654092
0.07644221 -0.10683422 -0.07893133 -0.104724854 0.14218338 -0.08588472 0.04838003 -0.05732008
-0.115122385 0.12849015 -0.114514045 -0.104201294 -0.036506742 0.122237325 0.0933761 0.08310228
-0.11005771 -0.065015 0.05143073 -0.0036885138 0.11845283 0.049284488 0.12841737 0.020943841
-0.12882131 0.07593856 0.09227366 0.06543366 0.058930337 -0.041665133 -0.13698293 0.09335994
-0.026961872 0.16073936 0.031505615 0.087485984 0.13063957 0.08671619 -0.07572393 0.10054604
0.01610114 0.09634347 0.039461326 0.15434842 0.043867536 0.02192123 0.07469438 0.11543144
0.035027448 0.1458418 0.0101222135 -0.07474084 -0.0073124818 -0.12231126 0.106495336 -0.12279435
-0.10378368 0.07485166 -0.061474957 0.03278381 0.044495057 0.13529696 -0.11316396 0.09068386
-0.07961987 0.14317365 0.046347443 -0.043992743 0.10892351 0.15187883 -0.018276818 0.105999306
-0.038078856 0.04293662 0.13950191 -0.008710851 -0.09478411 0.1400159 -0.08564021 0.13505134
0.09248593 0.0043772487 0.045370873 0.042305022 0.0015556747 -0.08853749 0.013412061 0.14138432
0.12663138 -0.043672442 -0.008128113 0.075370975 -0.0050769537 -0.09615667 0.07579234 -0.0051662484
-0.06138794 0.1614121 0.03455156 0.074200064 -0.12805952 0.11879996 0.15418427 -0.015796514
-0.09690522 0.024042452 -0.103961416 0.015825383 0.091216944 -0.013608914 -0.1027969 0.06038179
0.01284795 0.077191696 0.052635435 0.13755797 0.11393557 -0.11842711 -0.08821878 0.14010784
-0.07735315 0.07539884 -0.0067357523 -0.13538297 0.039169405 -0.033522215 -0.053039886 0.04995855
-0.12360627 0.05201719 0.05379722 0.09497232 -0.07661214 0.13892102 -7.242037e-05 0.02235547
0.051944092 -0.043048747 -0.074983105 -0.09756022 -0.0063140835 0.1281329 -0.018752478 0.0032034453
00000000: f980 01be 2d1d f1bd e285 47bd 7cb4 a93c
00000010: d943 0c3e b212 4dbd 9a98 b43c 63c5 183e
00000020: f87a 153c b1ec 8b3d d860 dcbd ae68 bebc
00000030: 750d 83bd 0be6 d2bd cd3b ac3d 0faa e7bd
00000040: cc0e e73d 8a83 a3bd c856 eabd 2542 9abd
00000050: 2c80 35bd 13c1 133d 2f8c bfbd 1b7f 153e
00000060: da88 eb3d 8293 9ebd b76c f73c 7821 3f3b
00000070: d231 283d 0082 08be e6f7 a53d b3dd e33c
00000080: ee9c 893c 4b7f 083d 008a f9bd f0bd 133d
00000090: e604 e53d 96a7 2a3d ebd0 023e 80ac b6bc
000000a0: ff81 cc3d ed2d a63d 7fbd 4dbd 6ae5 a9bd
000000b0: 855e 413d ebdf ddbd 2d5c bb3d c01c 17bc
000000c0: cc5e 16be 3d7d 1f3c bb15 11bd db48 8f3d
000000d0: 9ae7 d0bd 1763 c03d 956b b5bd 2b2e 8c3d
000000e0: c749 b93d b98b d1bd 8439 033e ef84 c53d
000000f0: 6dd6 143d f728 debd bc79 55bd 9cf6 10bd
00000100: 32b1 c3bd c909 27bd a299 73bd a4c8 87bd
00000110: d773 bebd 9e9c 4bbd 42ec c3bd 78a4 953d
00000120: 004a 073e 0188 a1bd 03f1 d83c a6d1 86bd
00000130: 4e44 ff3d f25f f23d e69e 8e3d 5e1e bcbd
00000140: 8222 6739 b3be 5cbd eac0 e63d f3f8 5c3d
00000150: 3ff4 fdbd caca 0a3e 99a6 f03d fc04 133c
00000160: 422c dd3d 0620 b13d 820f 8ebb 3dcc fe3b
00000170: cc7c b6bd b407 d33c ca0c 073d da52 2c3e
00000180: 66a5 e33d 26e5 8bbd 6c49 833d 1892 04be
00000190: 27b3 1ebd 921c e7bd 6b96 033d e29a 6ebd
000001a0: d1bf 95bd 0d7c b7bd 2f22 f9bd 5aa0 1a3e
000001b0: fe9d 113d 1fe9 f2bd e166 a53d 586c d93c
000001c0: bc8d 9c3d e6cb dabd c0a6 a1bd fc79 d6bd
000001d0: 8598 113e 54e4 afbd 232a 463d 76c8 6abd
000001e0: 49c5 ebbd ec92 033e 5786 eabd 7d67 d5bd
000001f0: 1888 15bd 9057 fa3d f83b bf3d 8731 aa3d
00000200: f065 e1bd 9626 85bd 07a9 523d feba 71bb
00000210: 6697 f23d 88de 493d d87f 033e 6b92 ab3c
00000220: bce9 03be ad85 9b3d f9f9 bc3d 1502 863d
00000230: f060 713d 0fa9 2abd 4145 0cbe 7f33 bf3d
00000240: 25df dcbc dc98 243e 080c 013d da2b b33d
00000250: 61c6 053e 4298 b13d 2615 9bbd 15eb cd3d
00000260: 8ae6 833c ba4f c53d 33a2 213d 830d 1e3e
00000270: 72ae 333d 2794 b33c 5ef9 983d 5267 ec3d
00000280: f178 0f3d 8e57 153e a4d7 253c ba11 99bd
00000290: 8b9d efbb 537e fabd 3a1a da3d 9b7b fbbd
000002a0: 8a8c d4bd d44b 993d 2acd 7bbd 5148 063d
000002b0: 7340 363d 498b 0a3e 82c2 e7bd 76b8 b93d
000002c0: be0f a3bd 1d9c 123e d1d6 3d3d bc31 34bd
000002d0: 4a13 df3d 2086 1b3e 44b9 95bc 2a16 d93d
000002e0: 93f8 1bbd 4fde 2f3d 97d9 0e3e f5b7 0ebc
000002f0: 2c1e c2bd 5460 0f3e 2264 afbd e64a 0a3e
00000300: 4369 bd3d 066f 8f3b cfd6 393d 0848 2d3d
00000310: c8e7 cb3a 2553 b5bd 43be 5b3c 0dc7 103e
00000320: a8ab 013e e0e1 32bd c72b 05bc 195c 9a3d
00000330: 935c a6bb caed c4bd 0439 9b3d a249 a9bb
00000340: ec71 7bbd 3749 253e f085 0d3d 34f6 973d
00000350: 0922 03be 654d f33d 7be2 1d3e b167 81bc
00000360: 3e76 c6bd adf4 c43c b9e9 d4bd 3ca4 813c
00000370: f3cf ba3d ecf7 5ebc 2e87 d2bd e552 773d
00000380: 3580 523c ae16 9e3d 4198 573d ffdb 0c3e
00000390: 0d57 e93d ea89 f2bd 0cac b4bd 6e78 0f3e
000003a0: 546b 9ebd b56a 9a3d 96b7 dcbb d5a1 0abe
000003b0: 1970 203d 974e 09bd 5a40 59bd 56a1 4c3d
000003c0: 4925 fdbd fa0f 553d 795a 5c3d d980 c23d
000003d0: d3e6 9cbd 5041 0e3e 64e0 97b8 d222 b73c
000003e0: 54c3 543d e253 30bd be90 99bd a7cd c7bd
000003f0: 5fe6 cebb 4535 033e cc9e 99bc e5f0 513b
