pretrained_gnns/Pokecz_graphcl_gcn.pth (torch, 318856 bytes, 4 tensors)

conv1.bias f4 [256]
00000000: a136 16ba e08a b53c 138d 22bc 78fb 403a
00000010: f570 69bc 7d24 e8b6 dbfe 92bb e33e a4bb
00000020: 596d 35bb cc2a 22b8 8567 203d 4917 d0bc
00000030: 5af6 b8bc 4b07 a6bc 39ea 55bc d897 363c
00000040: 23ef b73c cb49 25bb 68f0 f53c 8cb9 e13c
00000050: b483 f7bb 9099 dbbb c109 bd3b c20d b0bb
00000060: 8d8d 943a 3aa9 cd3a dbb5 87bc 513d 8ebb
00000070: 9441 81bb 4ada 83bb 60e6 083a 6d6e cbbb
00000080: 4bd2 cb3c 9026 96bb 5baa a93c e9a8 c73c
00000090: 72fa 0f3d 1fdd 11bc d554 45bb 9ca2 f13c
000000a0: 6f5e 2b3c 0ea0 87ba d718 b4bb f1ba 57bb
000000b0: 53f3 adba 7f86 b4bb b8ee cfbb 6518 17bc
000000c0: 197e d03a 7c97 603a 4936 1abb a487 2d3d
000000d0: 20ad 8a3c 87f4 bf3a 2783 8bb9 8605 f13b
000000e0: 4aeb bcba f036 35b9 bc2d 423b 94ea 32bb
000000f0: d05c 61bc 2d85 7f3b eb91 0a3c 647d 32bc
00000100: c53e 26bc 9b44 033b cfdf 943b c855 a1bb
00000110: 6fa6 a0bc 2b30 7f3b 7ca6 2c3c 37c4 c4ba
00000120: a471 3d3c fea8 463c 5ce2 28bb e765 efbc
00000130: 3776 bebb 9c5b d3bb d5e5 1f3d a4ba fcba
00000140: f29e 3bbc ef9a 72bc 579e 66ba 70a4 803c
00000150: ab68 4c3b 1e87 ae3b 46b9 ca3c e98e 7fbc
00000160: 74ff 513c 6a28 cabb 5ce4 95bc d6d2 6d3b
00000170: 7e37 593b 9bc7 b33c 7848 0e3c e759 873c
00000180: d889 103b 0bec bc3b f86a eebb ce5a 913b
00000190: e2bf 483c 6807 383c d62a b23b da39 30bb
000001a0: f78d 4abb 50e8 0c3c 52cb 7e3c 7639 853b
000001b0: e6db 87bb dc5c a63c e9f1 c63a 0cde 413c
000001c0: f5f5 ffbb 1029 88bb 716d c2bb da1f bf3c
000001d0: dd89 00bb b2cc f3bb 90d0 6cbc ae18 b5bb
000001e0: 9940 a63b 89be e53c 6a81 2f3b 279a 2c3d
000001f0: c192 86ba 4570 633b 0c00 9e39 3d78 073c
00000200: 2443 8bbc bfa0 b2bb 7d19 21bc 0293 a0bb
00000210: 829b 74bc 8a84 51bb d589 553c 77c6 90ba
00000220: 2d93 a7b9 b2fd a33b fc8a 1f3b 3742 9cbb
00000230: b33d e7ba 89b8 d03a dec5 2cbc 6715 3fbb
00000240: 0faf 643a b705 653c 33c2 92bb 1b6f 3e3c
00000250: 0ba8 42bc d816 ca3c a021 8ebc e610 99bb
00000260: 3609 ab3b f17b 8abc 1ece 3abb d677 e1bc
00000270: 8e69 913a 723d 6ebc 7e75 3dbc 1b75 0d3a
00000280: 8595 8fbb 8e97 0abb 349e c5b8 eda1 5b3c
00000290: cee7 503c d89e 253a 0b6b cbbb 0fa7 e93c
000002a0: c7d5 6f3c 57a4 e0ba 2e26 3abb ed35 2bbb
000002b0: 4d2b 993c 9ff0 77bb fdc2 deba 64ab 00bd
000002c0: 29d6 ef3b 86f1 e3b9 898d c2bb 5ee6 623b
000002d0: 7b33 f9ba 9093 3cbc 0c9b 9abb a038 893a
000002e0: f05f a33b ed20 84bb 4765 60bb 4bf8 07bb
000002f0: 9572 013c d4e3 20bc a4bb 893b e7a4 f93b
00000300: b412 303c c603 183c cb16 a83c e178 8a3c
00000310: e045 9a3b 8cc6 aa3a 2485 6bba 6457 e4b8
00000320: 9a5a 3fba 6c06 f43c 73a0 6abc adef 443c
00000330: f046 623c 2699 703c 9578 85bb 1678 ac3c
00000340: 9946 23bc 786a e63a 757c 023c ceb4 c738
00000350: 4743 c73c 25d4 293c 76e5 fe3a 9b41 b4bb
00000360: 0a86 0e3b 379c 233b 8567 14bb da55 01ba
00000370: a2e0 3fba 16f4 fb3c 8cea 9b3b 5212 87bc
00000380: adb5 803c 9dd2 523c 6019 7a3c 7176 4b3c
00000390: 3a4a d73b 7afc 02bc de74 62bb c2e7 553c
000003a0: 1c79 213c 8e8a c2bb 2f96 af3b 34b4 6d3b
000003b0: 2c46 9d3c 3ad3 adbb d5b2 b83c 52e3 793b
000003c0: 7f49 34bc 5d1f bc3c 23fd a0bb b05e e83b
000003d0: ef46 063d 0db5 5fbb 9a7f 853c 6ec8 b6bb
000003e0: 4019 b2bb f4e7 913b 9edc 04bc c9eb 05bc
000003f0: d01f 533b b947 fb3b 3837 743b 911e 7bba
-0.0005730186 0.022160947 -0.00992133 0.00073616905 -0.014248122 -6.9183866e-06 -0.0044859475 -0.0050123795
-0.0027683584 -3.8663668e-05 0.039161224 -0.025401728 -0.022578407 -0.02026715 -0.013056331 0.011144601
0.022452896 -0.0025220986 0.030021861 0.027554296 -0.007553542 -0.0067016557 0.005768985 -0.005372734
0.0011333689 0.0015690692 -0.016566208 -0.0043408056 -0.003944585 -0.004023825 0.0005222317 -0.006208232
0.024880549 -0.0045822337 0.020711115 0.024372535 0.035150953 -0.008902817 -0.0030110378 0.029496484
0.010459526 -0.0010347383 -0.005496125 -0.0032917822 -0.0013271369 -0.0055091972 -0.006345596 -0.009222125
0.0015906721 0.0008567495 -0.0023530892 0.042365685 0.016928256 0.0014645018 -0.00026609862 0.007355395
-0.0014413383 -0.00017281971 0.002962931 -0.0027300464 -0.013755038 0.003898929 0.008457641 -0.010894153
-0.010146801 0.0020029906 0.0045432816 -0.004923556 -0.019610612 0.0038938622 0.01053774 -0.001501209
0.011562739 0.012125252 -0.0025769686 -0.029223396 -0.005812432 -0.0064501297 0.039037544 -0.0019281697
-0.01145147 -0.014807447 -0.0008797398 0.01570341 0.0031190317 0.005326166 0.024746548 -0.015598037
0.012817252 -0.0061693685 -0.018297367 0.0036288998 0.0033144648 0.021945765 0.00868427 0.016522361
0.0022054818 0.005765443 -0.0072759353 0.0044358736 0.01225278 0.011232235 0.0054372353 -0.002688995
-0.0030907372 0.0086003095 0.015551405 0.004065688 -0.004146087 0.02030795 0.0015178296 0.011832725
-0.007811303 -0.0041552857 -0.0059334566 0.023330618 -0.0019613423 -0.007440173 -0.014454022 -0.0055266237
0.0050736186 0.028044956 0.0026780018 0.0421392 -0.0010267125 0.003470437 0.00030136143 0.008268413
-0.016999789 -0.0054512913 -0.009832737 -0.004900337 -0.014929654 -0.0031969869 0.01303335 -0.0011045475
-0.00031962377 0.005004608 0.0024344316 -0.0047686356 -0.0017642289 0.0015924136 -0.010545222 -0.0029157044
0.00087235955 0.013978413 -0.0044787168 0.011623169 -0.011880885 0.024669096 -0.017350018 -0.004671204
0.005219604 -0.016904803 -0.0028504203 -0.027522963 0.001109408 -0.014541017 -0.011563657 0.0005396173
-0.004381838 -0.0021147463 -9.42316e-05 0.013405305 0.012750579 0.000631792 -0.006207829 0.028522043
0.014638371 -0.0017138821 -0.0028404105 -0.0026124672 0.018697405 -0.003783263 -0.0016995367 -0.03141345
0.007319231 -0.00043476763 -0.0059372825 0.0034622173 -0.0019012535 -0.011509791 -0.00471819 0.0010469146
0.004985802 -0.0040322454 -0.0034240054 -0.002074736 0.007900854 -0.009819943 0.0042032767 0.007618535
0.010746647 0.009278243 0.020518681 0.016903343 0.004708037 0.0013029142 -0.0008984378 -0.00010888165
-0.00072995725 0.029788218 -0.014320481 0.012020034 0.013810858 0.014684951 -0.0040732124 0.021053355
-0.009965562 0.0017579338 0.007964243 9.522737e-05 0.024324073 0.010365521 0.0019447047 -0.005500985
0.0021747374 0.0024964937 -0.002264471 -0.00049337524 -0.00073195447 0.030756038 0.004758185 -0.016488228
0.01571163 0.012867597 0.015264839 0.012418375 0.006570128 -0.007994765 -0.0034554522 0.013055744
0.009855535 -0.005936927 0.0053584795 0.003627074 0.0191985 -0.005304721 0.022546211 0.0038129878
-0.011003851 0.022964174 -0.0049129887 0.0070913658 0.03278249 -0.0034135014 0.016296197 -0.0055780923
-0.005435139 0.0044527 -0.00810924 -0.008173891 0.0032215007 0.007668462 0.0037264358 -0.0009579445

conv1.lin.weight f4 [256, 276]
00000000: e149 f03d 6033 193d a775 3c3d 1586 56bd
00000010: 6924 b73c 4f02 12bd 01be d93d 3eeb 65bd
00000020: d1f5 743c f59b dabc 54e0 983d 5968 c7bd
00000030: a0cb ccbd 50a3 713d 74b9 04bd e315 1f3d
00000040: 90dd cf3d 7626 993d 53e4 4a3c 91f5 25bd
00000050: 0df8 823d dd0c 80bc 284f 4c3d cc40 983d
00000060: e8df 273d 66bc cabd d9f5 9a3d 6766 6a3a
00000070: 5401 f0bc cf8d 05bc 7358 77bd 72a2 eabc
00000080: 792a c03d 859c 88bd 5f33 e83c 253f 7c3d
00000090: 6684 a7bd 70b5 6d3d 1d9c db3d 5e6e 51bd
000000a0: 0bbb df3b c165 c23c 7421 b63d b915 ca3d
000000b0: e1de ffbd 9643 0b3d 8c6b 8fbd ad21 123d
000000c0: 8ccb 073d d430 44bd 609f b83d c5f1 a93c
000000d0: 8989 a33d a4f5 623d 19f4 8abd e05e 563b
000000e0: 4a83 a7bd beea a7bc 69fc 52bd 2f3b cf3c
000000f0: bd96 ddbb 302d cb3d 1549 873d 0649 d0bd
00000100: ebd4 6e3c cad1 593d 475f 36bc 2bc0 bc3d
00000110: e22f 1abd bf0a f8bc b925 963c db52 83bd
00000120: 9747 ca3c bfae ab3d 234d efbd c31d 9a3c
00000130: 8cdb 7dbb b25b c03d f521 0fbd 41e8 52bd
00000140: 6b33 083d 0a93 98bc 9950 9e3d f9ed 2a3d
00000150: d820 323d 6fa3 99bd 7eae d33d 85eb bcbc
00000160: 8162 923d 9c1d 7cbd abd2 c03c d674 b33d
00000170: 62a5 ecbc 3d04 ed3c 3040 afbd fb6d 8f3d
00000180: ea79 c43d f673 473c 1f20 a53b 3daf 7b3d
00000190: f64e 51bd e8b9 98bd 12d7 443d 365f 81bd
000001a0: 12dc 553d 4148 573d a2e8 3cbd 4cae 283c
000001b0: e2e3 92ba e831 a33d 9019 413d baf3 a4bd
000001c0: 30b8 b7bd 9ff7 af3d 3a85 c8bd 2217 3a3c
000001d0: 21fc 94bd c037 acbd 8cdb 323d 8850 ddbd
000001e0: 1bdc d03c 0f06 79bd c070 8dbd f64d 64bd
000001f0: 43ab b63d 6b0b 67bd c17e 073a 4816 b43d
00000200: 9b2f bdbc 5bc5 1a3d bb3e 41bd 1ede 91bd
00000210: 1296 0dbd 5a43 ab3d 9c2d 2ebd 6cb9 b7bd
00000220: 50df ddbd 91a4 b43d bf4c 8a3d 5e0d 7cbd
00000230: 2428 92bd 1abd 1cbc 9d96 c5bd 5d01 863d
00000240: 042c c63d 4740 f8bc 103d ddbd c8b4 643d
00000250: 0415 083d b0f5 d53d 94a5 b63a c694 d2bd
00000260: c91b 303b 41c2 923d afcd cbbd 50b6 dfbc
00000270: f69d de3d 16bd 733b f87b b03d 2faa 853d
00000280: 6e8e a9bd dc8d bb3d 9cfc b93d 27d0 5c3d
00000290: 6a48 d23d 3a31 b2bd 4431 d63d 9ebd f53c
000002a0: dc48 cf3d 463b 833d df28 44bd d8cf 88bc
000002b0: 7beb c6bd 7dd0 feba 75b4 903d 2dac b1bd
000002c0: fd81 a43d 84ef 813d 2876 c3bd 7bb5 af3d
000002d0: 3ee2 963d 5491 913c 80ff abbc 72ef 393c
000002e0: f3a4 703c b736 a93d e81e 3dbd 7a82 d03d
000002f0: d829 ff3d 35a2 46bd ee7c 52bd 7360 433d
00000300: c283 8ebb 05e3 b5bd a968 e53d 23c7 11b9
00000310: b84e d83d 9dac acbd f6f4 7cbd bfc8 87bc
00000320: dd31 723d 5b23 4ebd 3782 25bd 01b8 2a3d
00000330: 30dc 873d ef56 95bd b02e 8b3d d4d3 ea3d
00000340: e3c8 9c3c d9a4 a13d 178a cbbc 4c45 833d
00000350: 5d26 5c3d 5dab 513d c38f 5dbd 6f50 463d
00000360: 25d8 1b3d f9d7 c03d c7dc 2f3c 1193 a1bd
00000370: bd9d 943d 2496 85bd 5baf b1bd f8c7 ab3d
00000380: 1c21 3f3d b85b 68bc 533e c63d 3766 e33c
00000390: a8f4 833d 3abd de3d 773f abbd 3a46 5e3d
000003a0: 592c c63c d54b cfbd ec76 b33c 33ac c6bc
000003b0: 1e95 09bd 61d6 253b fc4f 8cbd 745f 833d
000003c0: c50b 073d acf2 c53d 0619 243a 94ee cf3d
000003d0: 73e5 1f3c 5e4d ad3d c06b 73bd 0b97 bc3d
000003e0: d1f1 f73c e19f 523d d515 35bd 122f 6d3c
000003f0: 02a7 973c fe89 2a3b eee2 703d e064 30bd
0.11732841 0.03740251 0.04601064 -0.052373964 0.022356229 -0.035646733 0.106319435 -0.056132548
0.014951185 -0.026685694 0.07464662 -0.097366996 -0.09999776 0.058993638 -0.032403424 0.038839232
0.101496816 0.07478039 0.012383538 -0.040517393 0.06394968 -0.015631134 0.049880177 0.07434234
0.040985018 -0.098992154 0.07566423 0.0008941651 -0.029297508 -0.008151486 -0.060387086 -0.028641913
0.09383101 -0.06670479 0.028344808 0.061583657 -0.0817955 0.05803436 0.107231356 -0.051130645
0.006827717 0.02373016 0.088930994 0.098674245 -0.12493683 0.034 -0.07002935 0.035676647
0.0331531 -0.04789813 0.09014773 0.020745168 0.07985217 0.055410042 -0.06784839 0.0032710359
-0.08179338 -0.020497676 -0.05151025 0.025296776 -0.006762354 0.09920728 0.06605736 -0.10170178
0.014577131 0.053178586 -0.011131114 0.09216341 -0.03764332 -0.030278562 0.018328534 -0.06412288
0.02469234 0.083829395 -0.116846345 0.01881302 -0.0038735596 0.093924895 -0.034944493 -0.051491026
0.03325216 -0.018624801 0.077302165 0.041730855 0.043488353 -0.075018756 0.10336016 -0.023061523
0.071476944 -0.061551675 0.023537954 0.08762519 -0.028887454 0.028932685 -0.08557165 0.07003399
0.09593566 0.012173643 0.0050392295 0.061446417 -0.051100694 -0.07457334 0.04805667 -0.06316988
0.05221183 0.05255914 -0.046120293 0.010295462 -0.001120683 0.07968503 0.04714352 -0.080543
-0.08970678 0.08592152 -0.09791036 0.011358054 -0.07274652 -0.08409071 0.043666407 -0.10806376
0.02549558 -0.060796794 -0.06906271 -0.05573841 0.08919384 -0.056407373 0.0005168729 0.08793312
-0.02309399 0.03778587 -0.047178965 -0.071224436 -0.034566946 0.08362456 -0.042523965 -0.08970913
-0.10833609 0.08820451 0.067529194 -0.061536185 -0.071365625 -0.00956657 -0.09647868 0.06543229
0.09676364 -0.030304087 -0.108026624 0.05583647 0.033223167 0.10447252 0.0013934844 -0.102822825
0.002687203 0.07165957 -0.099513404 -0.027308613 0.108699724 0.0037191561 0.08617395 0.065266006
-0.082791194 0.09157917 0.090813845 0.053909447 0.10267718 -0.087007955 0.104586154 0.029997643
0.10121319 0.0640779 -0.04789054 -0.01670067 -0.09712883 -0.0019440796 0.070656694 -0.08675418
0.08032606 0.06344512 -0.09544021 0.085795365 0.07367371 0.017769493 -0.020995855 0.011348592
0.014687764 0.08262389 -0.046172053 0.101811364 0.12459153 -0.048494536 -0.051388673 0.047699403
-0.004349203 -0.08881191 0.11201603 -0.00013902462 0.105618894 -0.08431361 -0.06175705 -0.016575215
0.059129585 -0.050326686 -0.040407386 0.041679386 0.06633794 -0.07291972 0.06796014 0.11466184
0.019138759 0.0789277 -0.02484612 0.06409702 0.053747524 0.051188815 -0.05409218 0.04841655
0.03804793 0.094161935 0.01073379 -0.07889379 0.07256649 -0.06522778 -0.086760245 0.083877504
0.046662435 -0.014182024 0.09679856 0.0277587 0.06443149 0.10875936 -0.08361714 0.054266192
0.024191068 -0.10121886 0.021907292 -0.024252033 -0.033589475 0.0025304782 -0.06851193 0.064146906
0.03297021 0.096654266 0.00062598323 0.10152927 0.009759295 0.08462022 -0.05942893 0.09208497
0.030266674 0.051422004 -0.044210274 0.0144765545 0.018512253 0.002602219 0.058810167 -0.043064952

conv2.bias f4 [32]
00000000: 5a95 87bc 510d ccbc a4aa 39ba 6505 27bc
00000010: a62d d5bb 138b 1cbd a3ee 2fbc ccda 093d
00000020: fbe7 0aba d27c 833b 73dd 183d a237 a1bc
00000030: 0c51 8cbc 2f6b a9bc b2c9 d9bc 99e5 9a3c
00000040: 2921 cc3c c18e ba3c 56a1 21bd 5744 f43b
00000050: 8853 cd3c 0506 cdba efbc 83bc 5225 7a3c
00000060: f58c 03bc 5445 923a 4fb8 0c3d 66c6 813c
00000070: 1a65 093b 8b78 343b 659f ac3c 9737 93bc
-0.016550709 -0.024908694 -0.00070826174 -0.010194157 -0.006505686 -0.03821857 -0.010738048 0.033655927
-0.000529885 0.0040126825 0.037320565 -0.019679848 -0.01712849 -0.020680992 -0.026585434 0.018908309
0.024918156 0.022773148 -0.039460503 0.007454436 0.025064245 -0.0015642053 -0.016081301 0.015267687
-0.008029212 0.0011159577 0.034355458 0.015841674 0.0020964802 0.002753767 0.021072099 -0.017970843

conv2.lin.weight f4 [32, 256]
00000000: 9bd0 6439 28b7 013d b4d8 953d e06b c0bd
00000010: 4d1b 9a3d 0739 c63d 2ad1 683d 3d85 f1bc
00000020: 495c c9bd 6016 f03d eb6f c7b9 b444 a1bc
00000030: 8c8b 8a3d 6540 2f3d 6ba6 fabc 723d dfbd
00000040: 1e5a 62bd 077f fd3c 0802 17be 03d3 39be
00000050: 49b8 1b3d 33e4 14be add5 13be 5384 e2bd
00000060: 03d0 13be 219b 783d dfd0 b5bc 7b10 bdbd
00000070: 5d6c b43d 2e21 ab3c 07ca 0d3d 9a0f 0fbe
00000080: 4b81 d33d 8330 ca3d ecd7 11be 0b13 4ebd
00000090: 9ad3 f0bc 5987 a0bc 9421 8abd 2edf 43ba
000000a0: 77d6 36be fdf0 eabd ae79 20bd 0a4c 583d
000000b0: 2acf cbbd 8717 c5bd 6018 0bbe 7161 14be
000000c0: ec14 18bd c70b 8e3d 9f23 c1bd 5745 1ebe
000000d0: aed8 18bc 9684 743c f758 68bd fd84 233e
000000e0: 1c23 8dbc 72ee a43d bf58 d5bc 0744 3ebd
000000f0: a8e5 013d c8f3 bdba 0d81 663c f2c9 d53d
00000100: ea4d 073e 7792 d7bd 9ae0 0dbe 586b 153e
00000110: 6cfc 923d 02f2 6f3d a0d6 b63d d3d4 d53b
00000120: 3618 a4bc 418d c33c 491c 0a3d 71d5 5c3d
00000130: 88ae c53d e1e5 aebd 9b1b e13c 2048 d0bd
00000140: 79d9 b3bd 19e0 cd3b c46d 27b9 763e 113b
00000150: be46 f53d 4f3f 12bd 3282 00be 68e9 6dbd
00000160: 4b70 48bd c1c5 363d 98a2 953d 4451 043e
00000170: 5a04 0c3e c81c 26be dc80 06bc ad43 eabd
00000180: 7b54 f8bc f93c 06bd b087 0a3e 2fd9 333c
00000190: b005 0dbb a7b1 0fbe ddcd 1539 8569 8b3d
000001a0: 6a76 773d 9aa1 d43d 3c96 cdbd 5d8c a3bc
000001b0: 9b56 05be d5cd bf3d 599d c43d 0b63 29be
000001c0: 2308 493c 5571 23bd 28d3 bfbc 3bf7 6cbd
000001d0: 873d e73d 62c0 cc3d cfa2 2b3d 153d e5bd
000001e0: 599d 7e3d fcac 0f3e 254f 0dbe bbc7 0d3e
000001f0: 003a ed3d 15d1 febd f0d5 0bbe 1073 9abd
00000200: be7f 8f3d 35d2 55bd 01e0 dfbd c96c f0bc
00000210: 3b22 bb3d e02e a1bd 077c 25be 51e1 04be
00000220: 7931 9ebd ee79 90bd 557c 243d 1499 d6bd
00000230: f81c f1ba 58b4 99bc ee54 41bd 8845 08be
00000240: bf86 d9bc 9186 cbbd a7e0 1a3d f363 5e3d
00000250: c90b 063e e087 1cbd aa49 0a3e 6a5a c8bd
00000260: 453a fcbd 4629 993c 6816 703d b07c cebd
00000270: 3fe4 c3bc bb91 8c3d 36b0 1bbb a137 6d3d
00000280: da9c 873d 5849 a9bd ef1a 493d c01a e23d
00000290: 9003 1abd 7e47 073e ecb2 e33d 20e4 cb3c
000002a0: 283d 873d ec46 acbd f063 5fbd bd52 0dbb
000002b0: ef93 c53d e309 013e 3101 a3bd d1f0 063e
000002c0: dbcb d0bd 6be4 f8bc 3f9c 6a3c dedd 893d
000002d0: 4bb3 f33d 851b 823d e118 4dbc 8c42 8bba
000002e0: 4ff2 da3d 7cd2 7e3d 8dd3 f1bd a20a e13d
000002f0: a344 9bbc bc56 49bd fc0e b2bd 700c f83c
00000300: 9e23 dcbd 40fe ebbc e7e0 07be 304b 0ebe
00000310: 6c1d fcbc b08f 83bc 37f8 7b3c 9ab6 6e3d
00000320: d9b5 a9bd f19b d73d 120b b73d 327c ebbd
00000330: d406 ed3c f66f bbbd e4d5 033e 86b7 18be
00000340: 91c6 3fbc c9f0 21bd 1519 03be dd00 093e
00000350: 594d f93c 1cb0 e2bd 14f5 583d faf3 12bd
00000360: 68da a6bd db97 00be aede ea3c 84ea 88bd
00000370: fd1f 3abd d2c1 cabd 3902 7d3d 7ae2 c53c
00000380: 3676 db3a d856 063e 1d46 c2bd a9cf c7bd
00000390: 1479 8bbd f949 903c 568d cb3d 4566 0b3e
000003a0: dee9 273c c94f d83d 634e a3bb 9ce7 06be
000003b0: 659e f8bb 61c4 b43d 0424 d73d 2a95 ce3b
000003c0: f214 ba3d e681 bf3d 278c 0ebe 1962 33bc
000003d0: 1b28 14bd 97cd 09be 73d2 bd3b 7fe6 1abd
000003e0: b66e 223d 75f9 e0bb 0c0a 443d 763b c23d
000003f0: 1e16 8d3d 1587 87bd 5477 57bd 7e4d acbd
0.00021821486 0.031668812 0.073167235 -0.093955755 0.075247385 0.09678846 0.0568401 -0.029482478
-0.09832055 0.11723018 -0.00038039623 -0.01968608 0.06764898 0.04278602 -0.030596932 -0.10900392
-0.055261724 0.03094436 -0.14746869 -0.18146901 0.038017545 -0.14540176 -0.1443698 -0.11060395
-0.14434819 0.060694817 -0.022194324 -0.09231659 0.08809731 0.020889845 0.034616496 -0.13970795
0.10327395 0.09872534 -0.14242524 -0.05031113 -0.029397774 -0.019595789 -0.06744686 -0.0007471916
-0.1785525 -0.11471746 -0.039178543 0.05280689 -0.09951623 -0.09623628 -0.13583517 -0.14490296
-0.037129328 0.0693584 -0.09430622 -0.15456139 -0.009329004 0.014924189 -0.05672547 0.159687
-0.017228656 0.08053292 -0.026043294 -0.046451595 0.031713158 -0.0014492208 0.014068854 0.10438909
0.13213316 -0.10525983 -0.1385521 0.1459173 0.07177052 0.058580406 0.08927655 0.0065256148
-0.020031076 0.023871066 0.03371838 0.05391449 0.0965243 -0.0853994 0.027478984 -0.10170007
-0.08781714 0.006282818 -0.00015967252 0.0022162474 0.119763836 -0.035704907 -0.12549666 -0.05808392
-0.048935216 0.044622187 0.07306403 0.12921625 0.13673535 -0.16221917 -0.008209433 -0.114386894
-0.03031372 -0.03277299 0.13528323 0.010977074 -0.0021518283 -0.14032613 0.00014286437 0.06807236
0.060415663 0.103823856 -0.100384206 -0.019964391 -0.13021319 0.09365431 0.09600324 -0.16541688
0.012270006 -0.039903004 -0.023416117 -0.057852965 0.11291032 0.099976316 0.041903313 -0.11193291
0.062161777 0.14030832 -0.13799722 0.13845722 0.11583328 -0.12442223 -0.1365583 -0.07541478
0.07006787 -0.052202422 -0.10931397 -0.029348748 0.09137388 -0.07870269 -0.16160594 -0.12976576
-0.0772428 -0.07054506 0.040157635 -0.10478416 -0.0018395474 -0.018762752 -0.047200136 -0.13307774
-0.02655351 -0.09937776 0.0378119 0.054294538 0.13090433 -0.038215518 0.13504663 -0.0978287
-0.123158015 0.018696439 0.05861512 -0.10082376 -0.023912547 0.068637334 -0.0023756153 0.05791438
0.06621714 -0.08265942 0.04909795 0.110402584 -0.037601054 0.13210866 0.11118111 0.024889052
0.066034615 -0.08411965 -0.054538667 -0.0021564208 0.09647357 0.12601428 -0.079592116 0.13177802
-0.10195132 -0.030382356 0.0143194785 0.06731771 0.11899432 0.06352905 -0.012518139 -0.0010624691
0.10690748 0.062212452 -0.11807928 0.10988356 -0.018953627 -0.049154982 -0.08694264 0.030279368
-0.10748981 -0.02880776 -0.13269387 -0.1389587 -0.030775748 -0.016059726 0.015379003 0.05827961
-0.08286638 0.1052779 0.08937658 -0.11498298 0.02893392 -0.09152214 0.12874562 -0.14913759
-0.011705057 -0.03953627 -0.12802537 0.13379236 0.03043239 -0.110687464 0.0529681 -0.035877205
-0.081471264 -0.12557928 0.028670635 -0.06685355 -0.045440663 -0.099002495 0.061769698 0.024155844
0.0016743604 0.13119066 -0.09486029 -0.09756405 -0.06810203 0.017613398 0.09939067 0.13613231
0.010248629 0.10562093 -0.0049837097 -0.1317429 -0.0075872415 0.08826519 0.10504916 0.006304403
0.09086026 0.09350948 -0.13920651 -0.010948681 -0.03617106 -0.13457333 0.00579291 -0.037817474
0.039656363 -0.006865675 0.047861144 0.094839975 0.06888984 -0.06617562 -0.052604035 -0.08413218
