pretrained_gnns/Pokecz_dgi_gcn.pth (torch, 307624 bytes, 4 tensors)

conv1.bias f4 [256]
0	0x3d2bc911	0.0419398
1	0x3b6a2c31	0.0035731907
2	0xbd2a7cf8	-0.041623086
3	0x3cc1f41d	0.023675973
4	0x3d6fdc0a	0.058559455
5	0x3db4cd81	0.08828259
6	0xbcac4f10	-0.021033794
7	0x3c157564	0.009122226
8	0xbc899bf5	-0.016797999
9	0xbcc422b1	-0.023942323
10	0xbd118510	-0.03552729
11	0x3d0dc279	0.03460929
12	0x3c898b0a	0.016789932
13	0x3c801a53	0.015637552
14	0x3c323eda	0.010879243
15	0x3cb4453c	0.02200567
16	0x3cb8aa94	0.022542275
17	0x3cfa6112	0.030563865
18	0x3c401cd0	0.011725619
19	0xbcb0c111	-0.021576436
20	0xbd4763de	-0.048679225
21	0x3c728136	0.014801314
22	0xb868bc35	-5.548839e-05
23	0x3c63a4d5	0.0138942795
24	0xbd221425	-0.039569993
25	0xbcedd5e2	-0.029032651
26	0x3ce60483	0.028078323
27	0xbc7314f9	-0.014836543
28	0xbc6a8226	-0.014313256
29	0x3c9cc8d6	0.019138735
30	0x3d864228	0.06555587
31	0x3cfcfaa8	0.030881241
32	0xbd711c0b	-0.058864634
33	0x3d813691	0.06309236
34	0xbd25af29	-0.04045025
35	0xbd465e2f	-0.048429664
36	0xbbfab7c2	-0.0076513
37	0xbd2f2445	-0.0427592
38	0xbc9004e6	-0.01758046
39	0xbd47a978	-0.048745602
40	0xbc102e4b	-0.0088001
41	0x3d326443	0.04355265
42	0x3c965af9	0.018353926
43	0x3adb2b7d	0.0016721335
44	0x3d90431d	0.07044051
45	0x3d273979	0.040826295
46	0xbcc9e468	-0.024645045
47	0xbc070141	-0.008240045
48	0x3daded6d	0.08492551
49	0x3d489aa6	0.04897561
50	0xbcb728bb	-0.022358289
51	0xbb51f712	-0.0032038135
52	0x3cfe03c5	0.031007657
53	0x3d953f34	0.07287446
54	0x3cbbcf04	0.022925861
55	0x3ce23399	0.027612494
56	0xbc85973b	-0.016307464
57	0x3ca518fe	0.020153519
58	0x3d5392bc	0.05165361
59	0x3d85a55a	0.06525679
60	0x3d85647c	0.065133065
61	0x3d950316	0.07275979
62	0x3c3958fa	0.011312718
63	0x3cdcac86	0.026937734
64	0x3c447ee7	0.0119931465
65	0x3d49546e	0.049152784
66	0x3d93b81a	0.07212849
67	0x3d403e07	0.046934154
68	0x3d009f3c	0.031401858
69	0x3d20ec91	0.039288107
70	0xbd03c356	-0.03216871
71	0x3d0f7e71	0.035032693
72	0x3d64a7e8	0.05582419
73	0x3d8215d3	0.06351819
74	0x3ca27acb	0.019833943
75	0xbc527a8a	-0.012846598
76	0x3cd909e8	0.026493981
77	0x3c496ab6	0.012293508
78	0x3da1043a	0.07862134
79	0x3c522460	0.012826055
80	0x3d1e8a07	0.038705852
81	0xbd37f145	-0.044907827
82	0xbd1d1d14	-0.03835781
83	0x3d6e9426	0.058246754
84	0x3c82aa4b	0.015950343
85	0x3cd773e2	0.026300374
86	0x3cc30706	0.02380706
87	0x3c8e6433	0.017381763
88	0x3ab73a5c	0.0013979184
89	0x3c21be47	0.009872026
90	0x3d3189ab	0.04334418
91	0x3cc02a7a	0.023457754
92	0xbd2bc921	-0.04193986
93	0x3d0cc0a1	0.034363393
94	0x3c91dc30	0.017805189
95	0x3d03a354	0.032138184
96	0x3d243364	0.040088072
97	0x3ca718f3	0.020397639
98	0x3c84225b	0.016129663
99	0x3d024dcb	0.03181247
100	0x3da85537	0.082193784
101	0xbcc81c8a	-0.024427671
102	0xbbf60dca	-0.007508968
103	0x3c335f4c	0.0109480135
104	0x3db0120a	0.08597191
105	0xbd2a2a40	-0.0415442
106	0xbc5ef861	-0.013609023
107	0xbce05fe2	-0.02738947
108	0xbcae8dd3	-0.021307861
109	0x3d9d38ac	0.07676825
110	0x3d418aec	0.047251627
111	0x3b61922b	0.0034419398
112	0x3caf55d8	0.021403238
113	0x3c9913a0	0.018686116
114	0x3dc1dfb4	0.09466496
115	0x3da4a56d	0.08039365
116	0x3c9e1002	0.019294742
117	0x3db169a4	0.086627275
118	0xbd18c770	-0.037299573
119	0xbd5eebe2	-0.054424174
120	0x3da574db	0.08078929
121	0x3cf2ff33	0.029662704
122	0x3dc934ba	0.0982451
123	0x3cd5fcd8	0.026121542
124	0x3d5c7490	0.0538221
125	0x3ce68ee7	0.028144313
126	0x3d70c8c2	0.058785208
127	0x3da33603	0.07969286
128	0xbbfa1773	-0.00763219
129	0x3d35f010	0.044418395
130	0x3c5c3d4d	0.01344235
131	0xbcb78f80	-0.022407293
132	0x3d182e80	0.03715372
133	0x3c982978	0.018574461
134	0x3d12cffa	0.035842873
135	0x3ccd2f18	0.02504687
136	0x3d0362ee	0.03207677
137	0xbaa6ed17	-0.0012735453
138	0xbd1e6b88	-0.03867677
139	0x3d5bc248	0.053652078
140	0x3d534bfc	0.051586136
141	0xbd33894e	-0.043832116
142	0x3ccd2961	0.025044145
143	0x3cd65a0d	0.026165986
144	0x3cdfe6c0	0.02733171
145	0x3cb8b4dd	0.02254718
146	0x3d063364	0.032763854
147	0x3d4f95af	0.05067986
148	0xbd2155d1	-0.03938848
149	0xbc9b0228	-0.018921927
150	0xbcce0218	-0.025147483
151	0x3cc27150	0.023735672
152	0x3d46bb11	0.048518244
153	0xbd4b2499	-0.04959545
154	0x3c4df860	0.012571424
155	0x3d20bd85	0.03924324
156	0x3d351d68	0.044217497
157	0xbc081442	-0.008305611
158	0xbb29fdf8	-0.002593873
159	0x3d25b971	0.040460054
160	0x3d1941c8	0.03741625
161	0x3cca305e	0.024681266
162	0x3cb81f29	0.022475796
163	0xbd60b3bf	-0.05485892
164	0xbd01a27e	-0.031649105
165	0x3d8fa08e	0.07013045
166	0xbd0a8d51	-0.033826176
167	0x3da428f5	0.080156244
168	0x3d164d6e	0.036694936
169	0x3c17e031	0.00926976
170	0x3be82a0f	0.007085092
171	0x3d8f0823	0.06983974
172	0x3d9940b8	0.07483047
173	0x3d44572d	0.0479347
174	0x3d17d89e	0.037071817
175	0x3d0f2672	0.034948774
176	0x3d2220bb	0.039581995
177	0x3d553831	0.05205554
178	0xbd3f7d40	-0.046750307
179	0xbd1bdb8d	-0.038051177
180	0x3cb26529	0.021776753
181	0x3dc07c4f	0.0939871
182	0x3ca605a8	0.020266369
183	0x3caf9ae8	0.02143617
184	0x3cd1ec46	0.02562536
185	0x3ce74cbf	0.028234838
186	0x3d1f3dcb	0.03887729
187	0x3c9ab045	0.01888288
188	0x3d0c1045	0.034195203
189	0x3cb27380	0.02178359
190	0x3cdd991a	0.027050544
191	0xbd339876	-0.04384657
192	0x3d0e66a1	0.034765843
193	0xbcbc0318	-0.022950694
194	0xbd19e71a	-0.03757391
195	0x3ceecc0e	0.029150035
196	0x3c8351e9	0.016030269
197	0xbc0efbc4	-0.008727018
198	0x3bfb9f0d	0.0076788724
199	0x3b91951f	0.0044428254
200	0xbcd7b91b	-0.026333382
201	0x3d9f911c	0.07791349
202	0x3d43b903	0.047783863
203	0xbd1cdb12	-0.03829486
204	0x3ce04224	0.027375288
205	0x3d099f5a	0.033599235
206	0x3cd7e56c	0.026354514
207	0x3d2ca6a2	0.0421511
208	0xbd111578	-0.035420865
209	0x3cdf47e7	0.027255965
210	0xbb244790	-0.0025067069
211	0x3d28a444	0.04117228
212	0x3d03d4a5	0.032185216
213	0x3d01f5fa	0.031728722
214	0xbc937a30	-0.0180026
215	0x3d51ff6d	0.051268984
216	0xbd5ab592	-0.053395815
217	0xbbdcb767	-0.0067357305
218	0x3d4a8009	0.04943851
219	0x3d2d9544	0.04237868
220	0x3d1a3234	0.037645534
221	0xbd16261e	-0.036657445
222	0x3ccfe24e	0.025376465
223	0xbc0f6da7	-0.0087541705
224	0x3c927563	0.01787824
225	0x3cfb1fa0	0.030654728
226	0x3d203383	0.039111625
227	0xbd0f5071	-0.034988824
228	0x3d134f56	0.035964333
229	0xbc429e34	-0.011878539
230	0x3db94480	0.090462685
231	0x3d11bdea	0.035581507
232	0x3d0cdc70	0.034389913
233	0xbc9d598f	-0.019207744
234	0x3bad0972	0.005280667
235	0x3cd49678	0.025950655
236	0x3c3b7ad7	0.0114428615
237	0xbd343750	-0.043998063
238	0xbd2f20c9	-0.042755876
239	0xbd036e85	-0.03208782
240	0x3c8545c5	0.01626862
241	0xbd1ee5d2	-0.038793392
242	0xbb694b87	-0.0035597996
243	0x3c9cfb12	0.019162688
244	0x3cdc9ef4	0.026931264
245	0x3ce6d69a	0.028178502
246	0x3d77f9d1	0.060540978
247	0x3c618df3	0.0137667535
248	0x3cc34579	0.023836838
249	0x3d156462	0.036472686
250	0x3d9fc372	0.0780095
251	0xbc816709	-0.015796201
252	0xbcd13f32	-0.02554283
253	0xbcd18642	-0.025576714
254	0x3d043619	0.032278154
255	0x3da537f1	0.080673106

conv1.lin.weight f4 [256, 265]
0	0xbb7a4d9f	-0.0038193238
1	0x3c2d3809	0.010572442
2	0x3dc9e0c3	0.09857323
3	0x3dc068d5	0.09394995
4	0x3d4c44f8	0.04987046
5	0x3ce2426d	0.027619565
6	0x3d16ba4b	0.036798757
7	0xbdb4055f	-0.08790087
8	0xbc09b246	-0.00840432
9	0x3dd93cf1	0.10607327
10	0x3db0084b	0.08595332
11	0xbd02270a	-0.03177551
12	0x3de09e65	0.10967711
13	0x3d284e51	0.041090313
14	0x3d5a8a3f	0.053354498
15	0x3d5d80f0	0.054078043
16	0x3dc435e9	0.09580595
17	0xbc9319d7	-0.017956657
18	0xbceacc24	-0.028661795
19	0x3db39b50	0.08769858
20	0x3d45f248	0.04832676
21	0xbd9b407a	-0.07580657
22	0x3d85dd61	0.06536365
23	0xbda0477a	-0.07826133
24	0xbc90f387	-0.017694248
25	0xbde1623c	-0.11005065
26	0xbd4d1ec7	-0.05007818
27	0xbd90fd92	-0.07079615
28	0xbd696856	-0.056984268
29	0xbdc10f8b	-0.09426793
30	0xbd1d25ab	-0.038366
31	0x3d686dae	0.056745224
32	0x3d818937	0.06325
33	0xbd80f8c1	-0.06297446
34	0xbd3ac7fa	-0.04560087
35	0x3d377a10	0.044794142
36	0xbd407540	-0.04698682
37	0xbdc87b12	-0.09789099
38	0x3dd84d85	0.10561661
39	0x3c20ce63	0.009814831
40	0xbdbb02b6	-0.091313764
41	0x3cac5007	0.021034254
42	0x3cfae26e	0.030625548
43	0xbd8cbafc	-0.06871602
44	0x3d631a9f	0.05544531
45	0x3dcb4b4b	0.0992647
46	0xbcb155c3	-0.02164734
47	0x3d91e65e	0.07124017
48	0x3d24c260	0.040224433
49	0x3d9c7519	0.07639522
50	0x3dc9cf1a	0.098539546
51	0xbd08a50d	-0.03336053
52	0xbdbf02ce	-0.09326707
53	0x3c880f83	0.016608959
54	0xbd6f5671	-0.058432046
55	0xbd24e540	-0.040257692
56	0xbab6b8a6	-0.0013940528
57	0x3ddd123e	0.10794495
58	0xbb9ce786	-0.004788342
59	0xbd6a4463	-0.057194125
60	0xbb694949	-0.003559666
61	0xbde8c082	-0.11364843
62	0xbd0e9244	-0.03480746
63	0xbdbcddcc	-0.09221992
64	0xbd98bc01	-0.07457734
65	0x3d5f3e71	0.05450291
66	0xbcc532af	-0.02407202
67	0x3dc76b99	0.097373195
68	0xbbf4bbc3	-0.007468672
69	0xbdebe4fc	-0.11518285
70	0xbdbb0e9d	-0.09133647
71	0xbda675d9	-0.081279464
72	0x3c4ded6f	0.012568816
73	0xbcc85623	-0.024455136
74	0x3cd14e05	0.025549898
75	0x3c6e197b	0.014532442
76	0x3dd8f36b	0.10593303
77	0x3dbd085c	0.0923011
78	0x3d3619c8	0.04445818
79	0xbd8e2ca8	-0.06942111
80	0x3d67241e	0.05643093
81	0xbdcfe88b	-0.10151776
82	0x3dc06e42	0.0939603
83	0xbcfd77f0	-0.03094098
84	0xbc0329de	-0.008005587
85	0xbdad29a5	-0.08455209
86	0x3d920fcd	0.0713192
87	0xbb98c1c7	-0.004661772
88	0xbcacbc69	-0.021085935
89	0x3be77286	0.007063213
90	0x3d99e376	0.07514088
91	0x3db47514	0.088113934
92	0x3cf4388d	0.029812122
93	0xbc21f126	-0.009884154
94	0xbc6e5392	-0.014546292
95	0xbd8ed870	-0.06974876
96	0x3ce7f1c2	0.028313521
97	0xbd2fc6b7	-0.04291412
98	0x3dc633af	0.096778266
99	0x3ce45570	0.027872771
100	0xbd68f2d0	-0.05687219
101	0x3d961ae7	0.0732935
102	0x3d533732	0.05156631
103	0x3dae315e	0.0850551
104	0x3c8c23e9	0.017106967
105	0x3ca495f7	0.02009104
106	0x3d1d644f	0.03842574
107	0x3daca91b	0.08430692
108	0x3dc4fe5e	0.09618829
109	0xbd2994b7	-0.04140159
110	0xbd3894ef	-0.04506391
111	0x3ccfc6d6	0.025363367
112	0x3d63813c	0.05554317
113	0xbd60a607	-0.054845836
114	0x3d2664f5	0.040623624
115	0x3c89b8f8	0.016811833
116	0x3d6cc9e8	0.05780974
117	0x3d15e1a1	0.03659213
118	0x3db83da9	0.08996136
119	0x3daef069	0.08541948
120	0x3d938d30	0.07204664
121	0x3d202374	0.03909631
122	0x3be2d92e	0.0069228625
123	0x3d182341	0.037142996
124	0x3cc7590a	0.02433445
125	0xbd79a413	-0.06094749
126	0x3da82cd4	0.08211675
127	0xbddcc583	-0.1077986
128	0x3db1f35c	0.08688995
129	0xbd4ba9f2	-0.04972262
130	0xbdb211bc	-0.08694789
131	0xbc310591	-0.01080455
132	0xbddac295	-0.10681645
133	0xbcc2b0e0	-0.023765981
134	0xbdee4447	-0.116341166
135	0x3c58809c	0.013214257
136	0xbde2f9b9	-0.11082787
137	0x3b59f490	0.0033257343
138	0x3dd58bb1	0.10427035
139	0x3c8af3d7	0.016961975
140	0x3d8d10d3	0.068879746
141	0x3db0836c	0.08618817
142	0x3c2ff9b4	0.010740686
143	0xbd49897b	-0.049203377
144	0x3db2881f	0.08717369
145	0xbd350f16	-0.04420384
146	0x3d142874	0.03617139
147	0xbcc204e3	-0.02368397
148	0x3d3a84c8	0.045536786
149	0x3c54b6f8	0.012983076
150	0x3d709b1c	0.058741674
151	0x3d8f2ddd	0.069911696
152	0x3d9dc6d4	0.07703939
153	0xbd8f1cbf	-0.06987905
154	0xbd0a20cb	-0.03372268
155	0x3d7d68fb	0.061867695
156	0xbdce8a19	-0.10084934
157	0xbd87f67b	-0.06638809
158	0x3d56cc5d	0.05244099
159	0xbba7f40d	-0.0051255287
160	0xbd7a7044	-0.06114222
161	0x3d8bd68c	0.06828031
162	0x3cdad239	0.02671157
163	0xbd82e71f	-0.06391739
164	0x3d85e32e	0.06537472
165	0xbdd91b5b	-0.10600921
166	0xbd4b5466	-0.049641035
167	0xbcaf9b7c	-0.021436445
168	0x3d16681b	0.036720376
169	0x3d8366bb	0.06416079
170	0xbd94e3a6	-0.07269983
171	0xbd2d9d51	-0.042386357
172	0x3dbeee4c	0.09322795
173	0xbd44d5ec	-0.048055574
174	0xbd64ccb3	-0.05585928
175	0xbc7c367e	-0.015393851
176	0xbb6f5aac	-0.003652255
177	0xbdec1bdf	-0.115287535
178	0x3d931ea6	0.0718358
179	0x3bde6f7c	0.0067881923
180	0xbb503d02	-0.0031774645
181	0x3d482088	0.04885915
182	0xbb91540b	-0.0044350675
183	0x3d9701a9	0.073733635
184	0x3d824ee5	0.06362704
185	0xbdd1bef0	-0.102414966
186	0xbc87363b	-0.016505351
187	0x3d06029e	0.03271734
188	0xbde93f49	-0.11389024
189	0xbdd84c44	-0.105614215
190	0x3da2007b	0.07910248
191	0xbde481ce	-0.11157571
192	0x3c955bd6	0.018232267
193	0xbd1c156d	-0.03810637
194	0x3dc711f2	0.0972022
195	0xbbc23772	-0.0059270198
196	0x3cacd0bf	0.021095632
197	0x3ce27d4c	0.027647637
198	0x3dbf7ca2	0.09349944
199	0xbda355e0	-0.07975364
200	0xbd9de777	-0.07710164
201	0xbc3d0797	-0.011537454
202	0x3d832d21	0.06405092
203	0xbdd79b95	-0.10527722
204	0xbd87dd85	-0.06634048
205	0xbd6b4f9a	-0.05744896
206	0xbd961f2d	-0.07330165
207	0x3d991af7	0.07475846
208	0xbd8591e6	-0.065219685
209	0xbd9480fc	-0.07251164
210	0x3da8df6a	0.08245738
211	0xbd82aa41	-0.063801296
212	0x3dde1c11	0.10845197
213	0x3da31bea	0.079643086
214	0xbdf2fe18	-0.11864871
215	0xbcd2733d	-0.025689716
216	0xbbb0a228	-0.0053904243
217	0xbde8609f	-0.11346554
218	0x3d0de58d	0.034642745
219	0xbdb4805e	-0.088135466
220	0x3cbac9f6	0.02280138
221	0x3d8369e6	0.06416683
222	0x3daaefc6	0.083465144
223	0xbd8041fd	-0.06262586
224	0x3c1204a9	0.008912244
225	0xbc93b5cb	-0.018031022
226	0x3b1e03b9	0.0024111106
227	0xbd156fe9	-0.03648368
228	0xbd6e71e0	-0.05821407
229	0x3d9eb886	0.07750039
230	0xbcbf69cf	-0.023365883
231	0xbd226c76	-0.039654218
232	0xbd1b51ea	-0.037919916
233	0xbd36e922	-0.044655927
234	0xbc821ab5	-0.015881876
235	0xbde14933	-0.1100029
236	0xbd64b26b	-0.055834215
237	0xbda08df6	-0.07839577
238	0x3dc6d285	0.09708122
239	0xbc1e3103	-0.00965524
240	0x3dd875fb	0.10569378
241	0xbcd1f5f6	-0.025629979
242	0x3d57c58a	0.052678622
243	0x3da518d7	0.080613784
244	0xbd9e5f8c	-0.07733068
245	0x3d481ae8	0.048853785
246	0xbda8ac35	-0.08235971
247	0xbdbb1127	-0.09134131
248	0x3dcd690d	0.100298025
249	0xbde6ef25	-0.11276082
250	0xbd40e5ac	-0.047094032
251	0xbc9cea7f	-0.019154785
252	0xbdc4286a	-0.09578021
253	0xbcf20955	-0.029545465
254	0x3dacfbb4	0.08446446
255	0xbd22620a	-0.03964428

conv2.bias f4 [32]
0	0x3c44371c	0.01197603
1	0x3c9a6e41	0.018851401
2	0xbd47b897	-0.048760023
3	0xbd665ee3	-0.056242835
4	0x3beefc6f	0.007293276
5	0x3c152b07	0.009104497
6	0x3bdbf8d1	0.006713011
7	0x3ccbc94f	0.024876265
8	0xbcf45ccd	-0.029829407
9	0x3d566f98	0.052352518
10	0xbd055d98	-0.03255996
11	0xbc78e064	-0.015190218
12	0xbd1757b0	-0.03694886
13	0xbd16e750	-0.03684169
14	0x3d06d2fc	0.032916054
15	0xbbc70889	-0.0060740155
16	0x3cf3b89d	0.029751116
17	0x3c16d7bb	0.009206708
18	0x3cb9611e	0.022629317
19	0xbc1ca579	-0.009560936
20	0xbdb0410b	-0.08606156
21	0xbd59928a	-0.053118266
22	0x3c8057c5	0.015666852
23	0xbc9be8bd	-0.019031877
24	0x3d30440e	0.043033652
25	0xbcfa03de	-0.030519422
26	0xbc4f4c17	-0.012652419
27	0x3b753545	0.0037415784
28	0x3d14e95e	0.03635537
29	0x3d6fd89a	0.058556177
30	0xbca7e4d0	-0.020494848
31	0xbd2cc177	-0.04217669

conv2.lin.weight f4 [32, 256]
0	0x3dea599d	0.114428736
1	0x3e184272	0.14869097
2	0x3dcf4bf2	0.10121907
3	0xbcbe0848	-0.023197308
4	0x3d280d58	0.04102835
5	0xbe43a9d2	-0.1910775
6	0xbc675740	-0.014119923
7	0x3ca3b808	0.019985214
8	0x3d82cdc3	0.06386902
9	0xbdc1c86f	-0.09462058
10	0xbcf35b6a	-0.029706676
11	0x3e4ae78a	0.19814888
12	0x3e1dc4c1	0.15407087
13	0x3cb4cc38	0.022070035
14	0xbd74ff3a	-0.059813716
15	0x3c06ad04	0.008219961
16	0x3e32532f	0.17414545
17	0xbd310661	-0.043218974
18	0x3dbf9961	0.093554266
19	0x3d8c2cd8	0.06844491
20	0x3de248ac	0.11049017
21	0x3dd4087d	0.103531815
22	0xbc5bb1ab	-0.013409059
23	0x3dc40fc5	0.0957332
24	0x3dd1662b	0.10224565
25	0xbdbb42ca	-0.091435984
26	0x3b953760	0.0045537204
27	0x39bbc4f1	0.00035814152
28	0xbcc4ec7a	-0.024038542
29	0x3db79dc5	0.08965639
30	0xbe379e4b	-0.17931478
31	0xbc936357	-0.017991705
32	0x3dff4b77	0.12465566
33	0xbdd32f1d	-0.103117205
34	0x3cc54a20	0.024083197
35	0xbd68e2cb	-0.05685691
36	0xbd1e1777	-0.038596597
37	0x3db35751	0.08756889
38	0xbd9d3000	-0.07675171
39	0xbcd9d53a	-0.026590932
40	0xbdcc508f	-0.09976303
41	0xbd31d5ad	-0.043416668
42	0x3ddfae27	0.10921889
43	0xbd26ef63	-0.04075564
44	0xbe202f0c	-0.15642947
45	0x3e2c4bca	0.16825786
46	0xbd95da34	-0.073170096
47	0x3d88b655	0.06675402
48	0xbe38b3b6	-0.18037304
49	0x3d012b57	0.031535473
50	0x3d452695	0.048132498
51	0xbd5c604b	-0.05380277
52	0x3e2cb25c	0.16864914
53	0xbd752349	-0.059848104
54	0x3dc4ce9f	0.09609722
55	0x3d92112a	0.0713218
56	0x3ddca3a1	0.10773397
57	0x3e43b4fd	0.1911201
58	0xbdf990b8	-0.12185806
59	0xbc965eba	-0.018355716
60	0xbdbefd76	-0.093256876
61	0xbd0517c5	-0.03249337
62	0xbb9d6341	-0.0048030918
63	0xbd810b03	-0.063009284
64	0x3e245768	0.16048968
65	0x3d0e1d52	0.03469593
66	0xbe023a1b	-0.12717478
67	0x3dc41ac0	0.09575415
68	0x3cbfe2e5	0.023423621
69	0x3e5b7eea	0.21435133
70	0xbc8c0b84	-0.017095335
71	0xbc48b566	-0.01225028
72	0x3db4f12c	0.088350624
73	0xbc779083	-0.015110138
74	0x3d359db8	0.044339865
75	0x3e32786d	0.17428751
76	0x3d0d67d4	0.034522846
77	0x3d01a773	0.031653833
78	0xbbe1b813	-0.0068883984
79	0x3de89034	0.113556296
80	0x3d799167	0.060929682
81	0x3e19f683	0.15035443
82	0x3dd92b15	0.1060392
83	0x3daaead0	0.08345568
84	0x3e408822	0.1880193
85	0xbd88d6f0	-0.06681621
86	0xbde2c98f	-0.110736005
87	0x3d6d96d9	0.058005188
88	0x3e3ae2bd	0.18250556
89	0x3e342306	0.17591485
90	0x3d815d1a	0.06316586
91	0xbdb94486	-0.09046273
92	0xbdb1507b	-0.086579286
93	0x3decf9df	0.11571097
94	0x3e1d8c07	0.15385447
95	0x3b7afee6	0.0038298904
96	0x3e297926	0.1655012
97	0x3decae58	0.11556691
98	0xbd5d07bb	-0.05396245
99	0x3d814bb9	0.06313271
100	0xbe1a5330	-0.15070796
101	0x3dd63dfc	0.10461041
102	0x3c46ac96	0.012126109
103	0x3e1e4be7	0.15458642
104	0xbe32aa68	-0.17447817
105	0x3d37f061	0.044906978
106	0xbdc670ca	-0.096894816
107	0x3e05f969	0.13083424
108	0x3e163071	0.14666916
109	0xbe5241f2	-0.20532969
110	0xbd08df7c	-0.033416256
111	0xbb0fe024	-0.0021953667
112	0x3e5b5bbb	0.21421711
113	0x3d8e009a	0.069337085
114	0xbb8aa54f	-0.004231132
115	0xbd2fe611	-0.042944018
116	0x3e4cfe4b	0.2001888
117	0xbd8065fb	-0.06269451
118	0x3d51b7ad	0.051200558
119	0xbc218a7a	-0.009859676
120	0xbdfe2d35	-0.12410966
121	0x3dec48f1	0.1153735
122	0xbe56f6b3	-0.20992546
123	0x3d5a63eb	0.053317945
124	0xbc80435f	-0.015657125
125	0xba726143	-0.00092460605
126	0xbdd61e1d	-0.104549624
127	0xbcd4a220	-0.025956213
128	0x3bbc499b	0.005746079
129	0xbd86c244	-0.06580022
130	0x3d90d35d	0.07071564
131	0x3da61439	0.08109326
132	0x3d5a23a3	0.053256642
133	0xbd92a0fa	-0.0715961
134	0x3e3e9977	0.1861323
135	0x3de87d30	0.113520026
136	0xbdbf4f5d	-0.09341309
137	0x3df0f215	0.117649235
138	0x3d552c8c	0.052044436
139	0x3c379f66	0.011207437
140	0x3e118305	0.14210136
141	0x3d73b4d9	0.05949864
142	0x3dee8e3b	0.11648222
143	0xbd4a9cff	-0.04946613
144	0x3debfdce	0.11523019
145	0x3e0b7071	0.13617112
146	0x3e17489c	0.14773792
147	0x3e084b8e	0.13310072
148	0x3e079732	0.1324127
149	0xbd96176a	-0.07328685
150	0xbafb7e7f	-0.0019187479
151	0x3d970e51	0.073757775
152	0xbd53c03a	-0.051696993
153	0xbe0803b4	-0.13282663
154	0x3d48f446	0.049061082
155	0x3c1724f6	0.009225121
156	0x3db98236	0.09058039
157	0xbd91017d	-0.07080362
158	0x3cb9b6f2	0.022670243
159	0x3bc19308	0.00590742
160	0x3e15e230	0.14637065
161	0x3d50d1c3	0.050981294
162	0xbd454f30	-0.048171222
163	0xbdabac5a	-0.08382483
164	0x3d46c19a	0.048524477
165	0xbd85d64b	-0.06535014
166	0xbc6a1095	-0.01428618
167	0x3d274fd0	0.0408476
168	0x3e320aed	0.1738698
169	0xbd06b76a	-0.03288976
170	0x3e38f3b3	0.18061714
171	0xbdf1f9ef	-0.11815249
172	0xbcc6a07a	-0.024246443
173	0x3d17df3c	0.037078127
174	0x3df4ee16	0.11959474
175	0x3d85fc3e	0.06542252
176	0xbd75468d	-0.059881736
177	0xbc497327	-0.012295521
178	0x3d027d41	0.031857733
179	0x3cc9dcee	0.02464148
180	0x3de97a09	0.114002295
181	0xbe10bdf9	-0.14134969
182	0x3e348ea5	0.1763254
183	0x3e036af3	0.12833767
184	0x3e49e769	0.19717182
185	0x3e5ceddf	0.21575116
186	0xba074126	-0.0005159549
187	0x3e542e36	0.20720753
188	0x3e0ebea3	0.1393991
189	0xbd179343	-0.037005674
190	0x3e2a3616	0.16622195
191	0xbdc5df62	-0.096617475
192	0x3b5ec328	0.0033990834
193	0xbd97b1b4	-0.07406941
194	0xbdbc130d	-0.09183321
195	0x3e14b0a3	0.14520507
196	0xbd2fa3d0	-0.042880833
197	0x3dfd6f21	0.12374712
198	0xbbe272bd	-0.0069106505
199	0x3de28133	0.11059799
200	0xbdbe31da	-0.09286852
201	0xbd473693	-0.04863603
202	0x3cbc087e	0.022953268
203	0xbd93543a	-0.07193799
204	0xbca88493	-0.020571029
205	0xbdbfd854	-0.09367433
206	0xbd48bbb6	-0.04900714
207	0xbd70208d	-0.058624793
208	0x3d5e1f21	0.054228906
209	0x3e322f87	0.17400943
210	0xbd295ab4	-0.041346267
211	0xbd8ce8a9	-0.06880314
212	0x3e1979ae	0.14987823
213	0xbd94bf8b	-0.072630964
214	0xbd45c067	-0.048279192
215	0x3d45890a	0.048226394
216	0x3cef625a	0.029221702
217	0xbc40ee66	-0.011775589
218	0x3cf61c5e	0.030042823
219	0xbcd9c3fb	-0.026582709
220	0x3e192c3f	0.14958285
221	0xbd5c86da	-0.053839542
222	0x3dc73fac	0.09728941
223	0x3d5ede44	0.054411188
224	0xbd4a6f1b	-0.049422365
225	0x3d822983	0.06355574
226	0x3dcd6ee2	0.10030915
227	0xbdecd180	-0.115633965
228	0xbd4a88fe	-0.049447052
229	0x3d8c4cb5	0.06850568
230	0xbc53c08f	-0.0129243275
231	0x3dc273e5	0.094947614
232	0x3cca29e8	0.024678186
233	0xbbe7f2e6	-0.0070785163
234	0x3dc15f58	0.094420135
235	0x3d69afa5	0.057052273
236	0xbce7086b	-0.028202256
237	0xbcf3eec4	-0.029776938
238	0x3c075ce4	0.008261893
239	0xbd4e7bd5	-0.050411064
240	0x3bf66775	0.0075196573
241	0x3b87b430	0.004141353
242	0x3dce8d98	0.100856006
243	0x3e3dfdc2	0.18553832
244	0x3d522a99	0.051310156
245	0x3d9a2fa4	0.07528618
246	0x3d92d583	0.071696304
247	0x3d55080e	0.052009635
248	0xbd94492f	-0.07240521
249	0x3c3b1c58	0.011420332
250	0xbc26984a	-0.0101681445
251	0x3d249a60	0.040186286
252	0xbd930ade	-0.07179807
253	0xbcdc1859	-0.026867079
254	0xbc5f9a40	-0.013647616
255	0xbe49dfc5	-0.19714268
