pretrained_gnns/Pokecz_bgrl_gcn.pth (torch, 307568 bytes, 4 tensors)

0.bias f4 [256]
00000000: e606 0cbc b83b 5bba e7e0 08bc 68c1 35bc
00000010: 379c fabc 1ffb 813c ca03 c6ba 647a ebba
00000020: 5ab3 0bbc 938f b3bb d317 c7bb 5976 0eb9
00000030: 078b 343c 0605 fa3b b14a 8fbb 13ba dcbb
00000040: 32af f3bb 5a5e 1f3c 530c eb3b ed50 d93b
00000050: 4a51 51bc f795 c6bc 2cb1 f1bc 25c2 0eb9
00000060: acce 1cbc 9d9a 183c 6b8e 6ab9 fc82 2ebc
00000070: a760 40bc c03f f03b ee75 1e3d 822c 52bc
00000080: f6ce 56bb 1c61 e53c 663e 8dbc cb08 523a
00000090: 5fcb 84ba 6179 083d 0af1 4c3c ed4e 6f39
000000a0: a875 29bc 6415 533b 85ae 9c3c cbc3 e63c
000000b0: 69a5 dcbb 834c dd3b 1ea0 0abb 06a6 3abc
000000c0: f5a7 2a3c 2f51 3e3a 1ce2 d3ba 2693 ea3b
000000d0: f266 15bc b647 bb3b b405 da3c 6b5b dd3b
000000e0: 9557 973c 3c0f 8cbc f571 e13a 06a2 9c3c
000000f0: a6ba 07bc ed35 1dbc d714 9cbc fa62 0f3c
00000100: 375d 7fbc 3d5f bc3b bfc3 5b3c 5fa7 8dbb
00000110: b73b 643b d031 083c 8729 84bc 012a 9bbb
00000120: 5c51 423c 14a1 7c3c e7ac 32bc 7c94 813c
00000130: 0a34 593c c18b f93b 92f5 f3bb ea90 d6bb
00000140: ef25 cd3c 9731 943b 6707 823c bbec dbba
00000150: b6b0 24bc de6e 57bc bb0b cd3b 498a c2bb
00000160: aa89 023d 92e8 de3b 9e45 df3b a425 08bc
00000170: 4c7c 27bc df39 c9bb 3608 9cbc eac3 f23b
00000180: f921 94bb 31d4 96bb 93ca f8bc 6f19 293c
00000190: 70a1 d53c 7f63 2cbc 667d babc 068a 4a39
000001a0: 6123 8d3b 9909 3d3b e75e 993b 8eea 93bb
000001b0: d02b 61bc 695e c33b 3b49 bdbb 1508 fa3b
000001c0: d245 92bb 3b61 3aba 4e05 d03b b137 87bc
000001d0: 8d3f 1ebc 0afc 083d 704a 5cbc bec9 3a3c
000001e0: 2c88 bbbc 45d6 013a 3f73 83bc f774 2fbc
000001f0: 2535 893c 5d7f e6bb 4d65 34bc 9acd 4c3c
00000200: b5e6 8abc 3635 193b 133b 503c d3d0 8f3a
00000210: 493c 693b 8785 4bbc f8c7 c3ba 811c 88bc
00000220: 11b4 9d3b 573d 7fbc 3031 51bc abf6 293c
00000230: 2adc 573c f62d 443b 1bcc eabb 0b4c c6bc
00000240: b1a4 14bc 3855 aabb f543 a33b 538b 393c
00000250: 2d0a b23b 2843 383c 7ace ad3b 095a e4bb
00000260: 5d1b 28bc bbef 393c 61fd 71bc 6787 b1ba
00000270: 1ba4 c2bb 1942 d73b a9db 2dbc 82b0 2e3d
00000280: 6d69 e4bc 7dff fb3a b112 543c 2a7f 40bc
00000290: 8052 11bb 6753 203c 936d a93b 3499 7e3c
000002a0: cb49 e1bc 1ba4 05bb d6ba 8abb ec98 173d
000002b0: 2b12 06bc 5c42 05bd fca6 2e3c 48dd 33bc
000002c0: 8e26 633d 6bae 13bb 0707 e337 9f4c e2bb
000002d0: ab83 e43b 06d8 9cb9 0a0d 92bb ae46 63b9
000002e0: 8328 673b 0391 053c bdd5 173c 08ba 3d3c
000002f0: c1c5 74bc c7b1 80bb 3e60 233a 13a2 2fbc
00000300: 5138 833b d04e 13bc 321b 573c f694 143c
00000310: 110c b4bc 86e6 f33b ebbe 52bc 34df e6bb
00000320: 3f3a 0d3d b2ef 33bb 4efc 40bb 99f9 a73c
00000330: 9fe6 1c3c 6934 083d b0cf 2937 de36 92bc
00000340: 6abe c8bb 4b2a cf3b e937 723b 4a3c 87bb
00000350: 873a cbbb 5c0f 4e3b 1785 b73b d14c 3cbc
00000360: 9d31 b03b d83b 513c 4e86 853b 51fc 52bb
00000370: a136 033b 9cf8 7bbc 8ccf 59bc 352f 55bc
00000380: 6001 5bbb 3bf0 943b 8e59 43bc 5fd3 da3b
00000390: 2bac a23b 2db8 a6bb 012d d2bc 2db3 8db9
000003a0: 96be 62bc 4522 d9bc b4ee 843b 178a 46bb
000003b0: 5e39 273c 0b34 883b 933c 233c 2f2f abbb
000003c0: 4bd8 383b 66d1 a33b 0488 3e3a 9e3a 943b
000003d0: f5f2 313c 9753 e1bb a734 0d3c a028 bc3b
000003e0: 4694 02bc 9718 38bc 37a9 91bb b1c4 6abb
000003f0: 278b dc3a 749e 42ba 8136 b4bb 11d6 fc3b
-0.008546567 -0.0008363086 -0.008354402 -0.011093475 -0.030592067 0.015866814 -0.001510733 -0.0017965552
-0.008526647 -0.005479762 -0.006075838 -0.00013586263 0.011019475 0.0076299934 -0.0043729176 -0.006736049
-0.0074366564 0.009727085 0.0071731 0.0066319616 -0.0127757285 -0.02424143 -0.029503427 -0.000136145
-0.009570759 0.009314206 -0.00022369034 -0.010651346 -0.011741794 0.0073318183 0.038686685 -0.012827994
-0.0032777167 0.028000407 -0.017241668 0.00080121745 -0.001013141 0.03331888 0.01250864 0.00022822218
-0.010342993 0.0032208795 0.019126186 0.028169533 -0.0067335856 0.0067535057 -0.0021152566 -0.011392122
0.010416021 0.0007260022 -0.0016165408 0.0071586547 -0.009118782 0.0057153357 0.026614048 0.0067552826
0.01847438 -0.017097108 0.00172001 0.019120228 -0.008284247 -0.009595376 -0.019052906 0.008751625
-0.015586189 0.005748658 0.013413369 -0.0043229307 0.0034825632 0.0083126575 -0.016133083 -0.004735232
0.011860218 0.015419263 -0.010905481 0.015817873 0.013257036 0.007615537 -0.0074450457 -0.006548037
0.025042502 0.004522513 0.01587267 -0.0016778925 -0.010051897 -0.013148991 0.006257502 -0.005936895
0.031869568 0.006802627 0.006813719 -0.0083097555 -0.010222506 -0.006140932 -0.019046884 0.0074086087
-0.0045206514 -0.004602932 -0.030370032 0.010321005 0.026077956 -0.010521769 -0.022764873 0.00019315639
0.004307196 0.0028844832 0.0046805027 -0.004514045 -0.013743356 0.0059621823 -0.005776552 0.007630358
-0.0044638896 -0.00071098254 0.0063482886 -0.016506048 -0.009658706 0.03344349 -0.013445482 0.011400638
-0.02289208 0.0004952888 -0.016046165 -0.010709039 0.016748974 -0.007034226 -0.01101048 0.012500191
-0.016955713 0.0023377663 0.012709397 0.0010972269 0.0035588911 -0.012421972 -0.0014936915 -0.016615154
0.0048127254 -0.015578589 -0.012768075 0.010373752 0.01317505 0.0029934621 -0.0071654445 -0.024206182
-0.009072469 -0.005198147 0.0049824663 0.011324721 0.005433342 0.01124648 0.005304155 -0.006968741
-0.01026043 0.01134866 -0.014769883 -0.0013544381 -0.005939973 0.0065691588 -0.010611453 0.0426488
-0.027882302 0.0019225922 0.0129439095 -0.011749068 -0.0022174418 0.00978551 0.005170533 0.015539456
-0.027501008 -0.0020392004 -0.0042336984 0.037011072 -0.0081830425 -0.03253399 0.010659929 -0.0109780505
0.05545669 -0.002253438 2.7063781e-05 -0.0069061066 0.006973704 -0.0002991559 -0.004457121 -0.00021674737
0.003527195 0.008152249 0.009267268 0.011579998 -0.014939726 -0.0039274427 0.0006232298 -0.010719794
0.004004516 -0.008990958 0.013129042 0.009068718 -0.02197841 0.007443252 -0.012862901 -0.007045651
0.034479376 -0.0027456102 -0.002944726 0.02050476 0.009576469 0.033253107 1.0121541e-05 -0.017848428
-0.0061262148 0.0063221804 0.0036959595 -0.00412706 -0.0062020454 0.003144226 0.0056005823 -0.011492924
0.005377008 0.0127706155 0.0040748483 -0.003219385 0.0020021575 -0.015379097 -0.013294112 -0.013011743
-0.0033417568 0.0045452393 -0.011923207 0.0066780294 0.0049643717 -0.0050878734 -0.025656225 -0.00027027112
-0.013839385 -0.026505599 0.004056776 -0.003029471 0.0102065485 0.0041565946 0.0099631725 -0.0052241306
0.0028205093 0.0049993275 0.0007268193 0.0045235893 0.010861148 -0.0068764198 0.00861851 0.0057421476
-0.007969921 -0.011236331 -0.004445221 -0.0035822804 0.0016826139 -0.0007424124 -0.0054996614 0.0077159484

0.lin.weight f4 [256, 265]
00000000: ec34 993d e818 bcbd 53b3 e5bd d8c0 c1bd
00000010: 25b6 e6bb da5a 49bd 2859 423c 4567 373d
00000020: 873c 883d ff7a 853c ded9 89bc 943c 57bd
00000030: f431 43bd 8dd4 8d3c 66a3 c23d 7c3e a43d
00000040: d9d7 22bd 9131 283d 51ae 9d3d e50d d6bd
00000050: 762c e5bc c848 24bd d9ac bc3b 60a3 39bd
00000060: f32d 1139 680a a4bd f0f2 433d 2154 d63d
00000070: 56e2 a4bd 2aca 77bd b7c6 c63d ce34 953d
00000080: 57e6 a03d 5907 bbbc 7733 49bd 5ba0 10bd
00000090: ffee aa3d 8fb3 57bd f4a7 423d d258 8dbd
000000a0: 4b3c a03d fa6f cf3d e689 c13d 060e 27bd
000000b0: 5e1b 29bd 1adf bdbd 4440 d03d 5c97 123d
000000c0: 7b28 a43d 7ece b0bc 3fdf 73bc 7474 77bd
000000d0: a5cf 993c 6bdd 823d 59b3 b4bd cd67 43bc
000000e0: d526 a4bd 31b2 3fbd a5f8 a7bc 25f0 953d
000000f0: 808e 2fbd b7f5 cc3d cfb3 0b3d 8fb8 723c
00000100: cbba b4bd 0c4a 22bd d43a cabc a533 b43d
00000110: 5c22 423d d197 b5bd 07e4 8fbd 638c 863d
00000120: 21c2 9f3b a036 2f3c 152b 70bd 8c59 febb
00000130: 33c6 5c3d a7ab ab3d ca6d 153d 9f61 493d
00000140: 0d35 f8bc 8642 83bd c6c4 9cbd 22c6 33bc
00000150: 9736 ac3d 1b67 bcbd d17f 5a3d 5670 b8bd
00000160: 45c4 763d e5da 0cbc 8fb7 35bd 3e19 8ebd
00000170: a118 bb3d c253 09bd 6d52 f63c aa23 61bd
00000180: eeda d33c 686a 0bbc 74ed a13d 654b 903c
00000190: 3866 cd3b cf71 11bc e6d0 42bd c38b 2b3d
000001a0: 61e9 11bc f56f 7ebd 8e82 8c3d d99b c5bd
000001b0: 30a9 b2bc bc9a 17bd e3c9 23bd 5737 7ebd
000001c0: 9d4a 28bc 66f8 6abd 426c b5b8 3362 ad3c
000001d0: 11e7 ab3c fcc9 c83c faf3 81bd db22 38bd
000001e0: ae6f 1fbd 616b d63d 1d3c 38bd ae0d d3bd
000001f0: 3aea df3c 124d 93bc 5374 9c3d 0a9b a23d
00000200: 5bec a53b 509c 20bd 8e77 923d a41f 823d
00000210: 1e8f 7f3b 186d 1b3d a189 b23d 729c a2bd
00000220: 1bdb c23d bd18 63bd 64ca 3cbc 7674 9cbc
00000230: 9474 783d 9c5a 8cba fe05 ba3c 8f04 5abd
00000240: 0e25 d1bd 61e4 2fbd 9982 0fbd aaa7 743d
00000250: f043 c73c 8073 e4bc baf9 b43d 5520 833d
00000260: 2f76 adbd 1f5d b5bb 45ab d0bd 3b5e 1bbd
00000270: 89ef 8fbd 95d6 523d 1247 87bc 2ad4 b5bc
00000280: b6e1 61bc d020 ad3d 2e84 373d 1cb1 0bbd
00000290: 8c8a 843d 55bd d9bc 1959 e1bc 0fbf 96bd
000002a0: b7b1 1bbd 1f27 543d 2298 c2bd 7faf 8b3d
000002b0: 1672 f3bc 995a 143d b647 1abd bef7 1c3d
000002c0: b125 993c eed9 9a3d f8f4 2cbd 835a bb3d
000002d0: d185 9bbd 4d51 afbd ef83 b13d d69c 213c
000002e0: ca48 923d 5378 57bd 026b 62bb 95d9 bdbd
000002f0: 3ae5 923c b5fd 00bc 65ed 9a3d 4f6c 67bd
00000300: e64c 85bc 5ad2 a7bc f081 be3d 24e7 e73c
00000310: 2498 aebd 6ccf e13b 3577 dcbd b643 b8bd
00000320: a4d9 9e3d 1cc4 77bd 1164 bdbd d3c0 d5bd
00000330: 23df 83bd 5477 a0bd e468 d23d b45f a6bd
00000340: c94b d23c b07c d8bd c84d a4bd d354 a2bd
00000350: 9443 aebb e101 363d 33d2 4b3d 46e4 0abd
00000360: 91e2 933d 5b2e af3b c7d5 9ebc c69d 56bd
00000370: b0b0 b9bd 4cbf 913b df15 8d3c c50d bcbd
00000380: dc2b b53d e1b2 593d 3fc9 dfbc 3315 afbd
00000390: 808e 9f3d 2297 e73b b5a3 3bbd 4536 c1bd
000003a0: bce0 9d3d c70b ee3c efa1 c1bd d6b9 a73d
000003b0: cd07 44bd dc89 283d f083 45bc b3de 4e3d
000003c0: 7f81 eb3c cafe 383d b2a8 a8bd 3985 8c3d
000003d0: 8ee1 9fbc 95ce 883d 170d fbbc e55f 86bd
000003e0: 8a35 71bd b131 ca3c a167 4b3d 6071 303d
000003f0: 954f bb3d ac0a 4e3d 2bde 9abb 0ee4 903d
0.07480797 -0.09184438 -0.11215844 -0.0946061 -0.0070407563 -0.04915891 0.011862077 0.04477622
0.0665217 0.016294 -0.01682752 -0.052548006 -0.04765506 0.017313266 0.09503822 0.080197304
-0.03975663 0.041062895 0.07699264 -0.10451869 -0.027975302 -0.040108472 0.0057579097 -0.045321822
0.00013845395 -0.08009797 0.047839105 0.10465265 -0.08050983 -0.060495533 0.097058706 0.07285462
0.07856434 -0.022830652 -0.049121346 -0.035309177 0.08346366 -0.052661475 0.047523454 -0.06901707
0.07824 0.1012878 0.0945013 -0.04078486 -0.041285865 -0.09271069 0.10168508 0.03578888
0.080155335 -0.021582838 -0.014884769 -0.060413793 0.01877577 0.063898884 -0.0882327 -0.0119266035
-0.08015219 -0.046800796 -0.020504305 0.073211946 -0.042860508 0.10007804 0.034107026 0.01481451
-0.088246904 -0.039621398 -0.024686255 0.08798913 0.04739605 -0.08866847 -0.07025915 0.065697454
0.004875437 0.010694176 -0.058634836 -0.0077621397 0.053899955 0.083823495 0.036481656 0.049165364
-0.030298734 -0.06409173 -0.07654719 -0.0109725315 0.0840885 -0.09199353 0.05334455 -0.090058014
0.06024577 -0.00859711 -0.04436451 -0.06938408 0.09135557 -0.033527143 0.0300686 -0.054965653
0.02586123 -0.008509256 0.07906619 0.017614076 0.006268289 -0.008877232 -0.047562502 0.041881334
-0.0089057395 -0.06211849 0.06860839 -0.09648866 -0.02180919 -0.0370128 -0.039987456 -0.062064495
-0.010271695 -0.057365797 -8.650917e-05 0.02116499 0.020984204 0.024510376 -0.06345363 -0.044955116
-0.038924865 0.104697 -0.044979203 -0.103053436 0.027333368 -0.017981086 0.076393746 0.079397276
0.005063576 -0.03921157 0.071517095 0.06353691 0.0038995217 0.037945837 0.08717657 -0.07939996
0.09514447 -0.055443514 -0.011522863 -0.019098502 0.060658053 -0.0010708156 0.022707935 -0.053227004
-0.10212146 -0.04294241 -0.035036657 0.05973021 0.024324387 -0.027887106 0.08836694 0.06402651
-0.08469807 -0.0055347825 -0.10188917 -0.037931662 -0.070281096 0.051474173 -0.016513381 -0.022195894
-0.013786724 0.08453524 0.04480379 -0.03410445 0.06471738 -0.026579538 -0.027508305 -0.0736066
-0.03801128 0.05179512 -0.09501673 0.068205826 -0.029717486 0.036219213 -0.037666045 0.038322203
0.01869473 0.07561098 -0.042225808 0.09148123 -0.07593883 -0.08560429 0.086677425 0.009864053
0.0714279 -0.052604984 -0.0034548645 -0.09270016 0.01793157 -0.0078729885 0.07564811 -0.056499775
-0.01627202 -0.020486046 0.09302127 0.028308459 -0.08525112 0.0068911817 -0.107649244 -0.0899729
0.077563554 -0.06048976 -0.09247602 -0.10437169 -0.06439044 -0.0783526 0.102739125 -0.08123723
0.025670903 -0.10570657 -0.08022648 -0.07926335 -0.0053181145 0.044435386 0.04976101 -0.033909105
0.072209485 0.005346102 -0.019389046 -0.05239656 -0.090669036 0.004447853 0.017222343 -0.09182314
0.08846256 0.053149108 -0.027317641 -0.08548965 0.077908516 0.007067577 -0.04581042 -0.09434179
0.0770888 0.02905835 -0.094547145 0.08189742 -0.047859002 0.041147098 -0.012055382 0.05050535
0.028748272 0.04516486 -0.08235301 0.06861348 -0.019516733 0.066800274 -0.03064589 -0.06561259
-0.05888895 0.024681898 0.049659375 0.043076873 0.091460384 0.050303146 -0.0047261915 0.07074748

1.bias f4 [32]
00000000: 59f7 1ab9 473c 223c b8c2 7dbc c159 f5bb
00000010: cc16 5d3c a67b 0e3c 4e44 79bc 95a4 b13a
00000020: 8e83 fa3b 4c81 27bc 0b3f 493a f7f2 81bb
00000030: 1ba0 25bc 7889 183c f5f4 98bc f128 33bc
00000040: e66d 353a 132b 4dbc 965f 9ebc ffc8 b7bc
00000050: 8003 023a 6092 453c 3b60 d03c 342b 213b
00000060: dd7c 64bc fc30 feba af03 263c 8346 23bc
00000070: 4522 31bc c6cf 1d3c db4b e9bb 724c 813c
-0.00014778729 0.009902067 -0.015488319 -0.007487506 0.013494205 0.008696472 -0.015214039 0.0013553078
0.007645077 -0.010223698 0.00076769356 -0.0039657312 -0.010108973 0.009310119 -0.018671492 -0.010935054
0.0006920978 -0.012522477 -0.019332688 -0.02243471 0.0004959628 0.012058824 0.025436511 0.0024592401
-0.013945785 -0.0019393261 0.010132714 -0.009965542 -0.010811393 0.009632057 -0.0071196384 0.015783522

1.lin.weight f4 [32, 256]
00000000: 09c9 c13d fd1e f5bd 2e45 62bd 09f6 073d
00000010: c229 033e a9e9 abbd 2ac2 cdbd 393a 8d3d
00000020: c1a2 a0bd e378 79bb 1cfb 053c 6993 f03d
00000030: bb54 f6bc a48e e03d 4ffe b8bd a146 de3d
00000040: 6925 a5bd 230e 86bd b030 bf3d 0ca2 d0bd
00000050: 6af0 963d 1242 b8bd ebf6 15bd 6c95 d5bc
00000060: a65c a13d a751 bcbd 0152 a6bd 2f28 e93d
00000070: d79c fbbd 3f48 18bc c6af 32bd 7454 b8bd
00000080: 27e7 a73b e678 dfbb e245 91bc fa13 2cbd
00000090: fda9 e23d 7207 0d3e 6e71 9a3d 375a 043e
000000a0: 0470 003d e85e 92bd e9e2 ad3c 0b40 9f3d
000000b0: beff 8fbd 4420 033d c4be ec3d d013 03be
000000c0: 1937 b13d 89a7 4cbc 9f4a c43d 14d2 b7bc
000000d0: 61f4 1abd 0486 bdbd 5991 523c 8fca febc
000000e0: 3ef1 c83d e6d2 a9bd 072c ef3d 117c 233d
000000f0: 2e4b e83c 60b8 c9bb 07e1 933c 672a ecbd
00000100: 055e 58bc 4f06 92bd 9747 1dbd 43c8 663d
00000110: 1751 a3bd 2d82 033d e244 81bc 3ca9 bcbb
00000120: 9fa7 ca3d f658 913d 560c f73c acd4 d93d
00000130: 89f6 813d da36 693d 5653 9d3a f7e9 c6bc
00000140: d97f f53d 6ea8 cbbd 3297 d33d 4b1e e43c
00000150: baef 30bd b735 a2bd f4e2 ccbd 4a9a fdbd
00000160: 8c58 ccbd 0bec 4a3c eeb8 b03b cdc6 ca3c
00000170: d899 913c 47a6 e4bd 9514 59bd 48bd 463d
00000180: d2c5 e8bd 04ce d13c 5abc c4bd a9b2 a13d
00000190: 00a4 823d 91e1 ca3b c101 a83c 5560 af3d
000001a0: cf61 eebb 86a5 00bd 29e7 31bc 4cb0 adbd
000001b0: e7b4 ddbd f350 eebd 8d94 d13c ceab 5fbd
000001c0: a90f 3a3d 5fb4 a0bd d06f 6a3d 1285 e7bd
000001d0: 5d58 6fba 70a7 efbc fb4e 67bd f18c 033e
000001e0: 9ddf 453c bb48 c1bd ce16 bc3c 68e4 edbd
000001f0: d5ae 4c3c 47e3 0d3d cfc4 bcbd f851 2f3b
00000200: 1c34 383c ea73 b33d b5b2 20bd 785d af3d
00000210: cbce 2f3d 1e0b c0bd 2a9b 7a3d 5b13 573d
00000220: fa7f 1fbd 7cd7 9ebd 24a0 c4bd d0bc 873b
00000230: 322b 14bc 8375 0fbd b065 c3bd 9423 9abb
00000240: 8d47 40bd 4ef1 52bd f779 cebd 0a3a c53d
00000250: 563d d0bc 98ce 6e3d d566 9abb ce5f 8ebd
00000260: 90ee 4d3d 471e f5bd d59b ce3d 6301 5e3d
00000270: f58a eabd b0c5 f6bd 69a0 06be 1368 ca3c
00000280: a790 b5bd 3dd2 01bc a753 363d 5512 88bd
00000290: cba3 d2bd 478f d4bc 08eb 043e c2a2 c13d
000002a0: 30b8 73bd 3975 b9bd 9d7a 3a3d 6777 bb3d
000002b0: 3b5e af3d e6dc 4ebd 6aa4 d93d 9921 9abd
000002c0: c56f c93d 699d 0a3d 0759 353d b66f 3fbd
000002d0: 9d2c dd3d f87a e3bd 3d23 a93d 4a7b c0bd
000002e0: 8a84 44bd a362 b33d a7e1 18bd 0e24 c53d
000002f0: 9ccd 6abd c948 723d 0b44 9cbd 7ee8 103d
00000300: f39d 9ebd b658 e53d 5b1f e83c 38a5 813d
00000310: 5d71 cbbd 98e0 6c3c 4b6c 4b3d f52b 60bd
00000320: 9062 c6bd 2031 7e3c 0fb5 953c 675f b13d
00000330: 7176 ce3c 6740 1f3c 841f 413d 7597 d13d
00000340: 2a8e 673d aff7 243d c9cc f03d 65cc ac3d
00000350: a8ed c0bd e3b2 ab3d 6c7c b7bc 3e3b 77bd
00000360: a098 623d ae3b 05be 51c2 b83d b903 83bc
00000370: 4503 07be b18c adbd deb8 cf3d 8891 ebbd
00000380: d0dc d33d 83db 883c b450 383d 23ac f5bc
00000390: df69 123d be02 d83d b2a0 c6bd 228c 923d
000003a0: e7f4 363d 576c 28bd 97a2 babc dde2 77bd
000003b0: 9b53 963c 3218 2fbd 52b7 bc3d 5af5 823c
000003c0: 8e2f 52bd b7a7 efbd 6a49 133c 2411 64bd
000003d0: 568e 0f3d ba98 d03d a340 003e 93d3 29bd
000003e0: 6dcd 77bd f731 d43c 93a3 b7bd 7942 76bb
000003f0: 2b8a 853d 8917 0c3e 869e 813d de55 b93d
0.094621725 -0.11968801 -0.055241756 0.03319362 0.12808898 -0.083941765 -0.100467995 0.06895871
-0.07843543 -0.003806644 0.008177545 0.11746866 -0.0300697 0.109647065 -0.090328805 0.10853315
-0.08063776 -0.06545665 0.09335458 -0.10187158 0.07370074 -0.08996977 -0.036612432 -0.026072226
0.078789994 -0.091952614 -0.0812111 0.113846175 -0.12285774 -0.009294569 -0.043624662 -0.09000483
0.005123991 -0.006819832 -0.017733518 -0.04201124 0.11067579 0.13772371 0.07541166 0.12925039
0.031356826 -0.07147008 0.021226363 0.07775887 -0.07031201 0.032013193 0.11559823 -0.12800527
0.08653087 -0.012491115 0.09584545 -0.02243904 -0.037830714 -0.09254077 0.012852036 -0.031102447
0.09811638 -0.08292179 0.116783194 0.03991324 0.028356161 -0.0061560124 0.018051637 -0.11531525
-0.01320601 -0.071301095 -0.03839835 0.05634333 -0.07974451 0.032106567 -0.015779916 -0.005757479
0.098952524 0.07097046 0.03015725 0.10636267 0.06345851 0.056937076 0.0012002985 -0.024281485
0.11987276 -0.09944235 0.103315726 0.027846476 -0.04319737 -0.079204015 -0.100042254 -0.12382944
-0.099778265 0.012385379 0.005393139 0.024752999 0.017773554 -0.111645274 -0.052998144 0.048520356
-0.11365856 0.025610931 -0.09606238 0.07895405 0.06378937 0.0061914404 0.020508649 0.08563296
-0.0072748433 -0.031407855 -0.0108583355 -0.084808916 -0.1082552 -0.116365336 0.02558353 -0.054607205
0.04542509 -0.07846903 0.05723554 -0.11304678 -0.00091302936 -0.029254645 -0.056471806 0.12846734
0.012077239 -0.094377 0.022960093 -0.11615831 0.012492855 0.034640577 -0.09217226 0.0026751738
0.011242893 0.08762343 -0.03923293 0.085627496 0.042921823 -0.093771204 0.061183132 0.052508693
-0.038940407 -0.07755944 -0.09600857 0.0041423813 -0.009043502 -0.035024177 -0.0954088 -0.0047039483
-0.046943236 -0.051499657 -0.10081857 0.09630211 -0.025419872 0.058302492 -0.0047119656 -0.06951867
0.05027634 -0.119686656 0.10088316 0.05420054 -0.11452285 -0.12049425 -0.13147129 0.02470783
-0.08865481 -0.00792366 0.04451337 -0.066441216 -0.10285147 -0.025947226 0.12980282 0.09454872
-0.059501827 -0.090555616 0.04552709 0.091536336 0.08562895 -0.050503634 0.106270626 -0.075259395
0.098357715 0.033841524 0.044274356 -0.046737395 0.10799525 -0.11107439 0.08258674 -0.093985155
-0.04797796 0.08759048 -0.037324574 0.096260175 -0.05732499 0.059151445 -0.07630166 0.03537797
-0.0774497 0.11198561 0.028335264 0.06330341 -0.09933732 0.014457844 0.049663823 -0.05472942
-0.09686768 0.015514642 0.018274812 0.08660775 0.025202962 0.009719945 0.047149196 0.10233966
0.056532063 0.040275272 0.1175781 0.08437423 -0.09420329 0.08383729 -0.022398196 -0.060359232
0.055321336 -0.13011047 0.09021438 -0.015992986 -0.13184841 -0.084741004 0.101426825 -0.11502367
0.10344851 0.016706234 0.04499884 -0.029989308 0.035745498 0.10547398 -0.09698619 0.071556345
0.04466715 -0.041118946 -0.022782607 -0.060519088 0.018350413 -0.042747684 0.09214653 0.015986133
-0.051314883 -0.11701911 0.008989671 -0.05568041 0.03504785 0.1018538 0.12524657 -0.04146154
-0.060498644 0.025902731 -0.08966746 -0.0037576242 0.06520494 0.13680853 0.06329064 0.09049581
